lab2/problem3/neural-network-3-critic.pth (torch, 339095 bytes, 5 tensors)

weight f4 [400, 8]
0	0x3e1c230c	0.15247744
1	0xbe106170	-0.1409967
2	0x3e123da6	0.1428133
3	0x3f679c1c	0.9047258
4	0xbd185211	-0.03718764
5	0xbde63aca	-0.11241682
6	0x3e8df95b	0.27729306
7	0xbd549ca2	-0.05190719
8	0xbc50631e	-0.012718944
9	0x3e9e9b67	0.30977938
10	0xbdb22e27	-0.08700209
11	0xbf0a7117	-0.5407881
12	0x3df04b5a	0.11733122
13	0xbd273a81	-0.040827278
14	0x3df1da65	0.118092336
15	0xbf493adb	-0.7860543
16	0x3e4b31c1	0.19843198
17	0xbe07b344	-0.13251978
18	0xbe7dff6e	-0.2480447
19	0x3f08eda7	0.5348763
20	0xbe71778c	-0.2358076
21	0xbcf573c6	-0.029962432
22	0x3d4ed189	0.050492797
23	0xbea74d4a	-0.32676154
24	0x3bdd4117	0.006752144
25	0xbeeba854	-0.46026862
26	0xbcbaad76	-0.02278779
27	0xbee4c968	-0.4468491
28	0xbe431f72	-0.19054964
29	0x3dd8e764	0.10591009
30	0xbc320138	-0.010864548
31	0xbf14f1fa	-0.58181727
32	0x3f90e051	1.1318456
33	0x3e15895b	0.14603178
34	0x3f1f4c1e	0.6222552
35	0x3daf1f78	0.08550924
36	0xbe7ba255	-0.24573644
37	0xbd9322ed	-0.07184396
38	0xbde9c677	-0.11414807
39	0x3dcea9ca	0.100909784
40	0xbea72ce4	-0.32651436
41	0xbeb233ea	-0.34805232
42	0x3ed6b85c	0.4193753
43	0x3d7026f2	0.05863089
44	0xbf8332de	-1.0249898
45	0xbeef8d2d	-0.46787396
46	0x3e1b0d75	0.15141852
47	0x3d9e6199	0.07733459
48	0xbef57565	-0.47941127
49	0xbdde6b63	-0.10860326
50	0x3eabe947	0.33576414
51	0xbde22cc0	-0.11043692
52	0xbfccc298	-1.5996885
53	0xbee14cf1	-0.44004014
54	0x3dfacd3d	0.12246177
55	0x3e8800a7	0.26562998
56	0x3ddf679d	0.109084345
57	0xbe28ff88	-0.16503727
58	0x3e21604d	0.15759392
59	0xbf03a594	-0.5142453
60	0x3c82a99f	0.015950022
61	0xbdcceb46	-0.10005812
62	0x3d334e5b	0.043775897
63	0xbf3cbf56	-0.73729455
64	0x3da6cf54	0.081450135
65	0xbed297d6	-0.41131467
66	0xbe9588cd	-0.29205933
67	0xbe268ada	-0.16263905
68	0xbef5c16f	-0.4799914
69	0xbc580831	-0.013185547
70	0x3dd72e3f	0.105068676
71	0xbf0c86cd	-0.5489319
72	0x3dc33d10	0.09533131
73	0xbe82e795	-0.25567308
74	0x3e9d67cf	0.30743262
75	0xbddba0fd	-0.107240655
76	0x3fc144ae	1.5099084
77	0xbee36a79	-0.4441717
78	0x3ecf9b98	0.40548396
79	0xbd3bc43e	-0.045841448
80	0xbf6709e5	-0.9024947
81	0xbe28f18d	-0.16498394
82	0xbe1ae025	-0.15124567
83	0xbd85a9a9	-0.06526501
84	0x3dccc58b	0.09998616
85	0x3d83df95	0.06439129
86	0xbe0871f6	-0.13324723
87	0xbefc8233	-0.49318084
88	0xbe6b5c04	-0.2298432
89	0xbef78618	-0.48344493
90	0x3f0578f9	0.52137715
91	0x3e620635	0.2207268
92	0xbe0cec57	-0.13762031
93	0x3f02418e	0.5088128
94	0x3c089688	0.008336671
95	0xbd91a84e	-0.0711218
96	0x3dc60a85	0.09669975
97	0xbf142a2c	-0.5787685
98	0xb5fdb500	-1.8902647e-06
99	0x3ed6387a	0.41839963
100	0xbebea5b5	-0.372358
101	0x3da5eddb	0.08102008
102	0x3e0d3a44	0.13791758
103	0xbf58bb01	-0.84660345
104	0x3db03dca	0.08605535
105	0xbeb6a842	-0.35675246
106	0x3e87997b	0.26484284
107	0x3f1bc1a6	0.6084236
108	0xbde02d04	-0.10946086
109	0x3c910e47	0.017707003
110	0x3ec4962d	0.38395825
111	0xbe682547	-0.2267047
112	0xbda6515f	-0.08120989
113	0x3f357c14	0.70892453
114	0x3e0a8709	0.13528074
115	0xbf24c61f	-0.6436481
116	0xbe1a90dc	-0.15094322
117	0x3e2f1abe	0.17100045
118	0xbf0851e1	-0.5324994
119	0x3df626f3	0.12019148
120	0xbc8d84ef	-0.017275302
121	0x3e4c10a5	0.19928224
122	0xbd889fae	-0.066710815
123	0xbeb2f091	-0.34949163
124	0xbbbc31d4	-0.0057432447
125	0x3e112e53	0.14177828
126	0xbd0cae9e	-0.034346215
127	0xbe36d0b6	-0.17853054
128	0xbec38043	-0.38183793
129	0xbe484473	-0.19557361
130	0xbf51bd95	-0.81929904
131	0xbe915612	-0.2838598
132	0x3f0f8f20	0.56077766
133	0x3e211eb3	0.15734367
134	0x3e9b6c2d	0.3035597
135	0x3d2a6f4a	0.04161004
136	0x3ee2ddc3	0.44309816
137	0x3f0c63cf	0.54839796
138	0xbea705a4	-0.3262149
139	0xbf31c723	-0.69444484
140	0xbe33a8c0	-0.17544842
141	0x3e8634f4	0.26212275
142	0xbe41b87a	-0.18918028
143	0x3cdcae7f	0.026938675
144	0x3e9d1773	0.30681953
145	0xbec21a3b	-0.37910637
146	0x3d7aa3de	0.061191432
147	0xbd18b4a0	-0.037281632
148	0x4003f32b	2.0617168
149	0xbe45295e	-0.19254062
150	0x3d033c62	0.032040007
151	0x3ea578ef	0.32318828
152	0x3e8f72dd	0.2801732
153	0xbec638e7	-0.38715288
154	0xbf2efe47	-0.68356746
155	0xbe071b36	-0.13193974
156	0xbf7dd000	-0.9914551
157	0xbd49b08e	-0.04924064
158	0xbe403769	-0.18771137
159	0xbea70da9	-0.3262761
160	0xbf958977	-1.1682576
161	0x3e9df681	0.3085213
162	0xbe7e86ae	-0.24856064
163	0x3eec29cd	0.4612564
164	0x3ebb067d	0.36528388
165	0x3f1eb509	0.6199499
166	0xbeea5f18	-0.45775676
167	0xbe5fa796	-0.21841273
168	0x3f3a9186	0.728783
169	0xbe236f23	-0.15960364
170	0x3f04e1c8	0.51907015
171	0x3e0a8ce7	0.13530312
172	0xbef5b660	-0.47990704
173	0xbf11812d	-0.5683773
174	0xbeadf858	-0.33978534
175	0xbe655544	-0.22395808
176	0xbf8f3b5b	-1.1189989
177	0x3ee04047	0.4379904
178	0xbec777a6	-0.38958472
179	0x3f1f55b3	0.6224014
180	0x3eda6327	0.42653772
181	0x3efa5910	0.48896074
182	0xbe8fbc49	-0.28073338
183	0xbdb3151d	-0.087442614
184	0x3e10c73c	0.14138502
185	0xbe899dfb	-0.26878342
186	0x3d3d5790	0.046226084
187	0x3e6bd7de	0.23031566
188	0xbecb4847	-0.3970358
189	0x3f452653	0.77011603
190	0x3df1fdd6	0.118159935
191	0xbf866ab2	-1.0501311
192	0xbf8c8bed	-1.0980202
193	0x3f0def6a	0.5544344
194	0xbeade1f2	-0.33961445
195	0x3f16d5b3	0.5891983
196	0x3ee61ea9	0.44945267
197	0x3eeb7b11	0.4599233
198	0xbe289ae2	-0.16465333
199	0x3dd92fe7	0.1060484
200	0xbdf37eeb	-0.11889442
201	0xbe5b68d2	-0.21426705
202	0x3e7cf61e	0.24703261
203	0x3e2811db	0.16413061
204	0xbfadb7ff	-1.3571776
205	0xbe32545b	-0.17414992
206	0x3e36cb30	0.17850947
207	0x3e0d942f	0.13826059
208	0xbea10b83	-0.31454095
209	0xbf0aacd5	-0.5416997
210	0xbed2b95b	-0.4115704
211	0xbdb1acdf	-0.08675551
212	0x3ddd6330	0.10809934
213	0x3e241244	0.16022593
214	0xbce32ad3	-0.027730381
215	0xbe9db304	-0.3080064
216	0x3efb5f8d	0.49096337
217	0xbf16b490	-0.58869267
218	0xbd186965	-0.037209887
219	0xbe6ea886	-0.23306474
220	0xbe6bc661	-0.23024894
221	0x3e9d690e	0.30744213
222	0xbeb50cca	-0.3536132
223	0xbe23b46e	-0.15986797
224	0x3c6e6a60	0.014551729
225	0xbeb6726c	-0.35634172
226	0x3de461b2	0.111514464
227	0x3f174c18	0.59100485
228	0x3e30a17d	0.17249103
229	0xbe175770	-0.14779449
230	0xbe261163	-0.1621757
231	0x3e8b4893	0.27203807
232	0x3e9b2596	0.30302113
233	0x3e9b9e4e	0.30394214
234	0xbe2551ae	-0.1614444
235	0xbcce690e	-0.025196578
236	0x3fc99a41	1.57502
237	0xbe12f105	-0.14349754
238	0x3e08b87a	0.13351622
239	0x3e71760f	0.23580192
240	0x3e08af3b	0.13348095
241	0xbf04f8a9	-0.51941925
242	0x3c068464	0.008210275
243	0xbebb1770	-0.3654132
244	0xbe714fb9	-0.23565568
245	0xbdc4cfb6	-0.0960993
246	0x3e0de066	0.13855132
247	0xbe361c8c	-0.17784327
248	0x3f9ac603	1.2091678
249	0x3cb54b90	0.022130758
250	0x3f048dfd	0.51779157
251	0xbc1ce131	-0.009575174
252	0xbe8122d3	-0.2522188
253	0xbdb62c74	-0.088951975
254	0xbf080acd	-0.5314148
255	0xbeb84db3	-0.3599678

bias f4 [400]
0	0x3f3f930a	0.7483374
1	0x3e70afe9	0.23504604
2	0xbed35ca8	-0.4128163
3	0x3e8a0958	0.26960254
4	0xbcd79e52	-0.02632061
5	0x3e8902fd	0.26760092
6	0xbc5da32f	-0.0135276755
7	0x3e0f6d57	0.14006554
8	0xbdc3239e	-0.09528278
9	0x3d94eb3d	0.07271431
10	0xbde14b24	-0.1100066
11	0xbed6a68d	-0.41923943
12	0x3ec066bb	0.37578377
13	0x3f322659	0.69589764
14	0x3e104c61	0.14091636
15	0x3ecad5fb	0.3961638
16	0xbebea49a	-0.37234956
17	0x3e63b12a	0.22235551
18	0x3e75d81b	0.24008219
19	0x3e001b2d	0.12510367
20	0xbe2976f2	-0.1654928
21	0xbed12995	-0.40852037
22	0xbdaa9465	-0.08329085
23	0xbe7266e5	-0.23672064
24	0xbe014832	-0.12625197
25	0x3e03b6ce	0.12862703
26	0xbe833b39	-0.2563112
27	0x3ec952d5	0.39321008
28	0x3f27dfee	0.65576065
29	0x3e55a456	0.2086347
30	0xbe342588	-0.17592442
31	0xbd1d1159	-0.038346622
32	0xbe1f80a1	-0.15576412
33	0xbeb71ff2	-0.3576656
34	0x3e183795	0.14864953
35	0xbe790e9c	-0.2432198
36	0xbdced5f5	-0.10099403
37	0xbe1d0122	-0.15332463
38	0x3ee0e6e7	0.43926165
39	0xbd81c6eb	-0.06336769
40	0x3de9063a	0.11378141
41	0xbebee330	-0.37282705
42	0x3e2ba4e9	0.16762127
43	0x3d529bfb	0.051418286
44	0xbd07d704	-0.03316404
45	0xbdbeb94e	-0.09312688
46	0xbe62d089	-0.22149862
47	0x3d5bf2ab	0.053698223
48	0x3dbcd8e3	0.09221055
49	0x3e31d8cc	0.17367858
50	0x3cd2616d	0.025681222
51	0xbea42a86	-0.32063693
52	0xbed4b032	-0.41540676
53	0xbe1bf4b3	-0.15230064
54	0x3f03ed2c	0.5153377
55	0xbe9a8bf4	-0.301849
56	0xbe81356e	-0.25236076
57	0xbecf90d2	-0.40540177
58	0x3e93fb0f	0.2890248
59	0xbe72faaf	-0.2372844
60	0xbec670ca	-0.38757926
61	0x3e39efd6	0.18157896
62	0x3e3a4524	0.18190438
63	0x39d7c62c	0.00041155645
64	0x3c88c91e	0.016697463
65	0x3d93c1d3	0.072147034
66	0x3c985c98	0.01859884
67	0x3ec14196	0.3774535
68	0x3dc8bb27	0.098013215
69	0x3e968b69	0.29403237
70	0xbe3d9da8	-0.18517172
71	0xbe419961	-0.18906166
72	0xbe2318e3	-0.15927462
73	0x3e00387b	0.12521546
74	0x3eb1162b	0.34587225
75	0xbde4c397	-0.11170118
76	0xbdc27ec8	-0.09496838
77	0xbdbb1962	-0.09135701
78	0x3f09222b	0.5356776
79	0x3ea5d51c	0.32389152
80	0x3c77e825	0.015131031
81	0x3e0384cb	0.12843625
82	0xbe8315e3	-0.25602636
83	0xbe912e47	-0.2835562
84	0x3e5ca5ba	0.21547595
85	0xbe6fc7ec	-0.23416108
86	0x3dde9535	0.10868303
87	0xbe361c3e	-0.17784211
88	0x3d7c0665	0.061529536
89	0x3f30f36b	0.69121426
90	0xbeba4017	-0.36377022
91	0xbe898c21	-0.26864722
92	0x3f0e02a8	0.55472803
93	0x3ed4c310	0.4155507
94	0xbe5f923a	-0.21833125
95	0xbc69ec48	-0.014277525
96	0xbd352409	-0.04422382
97	0x3d9a884a	0.07545526
98	0xbe3600ce	-0.17773744
99	0x3e7457b1	0.23861577
100	0xbe94053d	-0.28910246
101	0xbd2d0945	-0.04224517
102	0x3dfbdade	0.12297605
103	0xbe80a297	-0.25124046
104	0xbe22e80c	-0.15908831
105	0xbeedb120	-0.46424198
106	0xbeb6f88b	-0.35736498
107	0xbbe85ce6	-0.0070911525
108	0x3ca0b9b2	0.019619796
109	0x3e9deb33	0.30843505
110	0x3dca27fe	0.09870909
111	0x3b8de3da	0.0043301405
112	0x3f030b3f	0.51189035
113	0x3e2420ae	0.16028091
114	0x3d7807ce	0.060554318
115	0x3c88b1f6	0.01668642
116	0x3eab686c	0.33478105
117	0x3e9680c6	0.2939512
118	0x3e918339	0.28420427
119	0xb8283f68	-4.0113373e-05
120	0x3f713aa6	0.94230115
121	0x3edfd06f	0.4371371
122	0x3c304a3e	0.010759888
123	0xbe9ebdcc	-0.3100418
124	0x3f0be68f	0.5464868
125	0x3f2bd8ea	0.6712786
126	0x3ead198c	0.33808553
127	0x3e67cc34	0.22636491
128	0xbf11fee9	-0.5702959
129	0x3cb06454	0.021532215
130	0xbde5d3c6	-0.11222033
131	0x3e35cec0	0.1775465
132	0xbdc32d78	-0.09530157
133	0xbeeaeadf	-0.45882317
134	0xbf225c8e	-0.6342248
135	0x3ccb07e5	0.024784038
136	0x3f1bf237	0.60916466
137	0xbc80cace	-0.015721705
138	0x3d705f9c	0.05868493
139	0xbdd234e1	-0.10263992
140	0xbbddea93	-0.006772348
141	0xbded2f9a	-0.11581345
142	0xbe0574eb	-0.13032882
143	0xbea89962	-0.32929522
144	0xbe31a142	-0.17346671
145	0xbc5f1668	-0.013616182
146	0xbee806a8	-0.45317578
147	0xbcd32d22	-0.025778357
148	0xbd9938fc	-0.07481572
149	0xbb87c33e	-0.0041431477
150	0x3eb60801	0.35552981
151	0xbcedf3db	-0.029046943
152	0xbe533c51	-0.20628478
153	0xbda27761	-0.07932926
154	0xbec12f47	-0.37731382
155	0x3c40f4aa	0.011777082
156	0xbd20f72f	-0.039298233
157	0x3e11cc00	0.14237976
158	0xbe7b43fd	-0.24537654
159	0xbeedbfc5	-0.4643537
160	0xbe2d90f5	-0.16949828
161	0x3e6c9235	0.23102649
162	0x3e59a007	0.21252452
163	0xbe02f1eb	-0.12787597
164	0x3e5aed16	0.21379504
165	0x3ea13721	0.31487373
166	0xbe554c90	-0.20829988
167	0xbcae342c	-0.021265112
168	0x3de4abc1	0.11165572
169	0x3e3a8200	0.18213654
170	0x3e128ab5	0.14310725
171	0x3da809b5	0.082049765
172	0x3c3ee7b1	0.011651919
173	0xbe22531f	-0.1585202
174	0x3c66c985	0.014086132
175	0x3eb3bcda	0.3510502
176	0xbeae3414	-0.34024107
177	0x3ec0c55a	0.37650567
178	0xbd96a7ef	-0.073562495
179	0xbd0821e7	-0.033235457
180	0x3cc3b22c	0.02388867
181	0x3ee24b02	0.4419785
182	0xbeb87dbc	-0.36033428
183	0xbea8a04c	-0.32934797
184	0x3f07fae4	0.53117204
185	0xbed4de0b	-0.41575655
186	0x3e4ed203	0.201973
187	0x3e64f1eb	0.2235791
188	0x3e879b06	0.2648546
189	0xbe957291	-0.2918897
190	0xbdecda98	-0.11565131
191	0x3e71a8f9	0.23599614
192	0x3f2d9a59	0.6781364
193	0x3e4389fe	0.19095609
194	0xbdc6e017	-0.097107105
195	0xbe2ce484	-0.16884047
196	0x3df3fb7a	0.119132
197	0xbece653b	-0.40311608
198	0x3d4fd8fe	0.05074405
199	0x3eacafc1	0.3372784
200	0x3da81213	0.082065724
201	0xbe592938	-0.2120713
202	0x3e13d9e2	0.14438584
203	0x3ebf8cc9	0.37412098
204	0x3d0f6f9a	0.03501854
205	0xbe458d45	-0.19292171
206	0xbe584fc4	-0.21124178
207	0xbe277ef0	-0.16357017
208	0x3dfeef56	0.124479935
209	0xbdd304a4	-0.103036195
210	0x3d3e3695	0.046438772
211	0xbe7bfce5	-0.2460819
212	0xbe4d2d9d	-0.20036931
213	0x3ebc9bd9	0.36837652
214	0xbdd23ee9	-0.102659054
215	0xbe02effe	-0.12786862
216	0xbe5b3661	-0.21407463
217	0xbe8b5e6c	-0.27220476
218	0xbead08cd	-0.33795777
219	0xbd39d025	-0.045364518
220	0xbef4c61e	-0.478074
221	0xbdeed1b5	-0.11661092
222	0xbdde4eed	-0.10854898
223	0x3f571a45	0.8402446
224	0x3e3a69fe	0.18204495
225	0xbe31ed21	-0.17375614
226	0xbe306822	-0.17227224
227	0x3e87b518	0.2650535
228	0x3e9107a8	0.28326154
229	0xbe960f14	-0.2930838
230	0xbd992d8f	-0.07479393
231	0x3e314c32	0.17314222
232	0x3f12a14f	0.5727739
233	0xbdf22cc7	-0.11824947
234	0xbef12325	-0.47097126
235	0x3d4683d0	0.04846555
236	0xbeb77638	-0.3583238
237	0x3e3da653	0.18520479
238	0x3f147f95	0.58007175
239	0x3dabae0a	0.08382805
240	0x3eb27f6f	0.3486285
241	0xbedfdd22	-0.43723398
242	0xbeacd4ec	-0.33756196
243	0x3e1870a7	0.14886723
244	0x3e6a660c	0.2289049
245	0x3d8f6cad	0.0700315
246	0xbe26b1df	-0.1627879
247	0x3ea9fc3a	0.33200246
248	0xbd95c607	-0.07313161
249	0xbe6ea6dc	-0.2330584
250	0x3f298f2d	0.66234094
251	0xbec35ebb	-0.3815821
252	0x3e129044	0.14312845
253	0x3ed3bb6f	0.41353938
254	0xbe0df8ec	-0.13864487
255	0x3c20d2bb	0.009815867

weight f4 [200, 400]
0	0xbf00a8d1	-0.50257593
1	0xbdc92867	-0.09822159
2	0xbb588bc7	-0.0033042298
3	0x3c9d0713	0.019168412
4	0x3e856ab4	0.2605797
5	0xbd269d01	-0.040677074
6	0xbe7c17e4	-0.24618489
7	0x3bab20c0	0.00522241
8	0x3dcdad48	0.100428164
9	0xbf031c44	-0.51215005
10	0x3dd1dc27	0.10247069
11	0x3e188f6f	0.14898466
12	0xbe4c051f	-0.19923829
13	0xbe95e441	-0.29275706
14	0xbe9c17da	-0.30486947
15	0xbe319fae	-0.17346069
16	0x3c5b801b	0.013397242
17	0xbdf40524	-0.11915043
18	0xbf43899b	-0.76381844
19	0xbdc3fd95	-0.09569851
20	0x3e925cbd	0.2858638
21	0x3eb9d7b5	0.36297384
22	0x3e184f8e	0.14874098
23	0xbca77fb7	-0.020446641
24	0x3e216ccc	0.15764159
25	0xbc374ed7	-0.0111882305
26	0x3e361938	0.17783058
27	0xbc183d94	-0.009292025
28	0xbecf91c3	-0.40540895
29	0xbf503c5f	-0.8134212
30	0x3cda37b9	0.026637899
31	0x3edc1294	0.42982924
32	0x3e86a875	0.26300398
33	0x3d895aaf	0.0670675
34	0xbe1d5820	-0.15365648
35	0x3e6fc4a2	0.23414853
36	0xbe37f5f4	-0.17964917
37	0x3e6810a9	0.22662605
38	0xbe12357f	-0.1427822
39	0xbd99fd28	-0.07518989
40	0x3d7a1bb6	0.061061583
41	0xbe6473a3	-0.22309737
42	0x3dce20b1	0.10064829
43	0xbdaf2284	-0.08551505
44	0x3dea61f0	0.11444461
45	0xbe1a3768	-0.15060198
46	0x3d6aee1e	0.057355992
47	0x3e36aa2d	0.17838354
48	0xbe8a68f5	-0.270332
49	0x3d4a3262	0.049364455
50	0x3e38892e	0.1802108
51	0xbdcc5bf5	-0.09978477
52	0x3ec9fc23	0.39450178
53	0xbe89dd0a	-0.26926452
54	0xbe2c04aa	-0.16798654
55	0x3cfd2e6f	0.03090593
56	0x3ed4b2e1	0.41542724
57	0x3d91661a	0.070995525
58	0xbdff15b8	-0.124553144
59	0x3d7b4896	0.06134852
60	0x3ef3e71f	0.4763727
61	0xbd69e1f1	-0.05710024
62	0xbe9a549f	-0.30142686
63	0x3dd953fd	0.106117226
64	0xbda81533	-0.082071684
65	0xbe494533	-0.19655304
66	0xbe69b48a	-0.22822776
67	0xbcef65ae	-0.02922329
68	0x3e17143e	0.14753816
69	0xbdf4e7f8	-0.11958307
70	0x3e3c4bd9	0.18388309
71	0x3ed9fc61	0.42575362
72	0x3db83c64	0.089958936
73	0xbe05f974	-0.1308344
74	0xbc82a0fc	-0.015945904
75	0x3e9c54f3	0.3053356
76	0x3ea9911b	0.3311852
77	0x3d769b9a	0.060206987
78	0xbd460812	-0.04834754
79	0xbcee3b13	-0.029080903
80	0x3ca5fdad	0.020262564
81	0xbbbbd90c	-0.005732661
82	0x3e43779a	0.19088593
83	0x3e160999	0.14652099
84	0xbd51886c	-0.051155493
85	0x3d32fbf4	0.043697312
86	0x3d6b9603	0.05751611
87	0x3e10d7df	0.14144848
88	0xbd7649b3	-0.06012888
89	0xbe97d15c	-0.29651916
90	0xbba2a843	-0.004963906
91	0x3eb49ec9	0.35277393
92	0xbdf51082	-0.11966039
93	0xbe1e5785	-0.15463074
94	0x3e56ebc0	0.20988369
95	0x3d8c5bc8	0.068534434
96	0xbe0b8cef	-0.1362798
97	0x3db11057	0.08645695
98	0x3e882ca3	0.26596555
99	0xbc3c9491	-0.01151003
100	0xba901633	-0.0010992944
101	0xbeb5c683	-0.35503015
102	0xbe84015d	-0.2578229
103	0x3e1913ae	0.14948913
104	0xbd8fa8a2	-0.07014586
105	0x3e2d0f4b	0.16900365
106	0x3b902dc3	0.0043999865
107	0xbe367c64	-0.17820889
108	0xbe9bfe6d	-0.3046755
109	0xbd7044c5	-0.058659334
110	0xbd5cdc0d	-0.053920794
111	0x3d026c19	0.03184137
112	0x3b7097e7	0.0036711635
113	0x3d459836	0.048240863
114	0x3d890d61	0.06692005
115	0x3e92e37c	0.28689182
116	0xbe529e7f	-0.20568274
117	0xbb85422b	-0.0040667257
118	0xbe81b922	-0.25336558
119	0x3e0c4a73	0.13700275
120	0xbf3dc96f	-0.7413549
121	0xbe0b6d63	-0.13615946
122	0x3e8f0f5d	0.2794141
123	0x3cf69549	0.030100482
124	0xbeb63dd3	-0.35594043
125	0xbec6413e	-0.3872165
126	0x3df8eed1	0.121549256
127	0xbd0bb483	-0.034107696
128	0x3e39e57c	0.18153948
129	0x3e87b6cf	0.2650666
130	0x3cd1e1b1	0.025620313
131	0x3cb34062	0.021881286
132	0x3bcacb23	0.0061887666
133	0x3ed47787	0.41497442
134	0xbe09e055	-0.13464482
135	0xbd385b5e	-0.04500901
136	0xbe50876c	-0.2036416
137	0xbe2cc32f	-0.16871332
138	0xbe533a52	-0.20627716
139	0xbae43281	-0.0017410071
140	0xbe848968	-0.25886083
141	0x3e1a0463	0.15040736
142	0xbda3e685	-0.080029525
143	0x3ecdc5b7	0.40189907
144	0x3e852e35	0.26011816
145	0x3e24e508	0.16102993
146	0x3e75998f	0.23984359
147	0x3d97ec8e	0.07418166
148	0x3eb0543a	0.3443926
149	0xbcd2d1b6	-0.025734764
150	0xbe90f00b	-0.28308138
151	0x3d153ab1	0.036432926
152	0x3eb7ce75	0.35899702
153	0x3e7e2804	0.24819952
154	0x3e960626	0.29301566
155	0xbd07d2f2	-0.033160158
156	0xbdfb30c9	-0.122651644
157	0xbec5dd3c	-0.3864535
158	0x3e2ede3b	0.17076962
159	0xbd354e2c	-0.044264004
160	0x3e8d111e	0.27552122
161	0xbde09234	-0.10965386
162	0xbbf86e22	-0.007581488
163	0xbe08be9a	-0.13353959
164	0x3e07947d	0.13240238
165	0xbe60f11e	-0.21966979
166	0x3eb9260e	0.36161846
167	0xbddcc605	-0.10779957
168	0x3ba6edb2	0.0050942535
169	0x3d94b7cb	0.07261618
170	0xbe07408e	-0.1320822
171	0x3e3d869e	0.18508384
172	0xbed41887	-0.41424963
173	0x3d3776ec	0.044791147
174	0xbdd11612	-0.10209288
175	0x3c17bfca	0.009262035
176	0xbe48809e	-0.19580314
177	0xbd9c71e3	-0.0763891
178	0x3e399808	0.18124402
179	0x3dbb544b	0.09146937
180	0x3e2b9cc8	0.16759026
181	0xbe4de790	-0.20107865
182	0xbc2e9fff	-0.010658263
183	0x3cc3a3fe	0.023881909
184	0xbeb52a31	-0.35383752
185	0x3dbb625c	0.0914962
186	0xbe5560e2	-0.20837739
187	0x3d31d43c	0.043415293
188	0xbd9ffec4	-0.078122646
189	0x3e653294	0.22382575
190	0x3e833b5c	0.25631225
191	0x3dac7726	0.08421163
192	0xbd664c54	-0.056225136
193	0x3d6c7fc9	0.057739053
194	0xbc351406	-0.011052137
195	0x3d1c1fd1	0.03811628
196	0x3e473169	0.19452442
197	0x3d3c1c7f	0.045925613
198	0x3e107f6e	0.1411111
199	0xbe12ab18	-0.1432308
200	0xbc87ae64	-0.016562648
201	0x3e790fa9	0.2432238
202	0xbdbe709a	-0.09298821
203	0xbe334812	-0.17507961
204	0xbd8438bf	-0.06456136
205	0x3ed740f6	0.4204175
206	0x3d256968	0.040383726
207	0x3d439a24	0.04775442
208	0xbe31f907	-0.17380153
209	0x3dd3bf2d	0.10339198
210	0x3e8e230c	0.27761114
211	0x3d633005	0.055465717
212	0x3e8cebb7	0.27523586
213	0xbdd77341	-0.1052003
214	0x3dd0fd58	0.102045715
215	0x3db6e4a3	0.08930328
216	0x3ee0fa3b	0.4394091
217	0x3e114249	0.14185442
218	0xbbfc774b	-0.0077046505
219	0xbe2659f8	-0.16245258
220	0x3e8f9411	0.28042653
221	0x3de0b187	0.10971361
222	0x3ecc87ad	0.39947262
223	0xbf360a22	-0.7110921
224	0x3ce887d4	0.02838508
225	0x3d18482c	0.037178203
226	0x3e5868d1	0.21133734
227	0xbddc5f59	-0.107603736
228	0xbe579afa	-0.21055213
229	0xbdaa3d31	-0.083124526
230	0x3db3401c	0.08752462
231	0x3c623fc4	0.013809148
232	0xbe656491	-0.22401644
233	0x3dd86ccc	0.10567626
234	0xbe5825f4	-0.21108228
235	0xbec422e4	-0.3830787
236	0x3eabf8cc	0.33588254
237	0xbdea6c37	-0.114464216
238	0xbb9fdb7d	-0.00487846
239	0x3d6e8ffa	0.058242775
240	0xbdce1b21	-0.10063768
241	0x3c909bde	0.017652448
242	0xbc618a56	-0.013765892
243	0x3df96e70	0.121792674
244	0x3e7bde41	0.24596502
245	0xbe476564	-0.19472271
246	0x3e22568a	0.15853325
247	0xbd0f99bc	-0.035058722
248	0x3e575485	0.21028335
249	0xbd220f0b	-0.039565127
250	0xbe2b77f9	-0.16744985
251	0x3d9fe707	0.07807737
252	0xbe5c79e8	-0.21530879
253	0x3d14598d	0.036218215
254	0xbe6b89bb	-0.23001759
255	0xbc6a5656	-0.014302811

bias f4 [200]
0	0xbe4c32e7	-0.19941293
1	0x3e7dc558	0.24782312
2	0xbe25e3bd	-0.16200157
3	0xbdd92d93	-0.10604396
4	0xbe700c29	-0.23442139
5	0xbc61bbb8	-0.013777666
6	0xbcfc9906	-0.030834686
7	0xbe4ad28b	-0.19806878
8	0xbd8a0a56	-0.06740253
9	0xbe124200	-0.1428299
10	0xbe1c166b	-0.15242927
11	0xbc188e61	-0.0093112895
12	0xbe6b2bd8	-0.22965944
13	0xbe164faf	-0.14678834
14	0xbe68ad43	-0.22722344
15	0xbe3b3050	-0.18280149
16	0xbbcbb3e4	-0.006216513
17	0xbe3e4f98	-0.1858505
18	0x3f30e9a4	0.6910651
19	0xbe1404f2	-0.14455011
20	0xbe2d1d25	-0.16905649
21	0xbe131f16	-0.14367327
22	0xbcf7776b	-0.03020831
23	0x3c4578ed	0.012052757
24	0x3f20e1b9	0.62844425
25	0xbe3426db	-0.17592947
26	0xbb99141b	-0.004671586
27	0xbe4c8676	-0.19973168
28	0x3bc2afd3	0.00594137
29	0xbd120d6a	-0.035657324
30	0xbe46255e	-0.19350192
31	0xbd72ccab	-0.059277218
32	0x3f188831	0.5958281
33	0xbe1d99ca	-0.15390697
34	0xbe2c91c1	-0.16852476
35	0x3cdac3a8	0.026704624
36	0xbda77809	-0.08177192
37	0x3f0cf888	0.5506673
38	0xbe1264cc	-0.14296263
39	0xbdd7da1f	-0.1053965
40	0xbd099430	-0.03358859
41	0xbe66294c	-0.22476691
42	0xbdd0d559	-0.10196943
43	0xbe326f90	-0.1742537
44	0x3a6c75a7	0.0009020217
45	0xbe1842f1	-0.14869286
46	0xbe032717	-0.1280788
47	0xbcac0615	-0.020998994
48	0xbd474761	-0.048652057
49	0xbe5bb03f	-0.21453951
50	0xbc83fca0	-0.016111672
51	0x3c0d06aa	0.008607546
52	0xbde44f1c	-0.111479014
53	0xbdc208e6	-0.094743535
54	0xbe26fcfc	-0.16307443
55	0xbcdcff8b	-0.026977321
56	0xbe36b035	-0.17840655
57	0xbe08c6de	-0.13357112
58	0xbd64cc95	-0.055859167
59	0xbd77f746	-0.060538553
60	0xbe1ef655	-0.15523656
61	0xbe618bb0	-0.22025943
62	0xbe6c2630	-0.23061442
63	0xbcbf9402	-0.023386005
64	0xbd4412b7	-0.04786941
65	0x3f1d5560	0.61458397
66	0x3bfc478d	0.007698959
67	0xbe64445d	-0.22291704
68	0xbd3ab9e9	-0.045587454
69	0xbcde7ca6	-0.027159046
70	0xbc1263b7	-0.008934907
71	0xbdae45b3	-0.08509388
72	0x3cd3a165	0.025833795
73	0xbc5a6bbc	-0.01333135
74	0xbe2db23e	-0.16962525
75	0xbe1fe21c	-0.15613598
76	0xbe3b099d	-0.18265386
77	0xbe2e7642	-0.170373
78	0xbe2394d2	-0.15974739
79	0xbd9aec35	-0.07564584
80	0xbe020c53	-0.12700014
81	0x3d14ba01	0.0363102
82	0xbe250b6e	-0.16117641
83	0xbe03c2fd	-0.12867351
84	0x3e85e3c4	0.26150334
85	0x3ed8ebd3	0.4236742
86	0xbd5ca6ba	-0.05386994
87	0xbd3a89f8	-0.045541734
88	0x3c358003	0.011077884
89	0xbe6a9ed1	-0.22912146
90	0x3c8a9317	0.016915841
91	0x3bb39be5	0.0054812306
92	0xbe53a6cc	-0.20669097
93	0x3cea1191	0.02857283
94	0xbe400f0a	-0.18755737
95	0x3efd0426	0.49417228
96	0xbe48e635	-0.19619067
97	0xbe63ac34	-0.22233659
98	0xbe7cbc7c	-0.24681276
99	0x3bb12636	0.0054061664
100	0x3f2a46fb	0.6651456
101	0xbe9597a4	-0.29217255
102	0xbe5e1f64	-0.21691662
103	0xbe4c972a	-0.1997954
104	0xbd8f4dd2	-0.06997265
105	0xbe722c15	-0.23649628
106	0xbde10c86	-0.10988717
107	0xbe2b3ae9	-0.16721691
108	0xbe508ae2	-0.2036548
109	0xbaed4310	-0.0018101651
110	0xbd9964f7	-0.07489961
111	0x3d0dbb34	0.03460236
112	0x3bfe5270	0.007761292
113	0x3b01e7ec	0.0019822074
114	0xbbd5bf4f	-0.00652305
115	0xbceb6b8e	-0.02873781
116	0xba432331	-0.00074439036
117	0xbd7360d5	-0.059418518
118	0xbe61c1d9	-0.22046603
119	0xbe2df33a	-0.16987315
120	0xbe53ff5d	-0.20702882
121	0x3e78f207	0.24311076
122	0x3e6ea04f	0.2330334
123	0xbe199c88	-0.15001118
124	0xbccdee49	-0.025138037
125	0xbd978275	-0.073979296
126	0xbc711fa2	-0.0147170145
127	0xbcc19d60	-0.023634613
128	0xbe3bd213	-0.18341856
129	0xbcd4464b	-0.025912425
130	0x3e669dae	0.22521088
131	0xbe3752d3	-0.17902689
132	0xbd3f2963	-0.04667033
133	0xbe55e229	-0.20887055
134	0xbe3de3dd	-0.18543954
135	0x3ba4c430	0.00502827
136	0xbe073928	-0.13205397
137	0xbe5743f8	-0.21022022
138	0xbdd30c26	-0.103050515
139	0x3cc195c3	0.023630982
140	0xbdb522bd	-0.088445164
141	0xbe6ce449	-0.23133959
142	0x3c50aae6	0.012736058
143	0xbe2289af	-0.15872835
144	0xbe206768	-0.15664446
145	0xbd66ac99	-0.056316946
146	0x3e9245ee	0.28568977
147	0x3c9331d8	0.017968103
148	0xbe547f57	-0.20751701
149	0xbe208ea5	-0.15679415
150	0xbe6f7a35	-0.23386462
151	0x3d01836c	0.031619474
152	0xbe890faa	-0.26769763
153	0x3d26d696	0.04073199
154	0xbe4fe129	-0.20300736
155	0xbe3b547c	-0.18293947
156	0xbcea1399	-0.028573798
157	0xbe194cd9	-0.14970721
158	0xbd04f8a6	-0.032463692
159	0xbe80ae25	-0.25132862
160	0x3b8d5262	0.0043127993
161	0x3f289ccd	0.6586426
162	0x3c00c23a	0.007858807
163	0xbd3e5a5b	-0.04647289
164	0xbd90ef00	-0.07076836
165	0xbe1d97c2	-0.15389922
166	0xbd3ed1f8	-0.04658696
167	0x3f2484fe	0.6426543
168	0xbd0e3adf	-0.034724113
169	0xbe235e7f	-0.15954016
170	0xbd2da256	-0.042391144
171	0xbe863ca0	-0.26218128
172	0xbcbe9740	-0.023265481
173	0xbd1d2421	-0.038364533
174	0x3e2a8aae	0.16654465
175	0xbca4febb	-0.020140996
176	0xbe127c6b	-0.14305274
177	0x3c4f2eae	0.012645407
178	0xbcb4556a	-0.022013385
179	0xbe57e642	-0.2108393
180	0xbd3d1661	-0.04616392
181	0xbd61bf7f	-0.055114266
182	0x3b250a3c	0.0025183102
183	0x3cc1252c	0.023577295
184	0xbe57540a	-0.21028152
185	0x3e5f6fe8	0.21820033
186	0xbe3acd4d	-0.18242379
187	0x3c52f72b	0.012876312
188	0xbe33a447	-0.17543136
189	0x3eb5e578	0.35526633
190	0xbe25486c	-0.16140908
191	0xbd02b485	-0.031910438
192	0xbd2ac9a6	-0.041696213
193	0x3e2ad8c0	0.16684246
194	0xbe069e21	-0.13146259
195	0xbe714d52	-0.23564652
196	0x3b413d38	0.0029485952
197	0xbd4acf92	-0.04951436
198	0xbdc87b99	-0.097891994
199	0xbc086a0c	-0.008326065

weight f4 [1, 200]
0	0xbd534918	-0.05158338
1	0x3e064b23	0.131146
2	0xbd46d863	-0.048546206
3	0xbd36372f	-0.04448622
4	0xbe0393ad	-0.12849303
5	0x3c59804d	0.013275218
6	0x3d0167b8	0.031593055
7	0xbce69f2c	-0.028152071
8	0x3cb9842b	0.02264603
9	0xbda84540	-0.082163334
10	0xbd077e84	-0.03307964
11	0x3a8115ea	0.000984845
12	0xbd234da5	-0.03986897
13	0xbda1d903	-0.0790272
14	0xbd022157	-0.031770077
15	0xbda2c403	-0.079475425
16	0x3cb54c64	0.022131152
17	0xbcd1f5e4	-0.025629945
18	0x3ee9fbb1	0.45699838
19	0xbc17ad3e	-0.009257613
20	0xbd066331	-0.03280944
21	0xbec5ae7b	-0.3860968
22	0x3c1d517b	0.009601946
23	0x3d6356fd	0.05550288
24	0x3f2ef72c	0.68345904
25	0xbd161c58	-0.036648124
26	0xba46d9d1	-0.0007585558
27	0xbdc3ba37	-0.09557002
28	0x3ca28586	0.01983906
29	0x3c863108	0.016380802
30	0xbd2340a5	-0.03985657
31	0x3c696b20	0.014246732
32	0x3eeaf83c	0.45892513
33	0xbb0a5671	-0.0021108652
34	0xbd94c928	-0.0726493
35	0xbbb09e18	-0.00538994
36	0x3ba4bc86	0.0050273566
37	0x3f0a631d	0.54057485
38	0xbdade46c	-0.08490834
39	0xbd8ef1a9	-0.06979687
40	0x3cbb1ff8	0.022842392
41	0xbd9d0aa9	-0.07668049
42	0xbbf1de2c	-0.0073812213
43	0xbd3c88df	-0.046028968
44	0x3cbe4ad1	0.023229035
45	0xbd2c4f1a	-0.042067625
46	0xbc716c82	-0.014735343
47	0xbc771dcf	-0.0150827905
48	0x3c915ced	0.017744506
49	0xbd95a2b8	-0.07306427
50	0x3bf7843e	0.0075536063
51	0x3c451b5b	0.012030448
52	0x3ceff390	0.029290944
53	0xbd66a098	-0.056305498
54	0xbe0306a9	-0.1279551
55	0xbcff9dff	-0.031203268
56	0xbdcac3a4	-0.09900597
57	0xbe43c63a	-0.19118586
58	0xbcfe5077	-0.031044228
59	0x3d48bf76	0.049010716
60	0xbd8c0c52	-0.068382874
61	0xbce6b912	-0.02816442
62	0xbda7dd84	-0.081965476
63	0x3d052651	0.032507244
64	0x3cdd9777	0.027049763
65	0x3effb426	0.4994213
66	0x3d312301	0.043246273
67	0xbdcdb99d	-0.100451685
68	0xbdaa0efc	-0.08303639
69	0x3d475769	0.048667345
70	0x3d30e7d1	0.043189827
71	0xbe36572a	-0.17806688
72	0xbc9c0bb6	-0.019048553
73	0x3c08df59	0.0083540315
74	0xbdca3f70	-0.09875381
75	0xbdc4534e	-0.095862016
76	0xbdcd8b18	-0.10036296
77	0xbc2e78d8	-0.010648929
78	0xbdb52b03	-0.088460945
79	0xbca7203d	-0.020401115
80	0xbd1142c9	-0.035464082
81	0x3d5d9b6e	0.054103307
82	0xbd30494a	-0.043038644
83	0xbbaa44e9	-0.005196203
84	0x3da5384b	0.08067378
85	0x3e4e984f	0.20175289
86	0x3c98f2ea	0.018670518
87	0x3c733221	0.014843495
88	0x3c6c4c94	0.0144225545
89	0xbcf9a74b	-0.03047528
90	0xbdf91132	-0.12161483
91	0x3bc64edc	0.0060518812
92	0x3e9e2bee	0.3089289
93	0xbbb107ad	-0.0054025264
94	0x3d107999	0.035272215
95	0x3ebd9a0c	0.3703159
96	0xbd58c7b1	-0.052924816
97	0xbdc8757a	-0.09788032
98	0xbdb5b716	-0.088728115
99	0x3d63e5eb	0.05563919
100	0x3f1d649a	0.6148163
101	0xbdc7a7bc	-0.0974879
102	0xbcd85dd5	-0.02641193
103	0xbdd337e3	-0.10313394
104	0xbb1c3ff0	-0.002384182
105	0xbdf2ea80	-0.118611336
106	0xbcd771e4	-0.026299424
107	0xbdc53ae7	-0.09630375
108	0xbd423648	-0.047415048
109	0xbb59563a	-0.0033162967
110	0xbd4081b8	-0.04699871
111	0x3cb6d215	0.022316972
112	0xbcfa7d32	-0.030577276
113	0x3cf6370a	0.030055542
114	0x3c904416	0.01761059
115	0x3cc6e3cd	0.024278546
116	0xb8ef9eb9	-0.000114259725
117	0x3ca0293d	0.019550914
118	0xbdbd0889	-0.092301436
119	0xbd3e4ea7	-0.046461727
120	0xbd239d94	-0.0399452
121	0x3e2f02a7	0.17090856
122	0x3e23b262	0.15986016
123	0xbd85ad5d	-0.06527207
124	0x3d80a6d0	0.06281817
125	0xbeed9a28	-0.46406674
126	0x3d3a2ef0	0.04545492
127	0x3b6ebaae	0.0036427188
128	0xbd990b2b	-0.07472833
129	0x3d104408	0.03522113
130	0x3f2a7eb0	0.6659956
131	0xbd228091	-0.03967339
132	0xbd62c4f6	-0.055363618
133	0xbda60b3f	-0.08107614
134	0xbd9fa93b	-0.0779595
135	0x3d2a9388	0.041644603
136	0x3c0f6d11	0.008754031
137	0xbd8d172b	-0.068891846
138	0xbd23c7be	-0.03998541
139	0x3ccf7025	0.02532203
140	0x3dbcdb58	0.09221524
141	0xbe0d09d9	-0.13773288
142	0x3cb4fa66	0.022092056
143	0xbcbfbfc3	-0.023406869
144	0xbdb16588	-0.08661944
145	0x3d5b33d5	0.053516228
146	0x3e330af3	0.17484646
147	0x3d4f6ab1	0.05063886
148	0xbdadb65b	-0.08482047
149	0xbcc885c3	-0.024477845
150	0xbdfc6d7e	-0.123255715
151	0x3c87846d	0.016542638
152	0xbdfd7614	-0.12376037
153	0x3a095d73	0.000524006
154	0xbd5e0536	-0.05420419
155	0xbd3d4622	-0.046209462
156	0x3d3cda52	0.046106644
157	0xbdcba31c	-0.0994322
158	0x3d27fff5	0.041015584
159	0xbdc2cf54	-0.09512201
160	0x3d462738	0.048377246
161	0x3eee5130	0.46546316
162	0x3d4e5d8b	0.05038218
163	0x3cd133e3	0.025537437
164	0x3c0a1d2f	0.0084298095
165	0xbd761fb5	-0.060088832
166	0x3d33c13d	0.04388546
167	0x3eeaecc4	0.45883763
168	0x3b8e5d34	0.004344607
169	0xbdd8cb56	-0.10585658
170	0xbba81180	-0.0051290393
171	0xbda630f4	-0.08114806
172	0x3ac691fb	0.0015149707
173	0x3d69ff88	0.05712846
174	0x3e16a98a	0.14713112
175	0xbccd84a8	-0.02508767
176	0xbcadcde0	-0.021216333
177	0x3d01c7f8	0.031684846
178	0x3ce0c1ce	0.027436163
179	0xbdb90045	-0.090332545
180	0x3d5feb8a	0.054667987
181	0xbc7a8a40	-0.01529175
182	0x3b807971	0.003920727
183	0xbb551d9d	-0.0032518872
184	0xbd2bb373	-0.041919183
185	0x3e5ed244	0.21759897
186	0xbd23361e	-0.039846532
187	0x3d80d564	0.06290701
188	0xbcd55376	-0.026040774
189	0x3f19202d	0.5981472
190	0xbc89c707	-0.016818536
191	0xbd536f29	-0.051619682
192	0x399948ab	0.00029236576
193	0x3e4c88ea	0.19974104
194	0xbd0e3da7	-0.034726765
195	0xbdbc8578	-0.09205145
196	0x3cba7766	0.022762012
197	0x3c86312b	0.016380867
198	0xbdbc904f	-0.09207212
199	0x3d7d4a22	0.061838277
