lab2/problem3/neural-network-3-actor.pth (torch, 663675 bytes, 10 tensors)

weight f4 [400, 8]
00000000: a88c 8cbe 6b2d 5c3c c83a 9abe 8886 e9bd
00000010: 8519 4e3d 71d2 8c3e 52ee 13be 8867 013e
00000020: 111d 46be 1555 89be 9d6e a5be 7300 7ebe
00000030: 5f49 923e 0f35 febb 932b aa3d eb5c e43d
00000040: 383d abbe edf3 e03d d102 633e fb0a cbbd
00000050: 1a28 2fbe 9550 15bd fdb5 4cbe b0ba 573e
00000060: 74d3 853e acc9 99be d4c1 763d beb8 b2be
00000070: ef06 203e 8e54 8bbe 4a08 abbe e37f 663e
00000080: 4f5c 3cbe 8534 6c3e b017 6f3e dbf5 98be
00000090: d148 38be ce6b 853e a428 a33d eff7 54be
000000a0: b53a a5be db1b 2c3e d400 323e 2bf8 f9bd
000000b0: 63eb 333e b672 f2bd 39ba 393d f67f 87be
000000c0: ba4b d9bd 781b 8e3e 814f aa3e 3804 1d3e
000000d0: 81ce 213e 6c65 9abe 1a24 95be 61f9 6d3e
000000e0: 6442 6c3d 1658 82be 6d6c 413e f0c7 bb3d
000000f0: 67d4 813e 70a4 1cbe e4a9 abbe de41 20be
00000100: 7898 d23d ea32 8b3d f8f7 423e aa42 b7bd
00000110: 66cd 8d3e ddfe a63e 6345 abbe fd5f b4bd
00000120: d8ff 5fbd 149d 1cbe a42a ac3e d3e7 3bbe
00000130: dd39 3fbc 73e9 82be 679e 333e 8b87 eabd
00000140: a078 71bd 6dcd 85be c02d 5ebe 2bd6 98be
00000150: bdb9 2fbe a7d5 83be 517b 84bd ed9d 913e
00000160: d005 543e c59e b4be e5fd 14be f83d 9cbe
00000170: 8567 07be e4bf 843d 4624 693e c2b5 aa3e
00000180: e29a 40be f04d bd3d 73d5 6ebe 8c92 58be
00000190: b78a 8ebe b648 b93e 5e64 80bd e30c 523e
000001a0: 8aa3 65be 4b09 943e 5eb3 d53d c3bf 29bd
000001b0: 99c5 b53e 0b43 dbbb e931 f0bd 98b8 8fbe
000001c0: f8e9 263e 5d27 4c3e 4cbc 263e a2d7 86be
000001d0: b263 e4b9 92bb 0d3e fd22 d1bc fbb9 66bd
000001e0: bbd4 1dbe a157 ec3d e756 02be f414 92be
000001f0: 1a3c 88be db4f 42be 9660 5dbe 1d8a a23e
00000200: 1b7a fe3d ad61 b13d 0838 0dbe 2cbb 3dbe
00000210: 73b5 69be ec44 6d3e f88b 5bbe 5547 f8bd
00000220: 6c12 9ebd 985f 9fbe bd52 413e a913 c43d
00000230: 9237 cebc 4aab a9bd 01b4 0f3e e44d 98be
00000240: 334d 83be 91c7 89be d5c6 a53d e0eb 6c3e
00000250: 704d 333e a940 a4bc 1223 6dbe 44f0 89be
00000260: 542b 813e c500 bcbc 42cb 79be d3b8 9dbe
00000270: d496 74be d0c8 8b3e 0c84 79be 5522 d63d
00000280: b0bd 82be 73bb 6a3e 9e96 09be 4101 673e
00000290: 6dd4 b1bd da99 36be 08c3 703e 63ef a7bd
000002a0: 8b48 433e 841d 8b3e 9261 7b3e 82c6 913d
000002b0: 22f2 38be 568e 6c3d cf20 8ebe 0fc8 843e
000002c0: f999 61be f8d4 043e 587e 563e e70c 37be
000002d0: 7f8b e93d 8256 0bbe 96ce f4bd b4ef 633e
000002e0: d44a 153d 850a 723e fc76 c33d 9019 1e3d
000002f0: caf8 683e df88 0cbe 1daa b13e a7a4 7cbe
00000300: 7810 433e 2872 7f3e ba8a 2bbd 0d1e 3e3e
00000310: d6ed d53d d942 ab3c 5f13 2a3d 40e6 d23d
00000320: 2063 96be b822 52bd 1a2b 7fbe c72f 7e3e
00000330: 4cac a9be ffd9 533e 3fc0 49be 0cb9 ecbd
00000340: 5a24 56bc 2eb2 0b3e f509 49be 71a6 96bd
00000350: be5f 94be b6eb 063e 370e 783d 6e34 90be
00000360: c075 823d e77e b63e 7984 89be e5e9 3bbd
00000370: f3f4 4b3d d0e4 84be 0318 453e a716 083e
00000380: c964 16be 4b8c 85be 64b2 9fbe 53ad 64be
00000390: ad75 183e e1ca a7be 5b21 8e3e 6097 af3e
000003a0: b99f 82be c662 e33c 4d5a 9c3e b774 5abe
000003b0: d930 0f3e 5a55 a9be 0751 363e 2e92 27be
000003c0: 162a d3bd 3966 433e c616 15be 81b4 31be
000003d0: 7bb3 b3be 49fc 3c3e 66fe 82bd 0be7 95be
000003e0: a8d2 60be 68a7 afbc 0b82 ad3c 1de3 04be
000003f0: 38f5 813d 3502 9abe 55ad 84be 1605 85be
-0.27451062 0.013438563 -0.30122972 -0.11402613 0.050317306 0.27504304 -0.1444638 0.1263715
-0.19347025 -0.26822725 -0.32310954 -0.24804859 0.28571603 -0.00775779 0.083090924 0.11150535
-0.33445144 0.10984025 0.22169043 -0.09914204 -0.17105141 -0.036453802 -0.19991298 0.2106731
0.26137888 -0.30036676 0.060243443 -0.34906572 0.15627645 -0.27212948 -0.33404762 0.22509722
-0.18394588 0.2306691 0.2334888 -0.29875073 -0.17996527 0.2605881 0.07966736 -0.20797704
-0.32271352 0.16807501 0.17383128 -0.122055374 0.17570262 -0.118382856 0.04534361 -0.26464814
-0.10610147 0.27755332 0.33263782 0.1533364 0.15801431 -0.30155504 -0.29129106 0.23239662
0.057680503 -0.2545783 0.18889017 0.091689944 0.25357363 -0.15297103 -0.33528054 -0.15650126
0.10282987 0.067968205 0.19039905 -0.08948262 0.2769577 0.3261632 -0.33451375 -0.08807371
-0.05468735 -0.15294296 0.33626282 -0.18350153 -0.0116715105 -0.25568733 0.17540894 -0.11451634
-0.058952928 -0.2613329 -0.2169714 -0.29850897 -0.17160697 -0.2574894 -0.06468833 0.284408
0.20705342 -0.35277382 -0.14549978 -0.30516028 -0.13223083 0.06481913 0.22767743 0.33341795
-0.18809083 0.09243381 -0.23323612 -0.21149653 -0.27840206 0.36188287 -0.062691435 0.20512728
-0.22425666 0.2891334 0.10434602 -0.041442644 0.35502318 -0.0066913418 -0.117282696 -0.2807052
0.1630019 0.19936891 0.16282767 -0.2633639 -0.00043561828 0.13841084 -0.025529379 -0.05632971
-0.15413181 0.115401514 -0.12728463 -0.2853161 -0.26608354 -0.18975775 -0.21618876 0.31745997
0.124256335 0.08661208 -0.13790905 -0.18528432 -0.22823124 0.23170823 -0.21440113 -0.121229805
-0.077183574 -0.3112762 0.18879218 0.095740624 -0.025172982 -0.08284624 0.1403351 -0.29746926
-0.25644836 -0.2691007 0.08094565 0.23136854 0.17510009 -0.020050364 -0.2315791 -0.2694112
0.2522837 -0.022949586 -0.24393943 -0.30805072 -0.23885661 0.27301645 -0.24366778 0.10455767
-0.25535345 0.22923069 -0.13436362 0.22559072 -0.08683095 -0.17832127 0.23511899 -0.08199956
0.19070642 0.27170956 0.24548939 0.071179405 -0.18061116 0.05775293 -0.27759406 0.25933883
-0.22031392 0.12971866 0.20946634 -0.17876016 0.1140356 -0.13607219 -0.11953466 0.22259408
0.036448315 0.23636825 0.09544179 0.038598597 0.22751155 -0.13724087 0.347001 -0.24672185
0.19049251 0.24945891 -0.041880347 0.18566151 0.10445754 0.020905899 0.04152238 0.10297823
-0.293725 -0.05130264 -0.24918786 0.24822913 -0.33139265 0.20688628 -0.19702242 -0.115587324
-0.01307019 0.13642189 -0.19632705 -0.07355965 -0.28979295 0.13175854 0.06056043 -0.28165
0.06370115 0.35643694 -0.2685888 -0.045877356 0.04979415 -0.2595582 0.19247441 0.13289891
-0.14686884 -0.26083598 -0.3119079 -0.22331743 0.1488864 -0.32771972 0.27759823 0.34295177
-0.25512484 0.02775706 0.30537644 -0.21333586 0.13983478 -0.3307293 0.17804347 -0.16364357
-0.10310762 0.19081964 -0.14559469 -0.17354013 -0.3509787 0.18455614 -0.06396179 -0.29277834
-0.21955359 -0.02144213 0.021180173 -0.12977262 0.063456 -0.3007981 -0.25913492 -0.25980443

bias f4 [400]
00000000: bbb2 48be c372 abbe 0168 66bd 7697 a23e
00000010: dc79 d6bd 33bb 61be 2234 38bd f260 86be
00000020: d66a 833d 8630 2d3e 4c66 68be 0f63 4bbe
00000030: c925 2cbe 090a f2bd 22cb 883e 1899 b93e
00000040: cc8b 57be 51f8 c13d 8822 113e 6511 b43e
00000050: f7dd 09bd 9584 3cbe 4cda c2bd f89b cfbd
00000060: 91fb a63d 2109 8c3e d36c b1bd cafd 32be
00000070: f6fe 9e3e cbc1 88bd faa5 b2be 494d 27be
00000080: caf2 9e3e 936e d63d 3e5b 383e f9c7 8d3d
00000090: 3ebf b93e 19f1 f33d b664 a83e a089 4e3e
000000a0: 181f 943e b61d a43e 3fa5 70be d978 81be
000000b0: 89b3 b03e 95fa b93e 72fc c2bd 4b89 963e
000000c0: 5284 03be 0d65 e9ba 4c44 dfbd 1f23 693e
000000d0: 0fe6 9b3d c409 503e 2b51 363e ac81 9d3d
000000e0: 2f31 823e 89a7 a6bd 9359 923e 117d 443d
000000f0: e428 85be e469 1ebe 64de f33d 5b0b 943e
00000100: 5fb4 8fbd b070 b83e 63a3 a9be e44e 4d3e
00000110: 8cbe 943e 8fb8 9abc 9fee 90be 87db 78be
00000120: e5e5 c53d 366e 643b a780 abbe d446 173e
00000130: 0969 a7bd d299 3f3e fccb b13e b6d5 173e
00000140: 0593 533e e4e4 a13d 7281 ad3d 0dc7 a3bc
00000150: 1112 f43d 78c6 4c3e d09b a7bd 29cb b3be
00000160: 8c1b 453e 2a43 5f3d aa2d 333e 80d2 55be
00000170: 4299 7dbe 1b99 513d 9924 9d3e d0fe 5d3e
00000180: 7586 a43e 2016 a1be c4f1 92be 19f5 e3bb
00000190: a845 ad3e d2d5 8dbe 550b 69be 4106 0a3e
000001a0: cf28 933d adb0 cfbd 302c 78bd bf67 303e
000001b0: 3560 5e3e 51d8 13bc 2876 253c 8508 9ebe
000001c0: 5ba8 263e d212 9ebe f062 44bd f5f6 e43c
000001d0: 07c0 9c3e 0b2d d5bc e4df 99be fc74 753e
000001e0: 074d 42be 16a7 55be 95ba ba3c cbc6 b23e
000001f0: f76e f5bd de6a 96be d2de 82be 1f61 6abd
00000200: 74c2 97be df78 6cbe bfc5 03be b1fa c83d
00000210: c40d 84be b571 163d f515 86be d3d6 753e
00000220: 6f48 383e 7986 2fbe 330b 5b3e bc08 b63e
00000230: 92fd fabd 3e1d 133e 673c 4bbe 9004 a83e
00000240: 9527 443e 39bf a13d f1fc 903e ff0f 19be
00000250: 6ccb b23e 0d34 d6bd 05bb 28be 93c9 7c3e
00000260: b526 53bd 2f84 783e 2b62 9a3d cada 8bbd
00000270: 2cf3 9f3e fe7b 5dbe 86fb 71be 2591 73be
00000280: 5e3d 073e 96f0 4dbd 69c0 acbe 0d0b dc3d
00000290: b3ae 453e 0174 11bd 67c1 3e3e c029 9abe
000002a0: c5db 64bd 39a8 c13d 4a87 913d 2daf 83bd
000002b0: 2452 a03c 0363 403e 75b2 7dbe f267 913e
000002c0: 9969 a53e 90a2 9e3e 5fe0 c23d 1250 a93e
000002d0: 3a6d 843e 0207 74bd 3379 84be 84f8 3dbe
000002e0: 3a17 5f3e 3a95 983e e84b 1abe 0f3d bd3d
000002f0: 333c 11bd 968c 58be 2a78 943e a63b 1f3e
00000300: 31b1 b33e 249f be3c c101 603c a226 f3bd
00000310: 6858 2f3d 0639 7a3d ab57 b13e 769d 3a3e
00000320: 30b3 643e 2c0f ce3d b604 c9bd a180 163e
00000330: 0f88 80be 3ace 943e 3068 803e 6769 0e3e
00000340: 4915 23bd 7b80 783e 4947 a83e 561c 8c3e
00000350: 2cf8 90be 1277 583e 6e61 92be 9b2c 37be
00000360: 2e0e 0d3e d3ad 24be 9246 2e3e 53a6 84be
00000370: 7429 973d 8ee8 4a3e 0fbd 923d 31d1 3e3e
00000380: 79cf c53d fcc2 8b3e 5855 7f3e ab1a 823d
00000390: 1dee 7cbd 4928 94be 820f 3d3c 665c a13e
000003a0: 761a c8bd 79ee a2bd 12d5 81be 2ea2 75be
000003b0: 23e6 4ebe 39e3 873e c871 953d 3c7f 433e
000003c0: b89c 6dbe e533 afbe 0bd7 37be de0b 7abd
000003d0: 6f38 b63e 92a0 973e d5c7 f7bd ddf7 793d
000003e0: 59f6 3a3e bf9c 463d 1835 7d3e a279 7abe
000003f0: 24a6 31be 4c9f b93e 4271 343e 0b8a 353d
-0.1959943 -0.33485994 -0.05625153 0.3175618 -0.104724616 -0.22044067 -0.044971593 -0.26245838
0.06416862 0.16913041 -0.22695273 -0.19862007 -0.16811289 -0.1181832 0.26717478 0.36249614
-0.21049422 0.09471191 0.14173329 0.3516952 -0.033658948 -0.18409951 -0.09514293 -0.101371706
0.08153451 0.27350715 -0.08663335 -0.17479625 0.31053895 -0.06677588 -0.34892255 -0.16338076
0.31044608 0.10470309 0.18003556 0.069229074 0.3627872 0.1191122 0.32889336 0.20169687
0.28929973 0.32053918 -0.23500536 -0.25287512 0.34511974 0.3632399 -0.09520806 0.2940162
-0.12843445 -0.0017806605 -0.109016985 0.22767304 0.076122396 0.20316225 0.178044 0.076907486
0.2542815 -0.081374235 0.28583965 0.047970835 -0.2600776 -0.15470082 0.11907652 0.28914914
-0.07016825 0.36023474 -0.33132467 0.20049626 0.29051626 -0.018886833 -0.28307053 -0.24302493
0.096629895 0.003485573 -0.3349659 0.14773113 -0.08174331 0.18711022 0.3472594 0.14827618
0.20661552 0.079049855 0.08471955 -0.019992376 0.119175084 0.19997585 -0.08184016 -0.35115936
0.1924879 0.054507412 0.17497888 -0.2088108 -0.24765494 0.051171403 0.30691984 0.21679235
0.32133833 -0.31462193 -0.28700078 -0.006956708 0.33842206 -0.27702194 -0.22758229 0.13478948
0.07185518 -0.1014112 -0.060589015 0.17227076 0.21716388 -0.009023742 0.010098971 -0.30865875
0.1627516 -0.30873734 -0.047945917 0.02794979 0.30615255 -0.026022455 -0.30053627 0.23970407
-0.18974696 -0.2086452 0.022794047 0.34917292 -0.119840555 -0.29378408 -0.25560623 -0.05722153
-0.29640543 -0.23092984 -0.12868403 0.098134406 -0.25791752 0.036729533 -0.26188627 0.2400773
0.17996381 -0.17141141 0.21390991 0.3555354 -0.12255396 0.14366624 -0.1984726 0.3281598
0.19155724 0.07897801 0.2831798 -0.14947508 0.34920824 -0.10459147 -0.16477592 0.2468627
-0.051550586 0.24269174 0.07538255 -0.0682884 0.31240213 -0.2162933 -0.23631105 -0.23785837
0.13207003 -0.05027827 -0.33740547 0.10744295 0.19304924 -0.03551102 0.18628465 -0.30109978
-0.05587365 0.09455914 0.071058825 -0.064298965 0.019570418 0.1878777 -0.24775107 0.28399616
0.32307127 0.309834 0.09515452 0.330689 0.25864583 -0.059576996 -0.25873718 -0.18551832
0.21786204 0.2980135 -0.15068018 0.09240162 -0.0354578 -0.2114738 0.28997928 0.15550098
0.35096124 0.023269244 0.013672293 -0.11872603 0.04280892 0.061089538 0.34637198 0.18224129
0.2233398 0.100614876 -0.09815352 0.14697506 -0.25103804 0.29063588 0.2507949 0.13907395
-0.03981522 0.24267761 0.32866886 0.2736537 -0.2831434 0.21139172 -0.28589958 -0.1788811
0.1377494 -0.16081934 0.17019108 -0.25908145 0.073809534 0.19815275 0.07164966 0.18634488
0.09658713 0.272972 0.249349 0.06352743 -0.06175052 -0.28936985 0.011539342 0.31515807
-0.09770672 -0.07955641 -0.25357872 -0.23987648 -0.20204978 0.26540545 0.07297093 0.19091505
-0.23204315 -0.3421928 -0.17953126 -0.061046474 0.3558993 0.29614693 -0.12098662 0.061027396
0.18258037 0.04848933 0.24727285 -0.24460462 -0.17348534 0.36254346 0.1762133 0.0443211

weight f4 [200, 400]
00000000: bf54 9fbc b3a8 49bd 63ee 163d 57b7 92bc
00000010: a5a2 d63c 6eae 2bbd 198c 51bc bf7f bfbb
00000020: 4aa3 e4bc 1540 483d e318 333d d53a ec3c
00000030: f97a 08bd 57ef 3cbd 1f4c f2bc fccf f13b
00000040: 154d 133c 1443 1c3c 0ccd 0a3d 5a1b c83c
00000050: 205c abbc 74ec 0d3b 11d9 b3b9 2ea4 41bd
00000060: 14f9 79bc 6f8d 2dbd 2625 f2bc 29c7 da3c
00000070: 6f77 8c3c e232 223c a3f4 ca3c bb2d 8f3c
00000080: 23c6 9e3c 18ee d7bc f839 033d c7ea a8bc
00000090: 1b37 0fbc 7e33 b5bc d45e 0e3c 1d56 ee3a
000000a0: dc96 4bbd f6aa 01bd c5ad edbc 92d7 d8ba
000000b0: 5fb6 b5bc e121 caba 05c2 adbc e9bd 9b3c
000000c0: 363e 1a3d 18fd 0d3b 1e13 d23b 7080 e2bc
000000d0: fa67 343d 0a5b 813c 38c5 b8bb 5215 423d
000000e0: b88c 233c 120d 99bc 2c55 34bd f003 083c
000000f0: 47ab 3ebc e243 45bd 1b17 d7bc 5e11 88bc
00000100: cf0a 20bb 71ea 91bb b409 0e3c a3e8 a53c
00000110: 7b91 9bbc 107a b93c 0cb5 8c3c b6c4 85bc
00000120: 4274 a2bc f730 5d3c 8e24 e93c 58f2 f43c
00000130: 86c1 4f3d 2964 eebc 15d9 b5bc 9686 2cbc
00000140: d1ca 13bd 164e 5f3b 7002 e73c 27f8 42bc
00000150: 7a27 0b3d dce2 4a3c f88d 323d 0f7b 253d
00000160: 5e81 15bd 5499 113c c156 a4bc 73a3 063d
00000170: bfd7 183d 2b00 24bd b331 a83b be4e 533c
00000180: ad45 edbc edfa d1bc 06a7 06bd 6d86 293b
00000190: 4655 f8bb 8dad 063d baaa 243c 1dfe 233d
000001a0: a074 903b 7d82 04bd ec48 873c de6e 203c
000001b0: 55f5 22bd 6938 523d 078c f03c e44f 34bd
000001c0: ae5e 16bd 9b18 bdbc 192c 28bd fce0 2b3d
000001d0: 197b 01bc 8b43 7abc b0e3 3bbc 8817 3abc
000001e0: 632c 1dbd aaf3 26bd 3ec2 b9bb 5f41 1abd
000001f0: b356 53bc cbe1 ee3c 4ead ddbb 8925 a83c
00000200: 068e 0f3d 1b5e dc3a c70d 1a3c b1d3 34bd
00000210: 8283 033c c94d 0d3d cceb e9bc 4919 bfbc
00000220: 3b5c 0e3c 2217 10bd f0fd 0dbd f54e a6bc
00000230: 710f 193d 8c14 82bb 4004 10bd f5f5 e6bc
00000240: fd16 b43b 5e10 cb3c 15b0 453d 8708 3c3c
00000250: a93a e73b 238a 20bd f37f 9fba 7506 31bd
00000260: b479 99bc de30 0c3c 44ac ceba fe57 223d
00000270: a906 373d e31c 25bc 04eb 48bc 2e49 283c
00000280: 51df 5abc e0c3 1e3d 5b19 3ebd 8a80 c7bc
00000290: 9aba a23c 548a 34bc 3982 75bb de1c 423d
000002a0: d8fa 76bb cbb4 3ebd fef2 22bd 99aa 513d
000002b0: 7aa7 6c3c f0eb ae3c a38b babb 1045 383d
000002c0: 3240 3abc b1ff 163d c617 30bd 6cbc 25bd
000002d0: 3195 0d3a 2b0b 34bd f058 1d3d b396 09bc
000002e0: cc16 06bd fb46 bf3c 287d 90bc 9c7e e73c
000002f0: 0149 53bb 78e6 d8bb 0a1b e03c 3919 1c3d
00000300: ff2d 1dbd bd64 1fbd 2a91 71bc d341 48bc
00000310: 3151 53bd 5baf 3a3d 4d38 233d a14a 343d
00000320: a531 48bc ce0e 00bd 6206 51bc 9268 06bd
00000330: 8e76 783c 819d ce3c 75b7 353d 27dd 3c3d
00000340: 1162 1dbd 7dad 91bb 581a 373d 351d 4cbc
00000350: dd95 c33c 8648 293d 0209 02bc 1dc1 083d
00000360: 6211 0c3d 155d 1abd 5413 b939 50c1 c8bb
00000370: 0e9a 9cbc 8def 703b b71b 123b 7c41 c2bc
00000380: 6a47 36bc 29f2 403d a8d5 ffbc 50b7 babc
00000390: 0b58 2a3d a16b 7e3b c484 393d 2c5d 083d
000003a0: a2a7 ef3c b8b4 043d 6115 a63c b42d d03c
000003b0: 4647 20bd f3fa dbbc 19ea e9bc cdf6 863c
000003c0: fa35 4c3c d09d a0bc 38af 05bd 8231 0c3d
000003d0: 0451 e7bb 1b70 90bc 56e7 003d 613d 003d
000003e0: b25e 2fbd bb02 b6bc 1a10 cebc 80a1 3dbd
000003f0: fd7d 56bc 77d1 e5bc 53f5 a6bc 8856 3c3d
-0.01944959 -0.04923315 0.036848437 -0.017909689 0.026200602 -0.041914396 -0.01278975 -0.005844086
-0.027909894 0.04888924 0.043724906 0.028836647 -0.0333204 -0.04612669 -0.029577313 0.00737953
0.008990546 0.009537477 0.033886954 0.024427105 -0.020917952 0.002165583 -0.00034303268 -0.047275715
-0.015257139 -0.04237121 -0.02955873 0.026706295 0.017146794 0.009899827 0.024774855 0.01747786
0.019381588 -0.02635865 0.032037705 -0.020619763 -0.0087411655 -0.02211928 0.008689601 0.0018183623
-0.049704418 -0.03165718 -0.029013524 -0.0016543737 -0.022181688 -0.0015421474 -0.02121068 0.019011455
0.037656985 0.0021665748 0.0064109704 -0.027649134 0.044044472 0.015790481 -0.0056387447 0.047383614
0.00998228 -0.01868299 -0.04402654 0.00830172 -0.011637515 -0.04816044 -0.026256135 -0.016609844
-0.0024420505 -0.0044529964 0.008669306 0.020252531 -0.018990269 0.022641212 0.017176174 -0.01632915
-0.019830827 0.013500444 0.028459813 0.029900715 0.050721668 -0.029100494 -0.02219824 -0.010530135
-0.036082093 0.0034073642 0.028199404 -0.011899984 0.033973195 0.012383189 0.043592423 0.04040056
-0.036500327 0.008886654 -0.020060899 0.03287072 0.037315127 -0.040039223 0.0051328777 0.012897192
-0.028963888 -0.025632346 -0.03287413 0.0025867478 -0.0075785248 0.032880355 0.01005047 0.040037263
0.004408434 -0.032351006 0.016514264 0.009792058 -0.039784748 0.05132333 0.029363645 -0.044021502
-0.036711387 -0.023083022 -0.04105768 0.04196261 -0.007902884 -0.015274893 -0.011467859 -0.011358149
-0.03837241 -0.04075972 -0.0056689074 -0.03766 -0.012899089 0.0291604 -0.0067650443 0.02052571
0.035047553 0.0016812714 0.009402699 -0.044147197 0.008026959 0.03449801 -0.02855482 -0.023327487
0.008688982 -0.03517831 -0.034666 -0.020301322 0.03736824 -0.0039697345 -0.035160303 -0.028193453
0.0054959045 0.024788078 0.048263628 0.011476642 0.0070565534 -0.039194237 -0.0012168869 -0.04321905
-0.01873479 0.008556573 -0.0015767892 0.039634697 0.044684086 -0.010077688 -0.012263063 0.010271354
-0.013358907 0.03876102 -0.0464109 -0.024353284 0.01986437 -0.011019308 -0.0037461652 0.04739081
-0.0037686136 -0.046559136 -0.039782517 0.051188085 0.014444226 0.021352738 -0.0056929155 0.044987738
-0.011367844 0.03686494 -0.042991422 -0.040462896 0.00054009544 -0.043955963 0.038414896 -0.008397746
-0.032736585 0.023349276 -0.017637804 0.028258614 -0.0032239559 -0.006619271 0.027356643 0.03810999
-0.038373943 -0.03891443 -0.0147440825 -0.012222725 -0.051591102 0.04557739 0.039848614 0.044016484
-0.012218867 -0.03126412 -0.012757869 -0.03281457 0.015164984 0.025221588 0.04436441 0.046109345
-0.0384236 -0.0044457302 0.044702858 -0.012458135 0.023875171 0.04132893 -0.007936718 0.033387292
0.034196265 -0.037686426 0.0003530035 -0.0061265603 -0.019116428 0.0036763877 0.0022294351 -0.023712866
-0.011125425 0.047105942 -0.031229809 -0.022792488 0.04158787 0.0038821476 0.04529263 0.03329198
0.029254738 0.03239891 0.020273866 0.025412418 -0.03913047 -0.02685306 -0.02855401 0.016475106
0.012464041 -0.0196065 -0.032637805 0.0342269 -0.0070592184 -0.017631581 0.03147062 0.031308535
-0.042814918 -0.022218099 -0.025154162 -0.046296597 -0.013091561 -0.028053982 -0.020380652 0.04598096

bias f4 [200]
00000000: 0f1b da3c 0531 cebc 4f73 04bd aef6 89bc
00000010: 39e8 273d 6466 d7bb 797e b1bc ad19 753b
00000020: 0adf e9bc e074 c9bc b531 8f3c f333 ffbc
00000030: 4992 c93c deab 1e3d 722d d5bc 8acc 96bc
00000040: 92e4 1b3c 7aba 403d a71d 1b3d ed5c d2bc
00000050: bb8c 38bd 9710 f5bc 572c a13c ad49 afbc
00000060: d5d9 4abc 2243 d8bc 1a02 fbbc 3b1f 093b
00000070: 5173 1abd ef76 d0b9 868c 263c 76ea 1abd
00000080: 99ca 053b 810e 98bc d35e 8a3c db77 573c
00000090: 302b 963c aa89 aabc d18a cdbc 2e88 06bd
000000a0: 7e25 013d 279c d2bc 568a 17bd b068 173c
000000b0: 7674 2f3c 23f5 3fbd 61b4 1bbd 3aff 23bd
000000c0: 89c0 0bbd 154e 9cbc 7ee5 86bc 3b7b 5cbc
000000d0: 633d 9fbc ba55 c3bc 1181 7cbc 6198 0a3c
000000e0: f2d2 ad3b f387 36bc 7aa4 f13c c4a0 13bd
000000f0: 380d a5bc 6693 ebbc ba27 9cbb f044 e6ba
00000100: 7608 16bd 08e7 07bc e802 f93c a0b3 2b3c
00000110: c26b e73c bb65 cbbc 2270 e4bc 59c9 83ba
00000120: ce53 dcbc 5b0e 32bc 18eb 853c 643f eb3c
00000130: e6fe 513d ee15 04bb f3d2 14bd 2a35 0dbd
00000140: 3b63 3d3c 8ccd 9fbc 62d0 6cbc 5a8b 4a3d
00000150: b234 323d 5657 3cbd 256b febc 9604 a63b
00000160: ef88 47bb 44e9 12bd ef6a 77bc a2f0 2dbd
00000170: fa37 4f3b 60ee 37bc ed5a 37bd 2fc7 003b
00000180: b78f a83b ecad 1dbd 770f babc aceb b8bc
00000190: f594 213d 4579 223d 7c25 a63c 23ba 67bb
000001a0: 38b3 eb3c 0e37 073d 3250 e53c 4463 fdbc
000001b0: 0df2 d93c 1016 f83a 6cca 39bc a8b2 453d
000001c0: b263 223d bebe 28bd bab1 a83c 76e3 84ba
000001d0: 60aa 453d 44cd 3fbd 79b0 063d 7a03 463d
000001e0: d1e2 b43c 48e9 09bd 17c1 fa3b 4566 36bd
000001f0: 6fc8 193d 8b0c 4c3c 07e1 8e38 2eda 4dbd
00000200: 5efe a8bc 0d8e 353d 52d0 9cbc 3214 5d3d
00000210: 76ed 0b3d 3fea d63c 87f5 463d ba1b 42bd
00000220: 7d60 af3b 3e61 9b3c a199 36bd df1f d43b
00000230: ec53 15bb 0301 873c 843c 15bc 92d8 df3c
00000240: fdf9 9b3b b95b 28bc aa21 1dbd 44de ddbc
00000250: f28d 3ebc 0722 cbbb 5b82 8fbc 60b1 04ba
00000260: 9f90 14bd f1d3 07bd c390 053d 644b b4bb
00000270: 39a8 f03c e337 c7bc 1891 203d e670 e5bc
00000280: fdd7 1a3d 8d81 153c 8194 3d3b 436d fbbc
00000290: b36e 3f3d 6a29 023d 2c31 00bd e795 843b
000002a0: 824a 2d3c 6632 82bc e8fa 12bd 1077 2ebd
000002b0: fd7e 1c3d f85f fa3b 66b5 133d 835f 9cbc
000002c0: a72a 773c 4de0 fabc afd6 723c 5e47 cf3c
000002d0: 715d 273d f366 1ebd d3dd 1f3d 40d9 d73c
000002e0: 232f 423d 7601 92bb 977c 03bd ffe6 003d
000002f0: d9a2 8d3c 6b9a ecbc 65ca 383c 13c3 513c
00000300: 90ce 2c3d 41ec ccbc 9bda 2a3c f44e 85bc
00000310: 9f3d 3abd f83b a73c da99 34bc abfc ddbc
0.02662423 -0.025169859 -0.03233653 -0.016841259 0.04099295 -0.006573485 -0.021666752 0.0037399337
-0.028548736 -0.024591863 0.017479757 -0.031152701 0.024605887 0.038738124 -0.026022647 -0.018408079
0.009514945 0.047052838 0.037870076 -0.025679076 -0.045056086 -0.029915137 0.019674463 -0.021397436
-0.012381037 -0.026399199 -0.03064065 0.0020923156 -0.03770763 -0.00039761464 0.010165339 -0.037821256
0.0020414947 -0.018561604 0.016890919 0.013151134 0.01833114 -0.020817596 -0.025090607 -0.032844715
0.031529896 -0.025709225 -0.03699716 0.009241268 0.010708919 -0.04686464 -0.03801382 -0.040038325
-0.034119163 -0.019080201 -0.016466852 -0.013457115 -0.019438451 -0.023844589 -0.015411631 0.0084591815
0.0053046877 -0.011140811 0.029497374 -0.03604199 -0.020147905 -0.028756808 -0.004765478 -0.0017568152
-0.036629163 -0.008294828 0.030396894 0.010479838 0.028249625 -0.024828782 -0.0278855 -0.0010054513
-0.02689543 -0.01086768 0.016347453 0.02871675 0.05126848 -0.0020154673 -0.03633399 -0.03447453
0.011559303 -0.019507192 -0.014453979 0.049449302 0.043507285 -0.045981728 -0.03105695 0.0050664647
-0.003044661 -0.03586699 -0.015101179 -0.042465813 0.0031619058 -0.011226267 -0.044764448 0.0019649973
0.0051440853 -0.038495943 -0.022712452 -0.022573315 0.039448697 0.039666433 0.020281546 -0.003535875
0.028771982 0.03301149 0.027992342 -0.030931123 0.026604677 0.0018927474 -0.011339765 0.048266083
0.039645858 -0.04119753 0.02059256 -0.001013859 0.048258185 -0.046826616 0.03288314 0.04834316
0.02208081 -0.03366974 0.0076524126 -0.044531126 0.037544664 0.012454162 6.813002e-05 -0.0502569
-0.020629104 0.044324923 -0.019142304 0.053974338 0.034162007 0.026234744 0.048573997 -0.047389723
0.0053520785 0.018967267 -0.044580106 0.006473526 -0.0022785617 0.016479975 -0.009108666 0.027324948
0.0047600255 -0.010275775 -0.038362183 -0.027083524 -0.011630522 -0.0061991247 -0.017518213 -0.00050618313
-0.036270734 -0.033161107 0.03260876 -0.0055021513 0.02937709 -0.024318641 0.039200872 -0.028007936
0.03780364 0.009125126 0.0028927627 -0.030691748 0.04673643 0.031777777 -0.031296894 0.00404619
0.010576846 -0.015893172 -0.035883814 -0.042594016 0.038207043 0.007640835 0.036061667 -0.019088512
0.015085853 -0.030624533 0.014821692 0.025302585 0.040860597 -0.0386724 0.039029907 0.02634871
0.047408234 -0.0044557406 -0.03210124 0.031470295 0.017289566 -0.028882226 0.011278723 0.012802857
0.04218918 -0.025014998 0.010428096 -0.016273 -0.045468923 0.020414338 -0.011023009 -0.02709802

weight f4 [200, 400]
00000000: fb20 983c bf06 4ebc 6435 e93c 8126 443c
00000010: 414e b63b 3604 213d 3364 58bc 8423 31bb
00000020: 178e c13c 1fdd fcbc 2db0 8cbc 96d4 1a3c
00000030: b192 f93b 000e a8bc 9339 823b 7158 a73c
00000040: de1a c33c b1b6 413c 9a98 d2bc 1793 053d
00000050: 51ea 3fbd d0ee 6fbc 4e6f 143c 5bab 343d
00000060: 9d47 d4bb c46e 173d 36b5 c4bb 5b0b 7f3c
00000070: 6d07 043c 1ce2 b13c d3a5 7e3c 6c99 073d
00000080: 0bda 3a3d b5d5 23bc 27cd f6bc b653 31bc
00000090: 627d 083d 6100 4dbd da86 403d 7d6b 2ebd
000000a0: 614e 57bd 6262 1b3b 3a5e 173d 4969 ac3a
000000b0: 0178 873c 98c0 1d3d 5ef6 edbb 0a46 063d
000000c0: 375e edbc 9d1b cb39 ac03 873c ca75 bfbc
000000d0: 2876 09bd e624 3a3d a483 57bc 7aa0 543d
000000e0: f1ac 0e3d 84b8 0d3d 6881 23bc 6857 173d
000000f0: e9c1 f4bc 661e 5bbb e74b 203d 6d98 2c3d
00000100: 1e2d d0bb 3bb1 073b b413 313d 7bde 9abc
00000110: 010a 2fbc 6ef8 093c b555 3f3d 3924 0abd
00000120: 546e 413c 377c 1f3d e733 c83b 7bcf b73c
00000130: 0850 2abd 22f3 eb3b 7dac 083c dec7 68bc
00000140: 9fd9 62bc 7055 403d dfb4 353d dbf2 49bc
00000150: 21b3 a73c 8fb8 093d 7f48 803c b007 283d
00000160: 5c9b 2c3d 92ae 7d3c 458e ddbb 7a89 1bbb
00000170: 982e 1d3d da1e a0bb 4a65 dbbc dde4 7a3c
00000180: 3a6d b1bc cb85 973c 82b7 1bbd d34b b73c
00000190: 685d a83c 268d 1b3d 1ceb 63bb 9662 50bb
000001a0: dd20 093d 909b 92bc 0e24 943c 58e4 8e3c
000001b0: df93 aebc fe70 203d 25b3 9dbc adda ebbb
000001c0: 3350 0bbd 30de 423c 7eb9 cd3c dd8b fb3c
000001d0: 7df0 3ebd 623a 26bc 4118 07bd 6b56 86bc
000001e0: fd4b c33c 4a81 0fbd 688d e33c 05fa 423d
000001f0: ccb6 aabc 058f abbc 884f e3bb 0cc0 dc3c
00000200: d2fb ffbb d8aa 763b 14af c13c 1448 df3c
00000210: 39ec fd3c 000b 1ebd a57b 913c abac 47bc
00000220: 2b9e 793c 3bc1 0ebd 0843 f3bc dbd9 d5bc
00000230: a17d 053c cacd bfbb 2c23 afbc b95b 0fbc
00000240: f9f7 6bbb a840 1abd 33a6 fc3c 49f9 08bd
00000250: 427b 443c 8987 1a3d c0d7 54bc 89ff 57bd
00000260: 917d 45bd 8643 86bc f378 533a 809f dfbc
00000270: 973e da3c 307c bb3c ad0a bdbc 91a5 7cbc
00000280: cc22 30bd 0e9c c839 8b3a 34bd 6484 fc3b
00000290: a6f8 c33c 0ce9 63bc 29a4 9b3c a1fe 06bd
000002a0: 9442 9b3c ed7e 56bc 3598 2e3d fb65 323d
000002b0: ca6f a3bc 96ea e73c 435e d73c ddd6 4abd
000002c0: aee0 a2bc f7dc 90bb e556 07bb 9b06 c23b
000002d0: 6225 9bbc b2c2 21bd 22cc 313d 54e3 07bd
000002e0: 5e1a 08bd 0c22 debc 285d 09bd 7f6a f1bc
000002f0: 8d92 073d eba4 233b a6e5 e03c 166d b53b
00000300: 5bc6 0b3d 2bb1 1b3c 61b5 e4bc 1f76 42bb
00000310: 8186 d9bc f6de 20bd ce0f d1bc 857d 023d
00000320: 34b6 3d3d a6d0 bebb b2e0 cb3b 59ab 91bb
00000330: 1411 c2ba 23b5 30bd dca6 ffbc ff77 2f3d
00000340: ebdb bdbc 909d a4bc c895 15bd 8bd1 17bd
00000350: 6693 103d 960d 0a3d d307 07bd bb1b 1fbd
00000360: 8d50 8fbc 2af6 afbc a87b 8c3c 86fc 1cbd
00000370: 868c e9bc a9ee 393c 1db1 62bc 6997 a5bc
00000380: ea1f 203d 55eb c53c 2b33 aaba 2434 e53c
00000390: 38ad adbc f83d e33b ddba 53bd fb1a 883c
000003a0: 26b9 23bc bb54 553c f261 32bd 3665 bd3c
000003b0: 1bad 3cbd 95e3 5e3c b10b 39ba 2a2e d43c
000003c0: 4a50 9d3b 686b 80bc 493a 0cbd 940f 893c
000003d0: e956 8c3c 2893 06bd 5f0c 103c a74e 14bd
000003e0: 7df4 c1bb b15f 6ebc 7dbe 05bd 5d6a 4b3d
000003f0: 16ef 95bc d672 0abd e435 2bbd 9828 3f3d
0.018570414 -0.012574851 0.028467841 0.011972071 0.005563528 0.039310656 -0.013207483 -0.0027029226
0.023627324 -0.030867158 -0.01717385 0.0094500985 0.007616364 -0.020514488 0.0039741485 0.020427914
0.023816522 0.011823342 -0.025707532 0.03261098 -0.04685432 -0.01464434 0.00905974 0.04410873
-0.0064782635 0.03697087 -0.0060030473 0.015566672 0.008058411 0.021714263 0.015542465 0.0331053
0.0456181 -0.009999682 -0.030127121 -0.010823181 0.0333227 -0.05004919 0.047003604 -0.042582978
-0.052564982 0.0023709764 0.036955096 0.0013153936 0.016536715 0.03851375 -0.0072620353 0.03278164
-0.02897559 0.0003873975 0.016481243 -0.023371596 -0.03355995 0.045445345 -0.013153944 0.051910855
0.0348329 0.034599796 -0.009979583 0.03694859 -0.02987762 -0.0033434867 0.039134886 0.042137552
-0.0063530346 0.0020705003 0.04323168 -0.018904915 -0.010683537 0.008421047 0.046712596 -0.03372595
0.011806089 0.03893682 0.006109703 0.022437802 -0.04158023 0.0072006145 0.008341906 -0.014207808
-0.01384583 0.04695648 0.044361945 -0.012325968 0.020471158 0.033623274 0.015659569 0.041022956
0.04214035 0.015483515 -0.0067613446 -0.0023733065 0.038374513 -0.0048864903 -0.026781697 0.015313354
-0.021658529 0.018496415 -0.038016804 0.022375023 0.020552352 0.037976407 -0.0034777587 -0.0031797043
0.033478606 -0.017896444 0.018083598 0.017442867 -0.021310745 0.039170258 -0.019250462 -0.007197699
-0.03401203 0.011893794 0.025112864 0.03070634 -0.046616066 -0.0101457555 -0.032982115 -0.01639863
0.023839945 -0.03503541 0.027777389 0.04760172 -0.020839117 -0.02094222 -0.006936971 0.026947044
-0.0078120017 0.0037638452 0.023643054 0.02725605 0.030996429 -0.03858471 0.017759154 -0.012187163
0.015235464 -0.034852248 -0.029695049 -0.026104858 0.008147628 -0.0058533894 -0.021379076 -0.008749896
-0.0036005958 -0.037659317 0.030840969 -0.03344086 0.011992278 0.037726913 -0.012990892 -0.05273393
-0.048215453 -0.01638962 0.0008067034 -0.027297735 0.026641173 0.022886366 -0.02307638 -0.0154203335
-0.043001935 0.00038263242 -0.044001143 0.007706212 0.023922276 -0.013910543 0.018999176 -0.032957677
0.018952645 -0.013091785 0.042625625 0.043554287 -0.019950766 0.028310101 0.026290065 -0.049521316
-0.019882526 -0.0044208723 -0.0020651158 0.0059211976 -0.018938724 -0.039492317 0.043407567 -0.03317578
-0.03322827 -0.027115844 -0.033536106 -0.029469727 0.033098746 0.0024970125 0.027453255 0.0055366857
0.034124713 0.009502689 -0.02791852 -0.0029672456 -0.026553394 -0.039275132 -0.025520232 0.031857986
0.04631634 -0.0058232127 0.006221854 -0.004445475 -0.0014806115 -0.043141495 -0.031207494 0.042839047
-0.023176154 -0.020094663 -0.036519796 -0.03706507 0.03529682 0.033704363 -0.032966446 -0.038844805
-0.017494464 -0.021479685 0.017148808 -0.038326763 -0.02850939 0.011348405 -0.013836172 -0.0202138
0.039092936 0.024160067 -0.001298522 0.027978964 -0.021200761 0.0069348775 -0.05169188 0.016614428
-0.009992873 0.01302069 -0.04355044 0.02311955 -0.046063524 0.0136040645 -0.0007058932 0.025900919
0.004800831 -0.015676215 -0.034235273 0.016731061 0.017131286 -0.032855183 0.008792012 -0.03620782
-0.005919038 -0.014549182 -0.032652367 0.049661983 -0.018302482 -0.033800922 -0.04179944 0.046669573

bias f4 [200]
00000000: 503f 6abc 5dbb 1b3d da46 973c dde0 0bbd
00000010: d218 e43c 81cc c33b a8c4 6b3d 5e26 153d
00000020: a72f 413b 46b4 73ba dbb5 003c 3ffa 083d
00000030: ff18 173d d98f c93a 8cd2 3b3c 57c0 a63b
00000040: 6218 44bc 70a4 c7bc 0ea6 1a3d 256a 8f3d
00000050: b7b5 fd3c 1b88 27bd 3349 abba 8877 87ba
00000060: 324d 423b 8b89 ebbc 4ced 32bd 6a4e a73b
00000070: 3309 36bd 12bb 5c3d a634 efbb 0142 03bd
00000080: d44d 28bd aa81 de3a b019 e6bb 294c 1abc
00000090: 44f5 963c 21bd 49bc 4b4b faba 8c1a 26bd
000000a0: b562 7e3c 61b8 1e3d b076 863d b187 6b3d
000000b0: d83a 473d 338c a3bc 19f3 e33c 7086 853d
000000c0: 5872 8b3b fee0 693c b05b 12bd c8f8 2a3d
000000d0: fa69 8d3c 90d6 ac3c cd67 193d ca6d 4cbd
000000e0: 7091 633c ac86 95bc 2157 19bd f356 0dbd
000000f0: 7399 f13b 83dc 603d ff98 673d c2ea 363d
00000100: 0a18 88bc d6aa 163d 427d e23c c2af 1a3d
00000110: 04e2 193c 43f9 47bd debf c6bc 0429 ffbc
00000120: e405 403d 8201 f5bb 43cc 813c 85a9 543d
00000130: 0a01 82bc 9e02 163d 39bd 353c 80ff 483b
00000140: c416 48bd d98d 4fbd 7ba8 433d e5fa 8ebc
00000150: 840e 5f3b a8d3 e03b fbee 833c 4515 babc
00000160: 85c0 da3c 0988 d23c c13e dbbb 79df 593c
00000170: 2752 f2bc 7a5a 023d abc7 263d 76fb c6bc
00000180: bcf1 cdbc 49f2 c63c 18d1 df3c 2890 33bc
00000190: 62f8 8a3d 2d50 d63c 31c8 89bb 34ba f3bc
000001a0: 0b4b 33bd 5cb2 cb3c 5949 90bb 1ce4 76bb
000001b0: 9bcf 89bb 5cd9 35bd 00f4 04bc 6473 06bd
000001c0: 997b 143c 17b3 21bd 8d49 15bc b1e4 23bd
000001d0: dbe5 3bbd 064a 2dbd 5fe8 c8bc 03a4 e0bc
000001e0: 9ae5 71bc 5ae0 05bc 69f0 553d 086f 99bc
000001f0: 9508 093d 8923 ce3c 6807 5f3c 798b 27bb
00000200: 7e42 08bb 3337 0abd 08ec e13c e509 c0bc
00000210: b187 bd3c 8473 5a3d 440f a5bb 5ece a7bc
00000220: 868d 55bc 0b4b ab3c 8616 363c 8ea8 9cb9
00000230: 7771 2a3d 2beb ce3b 23d0 52bc 79ae b2bc
00000240: a8fa 85bb 83bd 7ebc 983c 19bd bfd9 98ba
00000250: cb16 dc3c f6e7 2f3c 1efe ce3c b082 6f3d
00000260: 9b39 e93c 4f0d 593d 7701 2dbc 7c2f 4dbc
00000270: 7f95 e7bc 6d4a 9a3c 780a 233d 5abf 48bd
00000280: c86a a33c 8a4f 0b3d 8153 6aba 808f ebbc
00000290: e328 02bc bd27 8fbb b329 22bb b172 0dbc
000002a0: 9f7c 693a f0b6 383d c1fd 8a3b 175a f83c
000002b0: d35e 4ebc 0b0a 843d 26bd 193d 221d fbbc
000002c0: c74f ebbc 2228 30bd 4112 0fbd 196d bbbc
000002d0: ef97 b6bc 5356 f0bc 9f38 cbbc d605 203c
000002e0: e99f a2bc d036 ec3b b131 37bd b958 72bc
000002f0: 8be7 48bb b78b a7bc 2f40 f83c 4980 563c
00000300: d90d b5bb 6ffc 743c ce5d 0d3d eb28 e8bb
00000310: d356 acbc 8471 6c3d eab9 e53b c972 51bd
-0.014297321 0.03802048 0.018466402 -0.034149993 0.027843866 0.0059753065 0.057560593 0.036413543
0.0029477866 -0.0009296577 0.007855858 0.03344178 0.036889073 0.0015377953 0.0114637725 0.0050888467
-0.011968704 -0.024370402 0.03775602 0.07002667 0.030970437 -0.040901285 -0.001306808 -0.0010335306
0.0029648063 -0.028752109 -0.043683335 0.005105783 -0.044442367 0.05388934 -0.0072999774 -0.032045368
-0.041089848 0.0016975899 -0.007022105 -0.009417572 0.018427499 -0.012313158 -0.0019095925 -0.04055266
0.015526463 0.038750056 0.065656066 0.057502452 0.048640102 -0.019964313 0.027825879 0.065197825
0.004255574 0.014274834 -0.03573197 0.041741163 0.017262448 0.021098405 0.037452508 -0.04990939
0.0138896555 -0.018252693 -0.03743661 -0.03450675 0.007373029 0.054897796 0.056542393 0.044657476
-0.016613025 0.036784016 0.027647618 0.037765272 0.009392265 -0.0488217 -0.024261411 -0.031147487
0.046880618 -0.0074769864 0.01584447 0.05191948 -0.015869636 0.03662359 0.0110924775 0.0030669868
-0.048849836 -0.050672386 0.047768097 -0.01745362 0.0034035752 0.006861169 0.016105166 -0.02271522
0.026703129 0.025699632 -0.0066908305 0.013297909 -0.029580189 0.031824566 0.040717762 -0.024289828
-0.025139682 0.024285452 0.027321383 -0.0109596625 0.067856565 0.026161278 -0.004204773 -0.029751875
-0.04377274 0.024865322 -0.004403275 -0.0037672585 -0.0042056567 -0.044396743 -0.008114815 -0.03282489
0.009062671 -0.039477434 -0.009111774 -0.04001302 -0.045873504 -0.042306922 -0.024524866 -0.027421957
-0.014764214 -0.008171165 0.052231226 -0.018729702 0.03345545 0.025163429 0.013612606 -0.002556531
-0.0020791586 -0.03374405 0.027578369 -0.023442218 0.023135992 0.05333282 -0.00503722 -0.020484146
-0.01303423 0.020909807 0.011113768 -0.00029880222 0.041612115 0.0063146553 -0.0128670065 -0.02181171
-0.0040887184 -0.015548113 -0.037411302 -0.0011661573 0.026866337 0.010736456 0.025267657 0.058474243
0.028469851 0.052991208 -0.010559431 -0.012523528 -0.028269527 0.018834317 0.039804906 -0.049010612
0.019948378 0.0340114 -0.00089388347 -0.02875495 -0.0079443185 -0.004368751 -0.0024744093 -0.008633302
0.00089068146 0.045096338 0.0042416756 0.030316396 -0.01259585 0.06447228 0.0375339 -0.03065354
-0.028724564 -0.043007024 -0.034929518 -0.02287917 -0.022289244 -0.029338038 -0.024807272 0.009767016
-0.019851642 0.0072086826 -0.044725124 -0.014791661 -0.0030655588 -0.020452363 0.030304043 0.013092109
-0.0055253324 0.014952763 0.034513287 -0.007084956 -0.021037495 0.057725444 0.007010688 -0.05113486

weight f4 [2, 200]
00000000: 71f7 10bd 5316 a33d e07c 243d 440c ae3c
00000010: 8a93 5b3d a1ce 4c3c ec22 963d e0a3 99bb
00000020: c95b 49bc a998 a4bc 3ab3 1abd bfba dbbc
00000030: 9ab4 99bd 4c69 94bd 2a33 70bd 4366 b83c
00000040: 3e26 a83c b647 85bb 3382 15bc 791c e93b
00000050: 0036 923d 0173 b8bc 6712 423c 5fee b9bc
00000060: a438 93bc 9f06 ecbc dbe3 71bd f03a d1bc
00000070: 0bc2 1e3c 5f81 513d 8047 39bd 76aa 763d
00000080: c8ae 9abd ae1c 9f3c d7c0 c3bc b968 d53c
00000090: b56d 94bd 2ba6 4a3d 01b4 e63c 3e18 173d
000000a0: 333d a13d b942 a1bd f6fc 9bbb c699 723c
000000b0: 0645 093d 8639 583d b3d8 7ebb 6013 2a3d
000000c0: 0d29 803d 3a43 013a 6e93 21bd 785a 39bd
000000d0: b6f1 b1bb 926e 93bd 78e7 c03c 826c 08bb
000000e0: 0c90 8cbc d2e4 b4bc 2808 3b3d 81ac 883d
000000f0: 1d1b dbbc d4c1 5a3c 0c61 373c 62cf 8c3d
00000100: 723b af3c 590d 4abc 76e4 1b3c 9305 543d
00000110: 93c7 893d 75d9 033d 1d34 913c b1e8 25bd
00000120: 603d 86bd 5c28 7fbd dbd3 98bb 9a3c c63c
00000130: 0292 6d3c 4177 143d a95d 603d 1c6e 8abd
00000140: 5321 6e3c 435d 94bd 804a 4a3c 4914 7ebd
00000150: a3be 793d 3875 8c3c 4a18 59bd 9934 423d
00000160: 4ee2 ab3c 698c 47bd bef8 1bbd b02f 2b3d
00000170: e7fc 5c3d 6aba 77bc 24c4 9d3d 7b72 32bc
00000180: 43aa 1d3d f3fd c73c c538 1dbc c760 9e3d
00000190: 0f9c f33c 2d5d 5a3d 401e 19bd 9b7d c0ba
000001a0: 5d62 f33c cbb5 583c 375c 5abd f021 a6bd
000001b0: 07d0 8bbd 9db6 83bd ea02 5b3c 8936 ab3c
000001c0: 1862 4dbd 7c0e 723d 3e16 133d 92c2 48bd
000001d0: e133 a8bd c41f a3bc 58f0 513d a7e5 65bd
000001e0: 7e17 273d d13f 883d 703b 2e3d d188 343c
000001f0: d12d 85bd ee0d 1a3c e0d9 de3c 3f09 5e3d
00000200: b0c4 6abd c8f6 823c 020e 6c3c 44c7 9ebd
00000210: dd5b a83d 3d59 de3a 3045 993d 54aa f83c
00000220: a00a 813d 6a5a 9b3d 7d16 5b3d 6054 fd3c
00000230: 5d89 8f3d 9292 963c bb75 94bd 6945 b4bb
00000240: 31ef 45bc 002c 94bd 72a1 65bd da75 d0bc
00000250: a670 c63c ec14 903c f0da d4bc 7a3e d0bc
00000260: e121 853d 8576 bf3c b762 93bb 990d 813d
00000270: 10ec 873d e1bf 3bbd 4e6b 8ebd 6b40 81bd
00000280: bae2 69bd 1094 85bd 2904 9b3d 88bb 28bd
00000290: 11ec 20bc 82b0 263d 07f8 82bd 97cf 98bd
000002a0: 6941 2cbd 00da 3d3d c703 8b3d 1177 8f3d
000002b0: d3af 163a 6c6c 5ebd d7ae 4dbc 1952 73bd
000002c0: d7cc 85bd f9c8 95bd 885c 49bd 8e11 43bd
000002d0: dabf 37bd 74b7 e93c 9596 31ba e186 babb
000002e0: b955 3f3c a804 b53b a399 a03d 9e73 abbd
000002f0: 746b 92bb a874 5f3d 92de babc 2a58 91bc
00000300: 540e 98bd e3d9 9e3b 309b 853d 925a 6ebd
00000310: ac9b 78bd e225 fbbc 1c01 8cbd 9bbc 0c3d
00000320: 0335 78bd 8d70 b0bc 1b78 2d3d 3f21 483d
00000330: 41c1 003d 56a1 463d 65d2 0f3c 2f76 d13c
00000340: cef8 6dbd 3217 bbbc 9874 543d d1b9 85bd
00000350: 3a5a f6bb e999 87bd cbe2 c5bc 828a aa3c
00000360: 739c 96bd 2de6 633d 1ac2 623d 31c2 64bd
00000370: 59ad ac3c d6e7 593d 3908 ea3b 56bc 623d
00000380: da2c 2abd ddef 54bd 6ba5 113d 53a8 9c3b
00000390: 934a 8f3d fe32 09bd 7c42 81bc 4863 99bd
000003a0: 341a bbbd 92dc b33d bb26 823d 5c90 7e3d
000003b0: eb19 88b9 dd8d 2e3d 81ac 38bd 1b78 b53c
000003c0: 40f3 903d 9789 24bd 517f a9bd 7f88 73bd
000003d0: fcc9 9fbd aa55 88bd 3746 9dbd cf03 2c3d
000003e0: 3233 973c 3373 6c3c cc7c aa3d efe0 61bb
000003f0: f00e 2cbd 9a0b 3e3d ca5e 15bd 419c 8abd
-0.03539223 0.079632424 0.040158153 0.021246083 0.0536075 0.012500436 0.073308796 -0.004688725
-0.01228995 -0.020092325 -0.03776858 -0.026822446 -0.0750515 -0.07246646 -0.058642544 0.0225097
0.020526048 -0.0040673865 -0.00912528 0.00711399 0.07139206 -0.022515776 0.011845208 -0.022696672
-0.017971344 -0.028811751 -0.05905519 -0.025540799 0.009689818 0.05114877 -0.045234203 0.060221158
-0.07552868 0.019422855 -0.023895664 0.026050912 -0.072474875 0.049474876 0.028162004 0.036888354
0.07873001 -0.078740545 -0.00476038 0.01480717 0.03351309 0.052789234 -0.0038886487 0.041522384
0.0625783 0.0004930977 -0.03944724 -0.045252293 -0.0054304255 -0.07198824 0.023547873 -0.0020816629
-0.01715853 -0.022081766 0.045662075 0.066735275 -0.026746327 0.013351876 0.011192571 0.06875493
0.02139065 -0.012332284 0.009514919 0.05176313 0.06727519 0.032189805 0.017725045 -0.040505115
-0.06554675 -0.06229435 -0.004663927 0.024198819 0.014500143 0.036246542 0.05477682 -0.06759283
0.014534312 -0.07244351 0.012346864 -0.062031064 0.06097282 0.017145738 -0.05300168 0.047413442
0.020981934 -0.04871789 -0.038079016 0.041793525 0.053952124 -0.015120128 0.077034265 -0.010891552
0.038492452 0.024413085 -0.009596054 0.077333026 0.0297375 0.053311516 -0.037382364 -0.0014685871
0.02970999 0.013226937 -0.0533106 -0.08111942 -0.068267874 -0.06431315 0.013367394 0.020900028
-0.050142378 0.059095845 0.035909884 -0.04901368 -0.0821302 -0.019912608 0.0512546 -0.056127217
0.04079389 0.06652797 0.042537153 0.011018948 -0.065028794 0.009402735 0.0272035 0.054208037
-0.057316482 0.015986815 0.014407637 -0.07752851 0.082206465 0.0016963851 0.074838996 0.030354656
0.06300855 0.075856045 0.053488243 0.030924022 0.07008622 0.018380437 -0.07249018 -0.0055014384
-0.012080953 -0.07234955 -0.05606217 -0.025446821 0.024223637 0.017588101 -0.025983304 -0.025420416
0.065006025 0.023371944 -0.0044978517 0.06301422 0.06636822 -0.045837287 -0.069540605 -0.06311115
-0.05710099 -0.06522381 0.07569153 -0.04119447 -0.009821908 0.040695675 -0.06394964 -0.074614696
-0.042054567 0.04635048 0.0678783 0.07005132 0.0005748246 -0.054302618 -0.012553892 -0.059404466
-0.06533211 -0.07313723 -0.04916051 -0.047624163 -0.0448607 0.02852986 -0.00067744526 -0.0056923483
0.011678153 0.0055242367 0.07841804 -0.083716616 -0.004468376 0.05455461 -0.022811208 -0.017742235
-0.07424608 0.0048477515 0.0652374 -0.058191843 -0.060695335 -0.030657712 -0.06836149 0.034359556
-0.06059743 -0.021538043 0.04235087 0.04885983 0.0314343 0.048493706 0.008778189 0.02556905
-0.058098607 -0.022838209 0.051869005 -0.06529582 -0.00751808 -0.06621153 -0.024155995 0.020817999
-0.07354059 0.055639435 0.05536089 -0.055849258 0.021078752 0.05319961 0.0071420935 0.055355392
-0.04154668 -0.051986564 0.035558145 0.004780808 0.06996646 -0.033495896 -0.015778773 -0.074896395
-0.09135857 0.08782305 0.063550435 0.06214939 -0.00025959252 0.04261576 -0.045086388 0.022151997
0.07077646 -0.04017028 -0.08276237 -0.059456345 -0.07802197 -0.06656964 -0.07679408 0.04199582
0.018457029 0.0144317625 0.08324584 -0.0034466346 -0.042006433 0.046397783 -0.03646735 -0.06768084

bias f4 [2]
00000000: 73c2 833d e204 bf3c
0.064335726 0.023317758

weight f4 [2, 200]
00000000: 0167 293d 9804 333d f769 48bd 1391 4d3d
00000010: 00eb 6e3d 564e 33bd 6fc2 3abd 1136 403d
00000020: 714a 643d bb83 b2bd 45a2 0dbd 524f e8bb
00000030: 69e7 d7bc 9544 57bd 9f6d 5abd a665 063d
00000040: 6170 beba d66f 38bc d287 78bd ef2f 7ebd
00000050: 9521 623c c99c dd3b 251b d9bc 1c1e 6a3d
00000060: ca5e 0a3d ba1c 2c3d dfd8 473d 2712 523d
00000070: 1a4d 703c 76ab 92bc f0b1 9b3c e9ab 023d
00000080: 404f 063d f350 543d 7d91 703d 0089 513d
00000090: 1155 8e3d d4f2 2bbd 22c0 b0bc 05a9 223d
000000a0: 7c75 97bd 47db eabc 8b9c aabc f498 4abd
000000b0: 087c 8ebd 69b2 4d3d e062 553d f936 53bd
000000c0: 1cad 3e3d f52c 77bd 6ac0 c63c a24b 793d
000000d0: 8b89 3a3d 7e57 8e3d 4a8e 8c3d 825a 863d
000000e0: c3b7 5abd fc21 6d3d d556 c13c c58e 793d
000000f0: 13de 963c 7f95 3fbd 507a 27bd 18f4 69bd
00000100: b88e 9ebc 400f 1d3d 01ee 5d3d 92cd 9b3b
00000110: 1105 203c c748 5d3d 2ba1 7ebd c78f e13b
00000120: 0ca7 29bd c91c 8dbb b181 a9bd 1c0b 123c
00000130: 0bd0 4d3d fcf3 53bb e2a0 4bbd f340 d03c
00000140: b56d 5e3d c1da 2c3d 8e4a 3cbd 9ceb d1bc
00000150: 9039 d5bc dd09 ceba da66 87bc 9d2a 203d
00000160: d2b7 7e3d 06f3 823d 5013 7bbd 7edb 433d
00000170: 5c2b aabd b363 89bd d15b d239 249a 1e3d
00000180: 1591 193d 61ef 823d 3478 51bc 264d 55bd
00000190: 9a35 7abd 8a4c dfbb 6caf 123d d661 8d3d
000001a0: efd4 2d3a 5036 21bd c35a 993c 3cf4 b53c
000001b0: a457 e1bc 869a 623d 5f16 2abd 7b7a 473c
000001c0: 9a15 bdbd 2607 71ba a5cb ce3c e95f 1f3d
000001d0: 0a6f 143d 1e4d babc afc6 d4bc 78e5 9c3c
000001e0: f7d3 b0bd c687 9ebd 6e99 aebd 05dd 743d
000001f0: 0f39 72bd 4c7a 08bd 0474 f2bc ee0c 9fbd
00000200: 0b94 9a3d 06a9 08bd 6de9 84bd f9c6 1bbd
00000210: 6f0d dfbc 6496 5dbd f78e 17bd 2148 e83c
00000220: 2d96 353c 30fe 8a3d 8aee 763c b284 7f3d
00000230: 0509 fdbc cb26 ce3c b189 7e3d 17d1 1c3c
00000240: 2664 093d 0546 9dbd 1e28 e63c 43a6 5dbc
00000250: 897e 0abd d150 93bd f0c2 213d 32b3 06bd
00000260: 3b35 ca3c d49a 34bd 7679 a03c 6bdb a3bd
00000270: 8f9a 88bd b217 4f3d 5d09 32bd 72b3 013d
00000280: 3678 183d 5fbc 7e3d 5d07 113d cead a0bd
00000290: 3de9 213d 5d31 ffbc c8c6 883d 827b 503d
000002a0: e80a 96bd 9710 6dbc 576d 11bc ad74 003d
000002b0: 960b 9ebd 98d8 03bd 9597 763d 87ed 4e3c
000002c0: 49b4 7b3d 0380 653d 0950 463c 9c51 a9bd
000002d0: 6e30 acbd 0be0 1b3d 109b 9fbd 175b 1d3d
000002e0: 8f85 5fbd 452d 90bd 382c 14bc c660 743c
000002f0: 84cf b9bd 7690 493d de54 e5bc 2b7c 27bc
00000300: 6108 443d 572a 873d 9c54 f13a 41aa 873d
00000310: f521 1bbd c341 5bbd 5523 db3b 816a f13c
00000320: 187d 46bd 83d9 8cbb d500 79bd e74f 603d
00000330: e90f 803d 809d 413d f77a 3cbd fc1a e1bc
00000340: 9304 393c d540 553d 0834 0dbc ce66 70bd
00000350: 91d0 a53c d02b 23bd e438 0ab8 2803 533d
00000360: 81e8 2b3d 70b3 46bd 6918 98bd e299 00bd
00000370: ec42 64bb 7b74 843d 9b80 2c3d 4bed 513d
00000380: b6b6 1bbd 647e 5a3d f67a 273d 5a39 c33c
00000390: 6c72 663d 3357 33bd 932b a9bb e680 4c3d
000003a0: f27a 89bd e8a4 78bd c6c8 85bd 2501 863c
000003b0: 3ffc cabc af11 6cbd 6c29 01bd 41f5 a13c
000003c0: d5d2 ad3c fea1 42bd 2542 38bd 2857 51bd
000003d0: 729b 13bc 7810 023d f35c 5dbd f835 95bd
000003e0: be79 90bd 0601 cdbc ea09 6b3d 880b 6d3d
000003f0: c3c5 d7bc 130e 4d3c 3969 03bd 9841 8bbd
0.041357998 0.043705553 -0.04892918 0.05018718 0.058329582 -0.04377588 -0.045595583 0.04692656
0.055735055 -0.08716532 -0.03457858 -0.007089534 -0.026355462 -0.05255564 -0.0533272 0.032811783
-0.0014529341 -0.0112571325 -0.060676403 -0.06205743 0.013801952 0.006763075 -0.026502201 0.05715762
0.033781804 0.042019583 0.04879081 0.051286843 0.01466682 -0.017904025 0.019005746 0.031902228
0.032790422 0.05183501 0.0587325 0.051156044 0.06949819 -0.041979626 -0.021575991 0.03971197
-0.07395455 -0.028669013 -0.020826599 -0.049462274 -0.06957251 0.050218973 0.052096248 -0.051566098
0.04655181 -0.06034561 0.024261672 0.060863145 0.045541327 0.069502816 0.06863077 0.06560232
-0.053397905 0.05789374 0.023600975 0.06092717 0.01841644 -0.04677343 -0.04088813 -0.05711755
-0.019355163 0.03834462 0.054182056 0.0047547305 0.009766833 0.054024484 -0.06216542 0.0068835947
-0.041419074 -0.00430641 -0.0827669 0.0089137815 0.050247233 -0.003234147 -0.049713977 0.025421595
0.054303844 0.042200807 -0.04596954 -0.025625043 -0.026028425 -0.0015719492 -0.016528536 0.03910314
0.062187023 0.06394009 -0.061297715 0.047816746 -0.083090514 -0.06708469 0.0004012273 0.03872122
0.037491877 0.06393314 -0.012785006 -0.052075528 -0.061086275 -0.006814544 0.035811827 0.06903426
0.0006631156 -0.039358437 0.018720036 0.022211187 -0.02750761 0.055323146 -0.04152524 0.012175198
-0.09232636 -0.00091944856 0.02524359 0.038909826 0.036238708 -0.02274185 -0.025973646 0.019152388
-0.08634179 -0.077407405 -0.08525358 0.059781093 -0.059136447 -0.033319756 -0.029596336 -0.07766138
0.07547768 -0.03336432 -0.06489835 -0.038031552 -0.027228085 -0.0540985 -0.037001576 0.028354706
0.011083168 0.06786764 0.015071521 0.062382407 -0.03088809 0.025164982 0.06214303 0.009571335
0.033542775 -0.07679371 0.028095301 -0.013528409 -0.03381208 -0.07193149 0.039492548 -0.032885738
0.024683585 -0.044092968 0.019589167 -0.08000835 -0.06670105 0.050559707 -0.04346596 0.031665273
0.037224017 0.062191363 0.035407413 -0.078456506 0.039529074 -0.031151468 0.066785395 0.050899036
-0.07326299 -0.014469287 -0.008876166 0.03136127 -0.077170536 -0.03218898 0.060203154 0.012629873
0.06145123 0.056030285 0.012104043 -0.08267519 -0.08407675 0.03805546 -0.07793248 0.03841695
-0.05457073 -0.070398845 -0.009043746 0.014915651 -0.090727836 0.049210034 -0.02799457 -0.010222475
0.047859553 0.065998726 0.0018412056 0.0662427 -0.03787418 -0.053529512 0.0066875615 0.02946973
-0.048459142 -0.0042983904 -0.06079181 0.0547637 0.062530346 0.047269344 -0.046015706 -0.027478687
0.0112925945 0.05206378 -0.008618362 -0.058691792 0.020241054 -0.039836705 -3.2954747e-05 0.051516682
0.04196978 -0.04851097 -0.07426531 -0.031396754 -0.0034829928 0.064675294 0.042114835 0.05125169
-0.038016044 0.05334319 0.04088875 0.023831058 0.056261465 -0.04378433 -0.005162665 0.049927615
-0.06712903 -0.06070414 -0.06532435 0.016357968 -0.024778483 -0.057634052 -0.031533644 0.019770266
0.021218697 -0.04751777 -0.044984955 -0.05110851 -0.009009229 0.031753987 -0.05404372 -0.07285684
-0.070544705 -0.025024902 0.0573825 0.057872325 -0.026339417 0.012515563 -0.03208277 -0.067996204

bias f4 [2]
00000000: d1c4 9dbd cb3f a3bd
-0.077035554 -0.07971152
