lab2/problem1/neural-network-1.pth (torch, 26503 bytes, 18 tensors)

weight f4 [32, 8]
000000 04 b1 84 3e 2f ea 43 3e 0b 98 a5 be 84 33 1e c0
       0.25916302 0.19132303 -0.32342562 -2.4718943
000010 40 e2 40 3d 81 d1 e8 be d3 76 b4 be ab b4 f1 3d
       0.04709077 -0.4547234 -0.35246906 0.11802038
000020 07 08 c1 3f 49 14 06 3c 27 40 51 be dd 21 07 3e
       1.5080575 0.008183547 -0.20434628 0.13196512
000030 fb 67 c5 bf ad 34 05 bf 3e 61 88 3d 74 79 ed 3e
       -1.5422357 -0.520335 0.066591725 0.46381724
000040 04 51 25 3f a8 c2 31 3e 3b fc bf 3e a7 ce 3a 3e
       0.64576745 0.17359412 0.37497124 0.18242894
000050 ed 18 f3 bf fe e6 7b bf b0 82 b6 be 69 0e 25 bf
       -1.8991982 -0.9839934 -0.35646582 -0.64475113
000060 d4 00 13 3d c6 42 02 bd ea d9 32 c0 7f f8 da bf
       0.03588946 -0.03180196 -2.7945504 -1.7107085
000070 54 53 c2 3e 9f 62 6c 3f ca 87 04 bc 94 97 2f bd
       0.379542 0.92337984 -0.008089015 -0.042869166
000080 c6 6d ae be cd 80 90 3e 18 60 f2 3f f2 54 a3 be
       -0.34068125 0.28223267 1.8935575 -0.31900746
000090 30 d9 1f bf b3 45 07 40 7b a3 29 bf bf d3 85 be
       -0.62440777 2.113629 -0.66265076 -0.26138112
0000a0 36 2b 40 be da bc 49 3f e7 61 97 be 5a 14 c4 3f
       -0.18766484 0.7880379 -0.2956688 1.5318711
0000b0 42 e9 4b 3d 82 79 b0 3f eb 7a 6d 3f ef 10 7a 3e
       0.049783 1.3787081 0.9276568 0.24420522
0000c0 a7 f8 fc be 72 10 19 bf 98 f4 be be d8 ed 5e bf
       -0.49408457 -0.5979072 -0.37295985 -0.8708167
0000d0 02 5a fd bd fc 7f 71 3f f6 44 d6 3e ee 99 11 bf
       -0.12370683 0.94335914 0.41849488 -0.56875503
0000e0 7e 62 20 3e 23 ff ae be 90 8b 6b 3e 66 cf 11 c0
       0.15662572 -0.3417903 0.23002458 -2.2782836
0000f0 b1 b8 18 40 ca 68 5b 3f 95 89 f4 bc e7 65 e7 bf
       2.3862727 0.8570677 -0.02985076 -1.8077973
000100 1d b5 da 3e 0d 37 c9 be 3e 4b 0f bf 75 67 85 3e
       0.42716303 -0.39299813 -0.55974185 0.26055494
000110 02 92 15 3f 4d b9 50 bf fb 4f ba 3e b6 b7 de 3e
       0.58425915 -0.81532747 0.36389145 0.43499535
000120 1a 60 e9 3e ad ad 41 be 94 4e 05 3d df 05 c1 bf
       0.45581132 -0.18913908 0.03254564 -1.5079917
000130 8d 46 91 bf 93 46 11 bf 40 8f f9 3e 89 0c 0a 3f
       -1.1349655 -0.5674831 0.48742104 0.5392538
000140 90 e1 ce 3e 3f 65 be 3f 2d 6a 71 bf cb 1b 85 be
       0.40406466 1.4874648 -0.94302636 -0.25997767
000150 d1 cb 99 bf 66 d7 5a bf 57 d0 83 bf 87 69 b2 bf
       -1.2015325 -0.8548492 -1.0297955 -1.3938454
000160 2d 1b d0 3e d7 36 c9 3d 0f da 87 3e 00 75 a4 3d
       0.40645733 0.09824913 0.26533553 0.080301285
000170 4c 83 ee 3e 84 83 dd 3f e6 01 d1 3f d3 82 03 bf
       0.46584547 1.730576 1.6328704 -0.51371497
000180 f7 13 83 bc 1f 85 bf bd 5f be 01 bf ce e7 1e bf
       -0.01600073 -0.09351563 -0.5068111 -0.62072456
000190 a1 c3 8a c0 a2 7b 10 3f a2 fd ee bd 85 57 9c be
       -4.3363805 0.5643865 -0.1166947 -0.30535522
0001a0 31 02 fd be bd 29 0e 3d 83 e6 c7 3f 39 9a 03 3f
       -0.49415734 0.034707773 1.5617222 0.514072
0001b0 5f 7a 42 40 2e 81 cb 3f 0d 60 15 bf e9 ff 76 bf
       3.038719 1.5898798 -0.58349687 -0.9648424
0001c0 79 3a 6b 3e b1 86 9b 3f 7c 99 9b bf a3 a5 40 3f
       0.22971524 1.215048 -1.2156215 0.7525274
0001d0 7c 03 c4 3f ba 96 f9 bf d1 f8 c4 be ab c2 f4 be
       1.5313563 -1.9499123 -0.38471082 -0.4780477
0001e0 88 f7 95 3e 09 f0 93 3f fb 62 48 3e 29 71 df be
       0.29290414 1.1557628 0.19569008 -0.43641022
0001f0 9c 8b 68 bf f3 ad c4 bd b9 cf d7 bf ba e9 d3 bf
       -0.90838027 -0.09603491 -1.6860267 -1.6555703
000200 7f b0 cf bd 23 41 85 3f 90 8f 2e 3f bb c8 3f c0
       -0.10141086 1.0410503 0.6818781 -2.9966266
000210 28 94 1d 3e c4 42 63 3e 95 71 f9 bf 1f de 80 bf
       0.15388548 0.22193438 -1.9487787 -1.0067786
000220 06 8a 0a bf e6 39 1f 3e f9 7c 58 be 4b c1 84 be
       -0.5411686 0.1554943 -0.21141423 -0.2592872
000230 b4 da 8c bf 5a 79 ff bf cb ef fe bf 7d dc 94 be
       -1.1004243 -1.9958909 -1.9916929 -0.2907447
000240 5c 22 84 3d 1b a5 de 3d 26 a3 eb 3e b1 06 d7 bf
       0.06451866 0.10871335 0.4602291 -1.6798917
000250 b4 c9 90 bf 52 65 10 bf bf 55 d2 bf 23 55 05 c0
       -1.1311555 -0.564046 -1.6432418 -2.0833213
000260 7c 2b 36 be 16 b4 9c 3f 9b 16 21 3f f4 cc 26 c0
       -0.17790025 1.2242458 0.6292512 -2.6062593
000270 a3 13 b2 be c0 e9 6c be d5 fe e1 bf 31 97 8e bf
       -0.34780607 -0.23136044 -1.7655894 -1.113989
000280 0f 93 36 3e 36 e3 65 3f 24 bc 2f bf 77 87 c5 bf
       0.17829536 0.8979982 -0.68646455 -1.5431966
000290 9f cd c1 3e 5e 64 8c 3e ca cc 95 bf 32 90 c9 bf
       0.3785219 0.27420324 -1.1703122 -1.574713
0002a0 99 eb 9c bd 91 35 23 3e 62 38 e0 bc 0d eb 7c bf
       -0.07662124 0.15938403 -0.027370635 -0.9879616
0002b0 b6 11 8a bf 5b f0 79 bf 31 e3 34 3d d3 56 ce 3e
       -1.0786655 -0.9763238 0.04416198 0.40300617
0002c0 39 c7 f4 be 56 a6 c9 be d7 ab 5c bf 7d 72 5e bf
       -0.47808245 -0.39384717 -0.86199707 -0.86893445
0002d0 81 c1 bd 3d 2e a5 b9 3f e1 2f 5e bd 32 7e 0f c0
       0.092654236 1.4503534 -0.05424488 -2.2420774
0002e0 1a 37 13 bf 85 ea 0c 3f a7 8d 4f 3f 13 27 a5 3f
       -0.57505953 0.5504535 0.8107552 1.290255
0002f0 af 21 84 3f 02 37 78 3f e6 05 9c bf 62 e5 e2 bf
       1.032278 0.96958935 -1.21893 -1.7726252
000300 b0 4a 45 bf ff 91 20 40 09 6c 7c bf 93 0e b1 be
       -0.7706709 2.508911 -0.9860235 -0.34581432
000310 04 c7 84 3e e6 9f af 3f 2a bf e5 be 59 7c 55 bf
       0.25933087 1.3720672 -0.4487241 -0.83392864
000320 fa 2f a2 bd cf 88 cd 3f 06 c5 0c 3f e1 55 9c bd
       -0.07919307 1.6057376 0.54988134 -0.076335676
000330 31 29 bc bf 69 de 84 bf 60 87 24 c0 b2 85 a0 be
       -1.4700071 -1.0380374 -2.5707626 -0.31352
000340 ef 0c d8 bd 48 00 20 3c f7 21 7d bf 5b aa a8 3f
       -0.10549342 0.009765692 -0.9887995 1.3176988
000350 77 42 d2 3e cd de 68 3f 51 02 bb 3e 28 53 1a be
       0.41066334 0.90964967 0.36525205 -0.15070784
000360 6a 94 c8 3e 1d e0 ca 3f 72 df 9c be 76 e4 2d c0
       0.3917573 1.5849644 -0.30639225 -2.7170691
000370 0f 0d f4 3f b1 75 bf 3f 58 16 a0 be c3 21 e8 bf
       1.9066485 1.4957792 -0.31267047 -1.8135303
000380 49 e2 0b bf c7 44 c6 3f 61 80 04 3f e9 1a ca 3e
       -0.5464216 1.5489739 0.5175839 0.39473656
000390 80 e9 2e bf 9b f7 63 bf 62 47 ee bf 1a ae 0e bf
       -0.6832504 -0.8904969 -1.8615534 -0.5573441
0003a0 74 94 0b bf e0 a1 40 bf ac 4e 9f 3f 9a 43 c8 bf
       -0.54523396 -0.75247 1.2445884 -1.564563
0003b0 43 65 0b bf 31 d3 8b be c8 25 4f 3f 19 99 b0 3e
       -0.5445139 -0.27309564 0.80917025 0.34491804
0003c0 81 4c d8 bf c9 cb 1a be 8f f5 70 bf 7a 04 49 bf
       -1.6898347 -0.151168 -0.9412469 -0.78522456
0003d0 5b 02 1c 3d ad 51 ea 3e de 5a 14 bd 88 09 9f 3c
       0.038088184 0.4576544 -0.03621947 0.019413725
0003e0 e4 b0 c4 be ec 44 a6 3e 30 e5 ab be e9 28 96 bc
       -0.38416207 0.32474458 -0.33573294 -0.018330054
0003f0 1a 17 78 3f 1c 28 84 bf bd 06 fc bd 39 ae 8b 3f
       0.9691025 -1.032474 -0.12305973 1.0912544

bias f4 [32]
000000 7e 84 98 bd 87 cb 06 3e 5f cb 77 3e ea 33 4c 3d
       -0.07447146 0.13163577 0.24198674 0.049854197
000010 23 19 69 3f c7 a2 b3 3e 92 91 83 3f 8b 86 87 3e
       0.9105398 0.35085127 1.02788 0.26469836
000020 55 ed 7d 3f 61 4b 44 3f 37 23 d1 be 8e 0a fc be
       0.99190265 0.7667752 -0.4084718 -0.49226803
000030 22 0e 80 bd 34 14 38 bf 6c 45 85 3f ff a5 ee 3e
       -0.062526956 -0.7190583 1.0411811 0.4661102
000040 ba 66 9b 3e b0 ef e9 bd 65 05 ae 3e 29 07 ac 3e
       0.30351812 -0.1142267 0.3398849 0.33599213
000050 93 63 69 3e f7 3a ad 3e a8 19 07 bf 1e 62 52 bf
       0.22791891 0.3383405 -0.52773523 -0.82180965
000060 43 90 a7 3e b9 f7 4d 3f 82 3b 56 3f f7 eb d0 3e
       0.3272725 0.8045612 0.8368455 0.40805027
000070 95 38 09 3f fb 18 67 3f 63 7e f0 3d a4 f8 1b bf
       0.5360196 0.9027249 0.11742856 -0.6092627

weight f4 [32, 32]
000000 a7 a9 da bd ae fe 38 3f 28 d1 5c 3e 0c 4c 7a 3e
       -0.1067689 0.7226361 0.21564162 0.24443072
000010 e8 15 a1 bf 46 ab 82 3f a2 a5 9b 3c f1 0e 5b be
       -1.258481 1.0208519 0.018999878 -0.21392418
000020 bb 26 a8 bf de 6a 01 3f 6b 32 c7 bf b5 47 cc 3e
       -1.313682 0.5055369 -1.5562261 0.39898458
000030 9c c5 0f c0 47 64 79 be 4a 39 dc 3c 96 0f a8 3d
       -2.246436 -0.24354659 0.026882786 0.08206098
000040 a8 33 5c 3f 61 3d 4e 3f 94 bc 20 bf 1d 90 85 3f
       0.8601632 0.80562407 -0.6278775 1.0434605
000050 4d 1f 6b 3f af e4 4b 3e 20 d6 3d bc 0a 3d 3f 3e
       0.91844636 0.19911455 -0.011586696 0.18675628
000060 f5 28 0e 3f 63 71 a6 3e 55 05 4b 3f c9 eb bd 3d
       0.55531245 0.32508382 0.7930501 0.09273488
000070 f1 55 1b 3b e9 26 5f bc f1 ca 9c 3f e8 2f 50 3e
       0.0023702348 -0.013620117 1.2249433 0.20330775
000080 55 cc a5 3f c1 1c 76 bf f0 c2 ae bf dd 58 ba 3e
       1.2952982 -0.96137625 -1.365324 0.36395922
000090 0a 03 a3 3d c0 84 d7 be 22 f0 f3 bf 3d b0 9a 3e
       0.07959564 -0.42093468 -1.9057658 0.30212584
0000a0 95 40 62 bd 4f 83 ca bf 09 a1 c9 3f cc 22 10 c0
       -0.05523737 -1.5821322 1.5752269 -2.2521238
0000b0 53 ea bd 3d 49 66 0c 3a 76 15 c0 3e 71 99 82 3f
       0.092732094 0.0005355818 0.37516373 1.0203077
0000c0 11 21 0c 3f 65 6c 72 be 2b fb 27 3f ae a3 23 3f
       0.54737955 -0.23674162 0.65617627 0.6392163
0000d0 76 aa de 3e 37 bc 88 bf 95 3c 09 bf 0e 39 a3 3f
       0.43489426 -1.0682439 -0.53608066 1.2751787
0000e0 89 39 16 3f a6 52 d4 3e f6 9f a3 bf c7 21 d3 3e
       0.5868154 0.41469306 -1.2783191 0.41236708
0000f0 0a 47 81 3f 5f 11 94 3e 70 54 ff bf b6 1a d3 bf
       1.0099804 0.28919503 -1.9947643 -1.6492527
000100 79 c6 ec 3f 4c 93 6c bf d0 13 8b be af 18 bb 3f
       1.8498069 -0.9241226 -0.27163553 1.4616908
000110 92 cc d5 3e 0b 9f 94 be 81 63 8e bf 21 b6 ad 3e
       0.41757637 -0.2902759 -1.1124116 0.33928016
000120 e6 72 b8 3f d0 33 49 bf e4 aa e0 3f 19 12 08 c0
       1.4410064 -0.78594685 1.7552152 -2.1261046
000130 b8 9b 0b 40 3d a4 68 3f b5 15 76 3f f5 51 8b 3f
       2.1813793 0.9087561 0.9612687 1.0884386
000140 46 a4 00 3e 72 b9 9e 3e 6b b8 bd 3f ac bc 66 3e
       0.12562665 0.3100086 1.4821905 0.2253291
000150 a7 56 8f 3e 25 6d 2f bf ad 82 78 bf b3 a0 d0 3f
       0.27995798 -0.68525916 -0.97074395 1.6299042
000160 40 d4 64 3e ef 51 64 3f ca ab 33 bf f4 b8 d6 3d
       0.22346592 0.8918752 -0.70184004 0.10484496
000170 0f e2 90 3f 57 30 9f 3f 75 d2 89 bf d1 ae 18 bf
       1.1318988 1.2436627 -1.0767351 -0.5964175
000180 82 e2 71 3e b7 45 1d 3f 90 52 78 3d 8a bb e7 3e
       0.23621562 0.614345 0.060625613 0.45260268
000190 59 6a 70 bf ab ac f4 3e dd 58 1e 3f cf be 53 3f
       -0.93912274 0.47787985 0.61854345 0.82713026
0001a0 61 5e df bf c6 71 3e 3f f9 7b 93 bf 7c 29 2f 3f
       -1.7450677 0.74392354 -1.1522208 0.68422675
0001b0 48 5a 1a bf 77 3d af be e1 4f 93 bf 18 77 d4 bf
       -0.6029401 -0.3422658 -1.1508752 -1.6598845
0001c0 96 2d 48 3f 9a 6d 36 3f 5b 59 b7 bf 4a 83 21 3f
       0.7819456 0.7126099 -1.4324144 0.63090956
0001d0 26 ba bb be 75 95 f9 3e 7a 56 0f 40 0d d8 4c bf
       -0.36665457 0.4874684 2.239653 -0.8001717
0001e0 b2 97 b8 3e 38 80 e4 be 92 5c ed 3e d9 0c 90 3f
       0.36053234 -0.44629073 0.46359688 1.1253921
0001f0 93 42 17 bf a9 d8 64 bf e0 04 a2 3f 91 78 86 3e
       -0.5908596 -0.893931 1.2657738 0.2626386
000200 76 b9 a9 3f ef f6 a6 3e 92 38 d1 3f 35 0a b2 3f
       1.3259723 0.3261027 1.6345389 1.3909365
000210 c0 75 3c bf f2 6a 35 bf 6b f2 b1 3d 3a 21 c5 3f
       -0.7361717 -0.7086631 0.08688816 1.5400765
000220 b7 5e 2c bf 1c 9e 55 3f ca 98 83 3d 80 6e 9f 3e
       -0.67332023 0.8344438 0.064256266 0.31138992
000230 0f 7d e2 3d d2 6c f6 3e b5 c5 a3 bf 41 72 55 bf
       0.11059009 0.48129898 -1.279471 -0.8337746
000240 64 67 72 3f 6e 87 9d 3f 9d d1 07 3f af 08 3e 3f
       0.9468901 1.2306955 0.5305422 0.74232
000250 f5 12 c8 be f0 ba 88 3f f1 af 90 3f 47 79 1a bf
       -0.39076963 1.0682049 1.1303693 -0.60341305
000260 b4 32 37 3e b7 44 35 3d 5e f1 10 bf 47 eb ae 3f
       0.17890435 0.044254985 -0.566183 1.3665551
000270 5d 89 f3 3d 76 81 09 bf 3e 8f 33 3f 2f 16 61 3d
       0.11891434 -0.53713167 0.70140445 0.054952797
000280 70 9d 46 3f ed 1c 8d be 9f 88 43 3f 02 c1 53 3e
       0.7758398 -0.2756113 0.7638034 0.20679095
000290 3e 6c 66 3e c4 fa 79 3f cf 3e 58 bf 84 1d fe be
       0.22502229 0.9764826 -0.8447084 -0.49631894
0002a0 c2 5f a2 3f a3 7f ba bf 23 10 1e 3f 14 3c 0a bf
       1.2685473 -1.4570202 0.6174337 -0.5399792
0002b0 37 00 e0 3e c2 72 22 40 d1 0e 50 3f 0c 9c 6c 3e
       0.43750164 2.5382543 0.8127261 0.23106402
0002c0 01 ab a4 bf 21 d4 89 3f 16 f4 26 3f 1c ea 46 bf
       -1.2864686 1.0767862 0.65216196 -0.7770097
0002d0 e1 d8 79 bf ec 47 89 bf c3 3c f2 3e 34 62 e1 3f
       -0.97596556 -1.0725074 0.47311983 1.7608094
0002e0 af 81 f8 bd 27 e7 d8 3d 3f e4 d7 3f 6a 1a 4e bf
       -0.1213411 0.10590964 1.686653 -0.80509055
0002f0 24 5c 22 3f fa 4c 61 bf 0f 48 55 bf aa fa a9 3f
       0.63421845 -0.8800808 -0.8331308 1.3279622
000300 09 21 38 bf 73 57 20 3f 1c 24 cb 3e 5d b3 7c bf
       -0.7192541 0.62633437 0.39675987 -0.98711187
000310 a5 5c 90 be 0c fe 0a 3f 61 9d 60 3d ef 9e 6c 3d
       -0.28195682 0.54293895 0.05483759 0.05776876
000320 84 4f 74 bf ae 51 ea 3e eb e9 7d bf dc d2 e5 3e
       -0.9543383 0.45765442 -0.99185055 0.44887435
000330 43 d6 12 c0 ec e9 52 bd b1 e9 2e bd 00 b9 e8 be
       -2.2943275 -0.051492617 -0.042703334 -0.45453644
000340 40 ca 8f 3f ac ac 98 3f b0 65 9f bf 11 a5 6d 3f
       1.1233597 1.1927695 -1.2452908 0.92829996
000350 22 bc f7 3e 42 ad 60 3f 2e 8a a3 3f 0c b7 54 bf
       0.4838572 0.8776437 1.2776544 -0.8309181
000360 95 c0 16 3f 8a 04 4e 3e 14 eb 70 3f e0 ab 70 3f
       0.58887607 0.20118919 0.941087 0.9401226
000370 98 31 38 3e 0a 19 0a bf c8 2c 39 3f 39 a9 76 3f
       0.17987669 -0.53944457 0.72333956 0.96351963
000380 01 5a 1b be 10 3d f5 3c e1 23 01 3e df dd 88 bd
       -0.15171053 0.029936343 0.12611343 -0.066829436
000390 0c 95 c5 bd bc 1e e4 bd 40 04 a5 bc 88 a7 51 3d
       -0.09647569 -0.111386746 -0.020143628 0.05118516
0003a0 e7 b5 cc bd 60 5b 99 3c 80 7f fb bb 1f 27 f0 bd
       -0.099956326 0.018720329 -0.0076751113 -0.11726212
0003b0 76 50 6f bd ee 0c da bd 1e 2d 27 be 44 ac 18 3d
       -0.058426343 -0.106469974 -0.16325805 0.03727366
0003c0 1d 4b d8 bd 58 d8 ab bc 3b 46 21 be 56 ce 97 3d
       -0.10561202 -0.020977184 -0.15749447 0.07412402
0003d0 ca 57 c9 3d 30 36 12 be 9e fe 1e be 5e e1 c3 3d
       0.098311976 -0.14278483 -0.15526816 0.0956447
0003e0 d8 81 f6 bd 87 66 12 be f5 c5 8b bd 1a 8c c0 bd
       -0.120364845 -0.14296924 -0.06824867 -0.09401722
0003f0 f3 d0 23 be 1f 99 ca bd 70 54 92 3d 15 bf 89 bd
       -0.15997677 -0.09892487 0.071450114 -0.06725899

bias f4 [32]
000000 23 6c 60 be 3c 83 d1 be b8 95 69 3f b7 fb a7 bf
       -0.21916251 -0.40920436 0.9124408 -1.3123692
000010 3f 85 6b bf f2 7a 14 bf a0 96 a6 be ca 78 9f 3d
       -0.9200019 -0.580001 -0.32536793 0.077867106
000020 2d 0f 77 be b8 a3 6c 3f be 53 3d bf a1 3b 22 3f
       -0.24126883 0.92437315 -0.73955905 0.63372236
000030 83 c2 14 3f 78 9e c4 be f8 f9 ac 3b f8 a5 cf bf
       0.581093 -0.38402152 0.005278822 -1.6222525
000040 24 94 93 bd b8 1e 91 bf 28 9a 67 3d 1b 7e b3 be
       -0.0720599 -1.13375 0.0565435 -0.35057148
000050 8d c0 9f be 4e 1d 1b 3f 9c da f4 be fd be 40 3e
       -0.31201592 0.6059159 -0.47823036 0.18822856
000060 57 b8 32 3e a9 0b 4d 3e 0e 8d 7d be b0 9c 81 bf
       0.17453133 0.20023979 -0.2476084 -1.0125942
000070 67 3e 6f bf 1f 2f 91 3f e7 f9 24 3f c3 39 cc 3e
       -0.93454593 1.1342505 0.6444382 0.3988782

weight f4 [4, 32]
000000 86 51 32 bf f9 12 6e 3f 34 2a 8c 3f 22 7c fd bf
       -0.69655645 0.929977 1.0950379 -1.9803507
000010 52 62 dd bf 69 db f8 3f 5c be 8e bf 10 89 6a 3c
       -1.729563 1.9441959 -1.1151843 0.014314905
000020 ab 5a 6d bf b5 ec 53 3f a1 3c 3d bf 34 d2 b5 bf
       -0.92716473 0.8278306 -0.7392064 -1.4204774
000030 a3 87 87 3f d5 54 52 3f 5d 1c a6 bf 71 5c d5 bf
       1.0588268 0.82160693 -1.2977406 -1.6668836
000040 2a 74 3e 3d ac b5 bf bf 6f fe eb 3f 5b 3b 17 bf
       0.0464975 -1.4977317 1.8437022 -0.59074944
000050 eb 2b ee be 48 bc 62 3f 0c c0 cf bf 80 c9 90 3f
       -0.46517882 0.88568544 -1.6230483 1.1311493
000060 19 83 f8 be dd b9 b8 3f 7e 8f 82 be 54 9a ed bf
       -0.4853752 1.4431721 -0.255001 -1.8562722
000070 e4 79 21 bf 48 5c e5 3f 35 d8 98 3f c4 f5 55 3f
       -0.63076615 1.7918787 1.1940981 0.83578134
000080 63 de e6 be 0a c6 6e 3f 2d e2 8f 3f c8 c1 2f c0
       -0.45091543 0.93270934 1.1240898 -2.7462025
000090 85 e2 c6 bf e5 ce 0d 40 16 15 90 bf 69 21 09 3e
       -1.5537878 2.2157528 -1.1256435 0.13391651
0000a0 7f 39 5b bf b5 94 2a 3f f7 4d b4 bf 60 8d 8e bf
       -0.8563461 0.6663316 -1.4086293 -1.1136894
0000b0 b9 09 86 3f cc 4e 5b 3f 9b 3d bf bf 65 e4 d3 bf
       1.0471717 0.8566711 -1.4940675 -1.6554075
0000c0 22 32 46 bc b5 77 b3 bf a6 b0 e0 3f 44 11 ab bf
       -0.0120969135 -1.4020907 1.7553909 -1.3364644
0000d0 7e c8 25 bf 41 d5 a1 3f 25 7b dd bf c5 3b 6d 3f
       -0.6475905 1.2643205 -1.7303206 0.92669326
0000e0 73 e4 05 bd 19 77 b4 3f 74 5b 8d bf 52 ba 9c bf
       -0.03268857 1.4098846 -1.1043534 -1.224436
0000f0 95 65 9b bf dc b7 ef 3f 2c 2c 80 3f 29 79 72 3f
       -1.2140375 1.8727984 1.001348 0.94716126
000100 48 a2 69 bf 63 0d a4 3f c1 76 8e 3f c0 54 9c bf
       -0.91263247 1.2816585 1.1129991 -1.2213364
000110 44 03 a2 bf 2a 45 e9 3f 47 db 5f bf fb 2f 32 3e
       -1.2657247 1.8224232 -0.87443966 0.17401116
000120 95 73 14 bf 60 21 d7 3f 3b 6d ac bf 95 56 ad bf
       -0.57988864 1.680706 -1.3470834 -1.3542048
000130 c0 c5 32 3f 9d ef ba 3f 72 31 a2 bf 2e ca 25 c0
       0.6983299 1.4604374 -1.267134 -2.590465
000140 2a f5 0b 3d 9e 82 af bf 5f ba 27 3f 91 55 03 bf
       0.034169354 -1.3711736 0.65518755 -0.5130244
000150 f0 d1 b5 be 02 ce 7a 3f c6 01 a2 bf a8 8a de 3f
       -0.35511732 0.9797059 -1.2656791 1.7386065
000160 9b d2 ef bf fb 05 d3 3f 5b a6 bf bf 30 b0 f7 bf
       -1.8736147 1.64862 -1.4972643 -1.9350643
000170 bd ba cc be f7 0f af 3f 1f 2f a2 3f a7 55 8e 3f
       -0.3998622 1.3676747 1.267063 1.1119889
000180 3c 8f 86 bf 82 b6 2e 3f 76 43 51 3f 09 1d e1 bf
       -1.0512462 0.68247235 0.8174356 -1.7586986
000190 d7 91 d4 bf ff e1 dd 3f 5b 5d 5f bf 95 36 30 3e
       -1.6607007 1.7334594 -0.87251824 0.17208321
0001a0 de 3b 8a bf 96 9d 6a 3f 9a fc c5 be 96 8c d7 bf
       -1.079952 0.9164671 -0.38669282 -1.6839778
0001b0 3b ef ad 3f 45 cd 5e 3f 25 ea 8c bf 9a bf e2 bf
       1.3588632 0.87031966 -1.1008955 -1.7714722
0001c0 f1 c7 b7 3d 42 5d d7 bf 5f ef 07 40 5f 25 69 be
       0.08973683 -1.6825335 2.123985 -0.22768162
0001d0 21 a4 fa be 28 7d ef 3e 89 8f be bf 0f fb 97 3f
       -0.48953345 0.46775174 -1.4887553 1.1873492
0001e0 ee 35 3c bf 4a ec b6 3f c8 cd 7a 3f f1 d7 e0 bf
       -0.7351979 1.429086 0.9797025 -1.75659
0001f0 c5 93 54 bf 3d 70 d3 3f 93 c8 9b 3f 81 44 4a 3f
       -0.8303798 1.6518627 1.2170585 0.7901078

bias f4 [4]
000000 f9 e7 4b 3f 2a b7 4e 3f 9d 3d 43 3f 85 2c 64 3f
       0.7965084 0.80748236 0.7626589 0.8913043

exp_avg f4 [32, 8]
000000 69 3b 11 bb c2 de 3a 3c d6 ad d3 3a 76 09 bb ba
       -0.0022160655 0.011405649 0.001614983 -0.0014269787
000010 77 30 e3 ba 95 c0 98 3b b1 65 2d b5 bf 29 a4 ba
       -0.0017333169 0.0046616294 -6.45955e-07 -0.0012524648
000020 05 be 16 3c 9c 79 ce 3b 1a 7a 73 3a ad d8 1f bc
       0.009200578 0.006301118 0.0009287909 -0.009756249
000030 a6 fe 53 3b 13 ae 65 ba c6 38 8f 3b b1 21 b8 3b
       0.0032347827 -0.0008761596 0.0043707816 0.0056192507
000040 67 8e cd 3b f5 9f 16 bc ef 96 2e bb 1a 89 19 39
       0.006273079 -0.00919341 -0.0026640256 0.00014642291
000050 ce e0 86 3b 93 33 14 bb 89 8e 0b b9 fd ce 45 37
       0.0041161543 -0.0022613748 -0.00013309171 1.1790308e-05
000060 48 c2 e3 39 9c 21 a6 38 73 de ae ba 8a 93 e0 3a
       0.00043441565 7.921757e-05 -0.0013341442 0.0017133814
000070 bf 00 04 ba 89 10 8e 3a 6a 9c a4 3b a3 25 06 3c
       -0.00050355116 0.0010838668 0.005023529 0.008187684
000080 00 40 dd bb 0b 02 2a 3c 54 18 07 39 bc ef f8 b9
       -0.006752014 0.010376464 0.00012883666 -0.00047480862
000090 ef ee 8b bb 5a e7 0b bb ed e9 8d bc 9c 5f 2f bc
       -0.0042704265 -0.0021347613 -0.017323459 -0.010703947
0000a0 88 83 bc 3a a9 69 ef bb 8b 24 35 bb 37 6e 08 ba
       0.0014382461 -0.007306297 -0.002764019 -0.00052044116
0000b0 6d e0 e8 3a 78 03 ed b9 63 6a 36 3c d4 30 db 3b
       0.0017767079 -0.00045206747 0.011133763 0.0066891704
0000c0 c9 a7 42 3b e6 de 5e bb f8 f0 fa ba 48 10 01 b9
       0.0029702059 -0.003400737 -0.0019145301 -0.00012308464
0000d0 da 89 81 3b 02 91 09 ba fd 90 d5 bb 04 ba 65 bb
       0.0039532008 -0.0005247743 -0.006517528 -0.00350535
0000e0 82 13 52 3b f2 b8 89 3a 8c d7 af 3a 7c cf 1c b9
       0.0032055085 0.0010507389 0.0013415678 -0.00014954613
0000f0 24 dc c6 3a c4 21 97 3b db bb 8d bb c2 be 57 ab
       0.0015171808 0.0046121795 -0.0043253726 -7.6648074e-13
000100 a3 7e a4 bb 5e 19 22 3c 07 ae 95 3a 80 ec d9 38
       -0.005019979 0.009893743 0.0011419662 0.00010391418
000110 1a 0b c6 bb 42 ae eb ba 90 fe 7d bc d6 33 1b bc
       -0.006043804 -0.001798101 -0.015502587 -0.009472808
000120 4a 47 e6 3b 7e 43 37 bc ab ad c0 ba 90 e3 2b 3a
       0.0070275413 -0.011185525 -0.0014700195 0.0006557042
000130 6c ca 60 3b bd fa fb ba 72 55 f7 3a 5f 59 a3 3a
       0.003430034 -0.0019224506 0.0018870069 0.0012462548
000140 d6 48 45 bc 7e 26 84 3c 92 e2 4b 3a 4c 11 1f 3a
       -0.012041291 0.016131636 0.0007777597 0.0006067946
000150 2e 09 c7 bb a7 6a fb 39 04 00 00 80 04 00 00 00
       -0.0060740924 0.00047953913 -6e-45 6e-45
000160 63 ca 41 bb d0 5d 18 bc c7 8b 71 bb 00 8f 8b 3b
       -0.0029570095 -0.00929971 -0.0036856995 0.0042589903
000170 63 b3 81 3b b2 cf a3 3a 5c ab da ba a4 eb d2 ba
       0.003958152 0.0012497811 -0.0016683149 -0.0016091955
000180 ad 54 7e bc d2 8e bf 3c fa 0f ec ba f1 0d c5 bb
       -0.015523118 0.023383532 -0.0018010132 -0.006013625
000190 62 6b df bb 3f 1f 45 bb b7 a9 9e bc 25 ca 9a bc
       -0.006818221 -0.0030078439 -0.019368036 -0.018895218
0001a0 8e 0c e7 3a 74 c1 82 3b e1 e8 b4 3a 85 52 e5 ba
       0.0017627643 0.0039903466 0.0013802313 -0.0017495906
0001b0 85 6d 74 ba 4e 4c 00 ba e7 ac 8b 14 51 52 58 ac
       -0.0009324181 -0.0004894183 1.4103611e-26 -3.074114e-12
0001c0 f3 60 6a ba 45 ea c0 3b 0a ed 6a 3a 96 80 a4 b9
       -0.0008940838 0.005887302 0.0008961713 -0.00031376322
0001d0 6a 60 d0 bb fe 62 13 bb ba a1 4f bb d0 37 fa b9
       -0.0063591497 -0.0022489424 -0.003168209 -0.000477253
0001e0 31 d3 7f bb 66 81 f5 3b 88 88 7a 3a 9a f3 cc b9
       -0.0039035792 0.007492232 0.0009557088 -0.0003909141
0001f0 f2 01 18 bb ea 43 a4 3a 04 00 00 80 04 00 00 00
       -0.002319452 0.0012532447 -6e-45 6e-45
000200 b5 82 b4 3a 41 8a 69 bb 28 29 c7 b9 c1 8f 0b 3a
       0.0013771864 -0.0035635384 -0.00037986902 0.000532385
000210 ed 4e 95 3b 1a 9e 59 3a 04 00 00 00 bf 25 b0 2b
       0.004556528 0.0008301452 6e-45 1.2516029e-12
000220 c3 a7 a6 3b d8 c4 e7 bb 82 1f 01 39 eb 0e 9a b9
       0.0050859167 -0.007073026 0.00012314136 -0.00029384284
000230 c4 34 4c 3b 12 c2 7f b9 04 00 00 00 29 87 49 38
       0.003115938 -0.00024390992 6e-45 4.8048012e-05
000240 a2 21 81 bb c0 71 2d 3c 12 05 77 3a 37 c4 9e ba
       -0.003940777 0.010586202 0.0009423058 -0.001211292
000250 62 11 80 bb 17 31 47 3b 04 00 00 00 04 00 00 00
       -0.003908322 0.003039425 6e-45 6e-45
000260 7f 3e 6b 3a 25 bd 74 bb 94 3f f6 b9 48 66 3f 3a
       0.0008973851 -0.0037344184 -0.00046968146 0.0007301313
000270 b7 09 86 3b 41 5d 38 39 04 00 00 00 04 00 00 80
       0.0040905136 0.00017582347 6e-45 -6e-45
000280 6d 15 e7 37 96 96 7b 39 d0 46 b9 39 41 df 79 39
       2.7547323e-05 0.00023993323 0.0003533871 0.00023829659
000290 98 6a 6a 3a c6 03 67 ba 04 00 00 80 04 00 00 00
       0.00089422753 -0.0008812513 -6e-45 6e-45
0002a0 d1 f8 01 3c 7b ab 52 bc ec 86 bf ba d7 e8 80 3a
       0.007932858 -0.012858267 -0.0014612353 0.0009835017
0002b0 d9 1a 65 3b 3f 02 28 bb e9 2f b8 3b 06 cc 97 3b
       0.003495863 -0.0025636104 0.0056209457 0.004632476
0002c0 3c aa ed ba ad 87 48 39 34 97 05 b9 06 d5 c7 b9
       -0.0018132399 0.0001912403 -0.00012740196 -0.00038114953
0002d0 84 06 a2 3b 17 00 75 3b cd 17 6e 33 04 00 00 80
       0.0049446244 0.0037384087 5.543534e-08 -6e-45
0002e0 a5 4c d8 3a 8a 4f 93 b9 e0 ad 69 38 75 35 04 3a
       0.0016502334 -0.00028097286 5.5713463e-05 0.0005043366
0002f0 aa c8 9c bb 1c b9 70 bb 04 00 00 00 04 00 00 00
       -0.004784663 -0.0036731428 6e-45 6e-45
000300 f2 66 82 ba be f3 29 ba e1 6d 62 b9 49 40 95 39
       -0.0009948893 -0.0006483159 -0.00021593973 0.0002846739
000310 ff 6b b6 3a a0 38 af 3a 03 3f 80 3b ae ee 10 2b
       0.0013917683 0.0013368316 0.0039137616 5.149031e-13
000320 2b 84 a5 ba a0 48 16 3b d7 e3 de 39 4e 99 48 39
       -0.001262789 0.0022931471 0.00042512894 0.00019130597
000330 29 80 21 ba 99 49 c8 39 04 00 00 00 8f 72 33 ba
       -0.000616076 0.00038201807 6e-45 -0.00068453787
000340 bd d0 83 3b 8d 12 b9 3b 19 25 00 3b 18 75 f2 bb
       0.0040226863 0.0056479634 0.0019553362 -0.0073992126
000350 82 78 5b 3b cc 7c 5f 39 e0 90 1f 3c 57 52 00 3c
       0.0033488576 0.00021313428 0.009739131 0.007832131
000360 2b 69 a9 ba d1 75 33 b9 4b 5a ce b7 58 5f 93 b9
       -0.0012925019 -0.0001711466 -2.459916e-05 -0.00028109062
000370 49 ef 2d 3b b3 fb a6 3a fe e2 30 3b 7d 9f 12 2c
       0.002654033 0.0012739807 0.0026990767 2.0836382e-12
000380 41 2e 04 bb a2 6f 71 3b 53 25 f8 39 44 09 73 b8
       -0.002016917 0.003684022 0.00047330055 -5.7944344e-05
000390 9e 91 6d ba 36 48 58 3a 04 00 00 00 cf b6 1a 39
       -0.0009062531 0.00082505064 6e-45 0.00014754686
0003a0 14 6a 48 bb 14 be e2 3b 41 60 03 3b 3c 19 a9 39
       -0.0030580806 0.0069196317 0.0020046385 0.00032252993
0003b0 f5 7a 9a bb 76 ca d8 b9 47 7d b6 bb 7f a7 b2 bb
       -0.0047143647 -0.00041349576 -0.0055691334 -0.005452096
0003c0 8e 50 87 3b 32 cd 62 bb 57 8b d0 3a 56 76 30 bb
       0.004129476 -0.003460717 0.0015910667 -0.0026926002
0003d0 0c ba 1e 3c d4 d3 55 3b e8 44 a2 3a ae 36 8c ba
       0.009687912 0.003262748 0.0012380155 -0.0010697448
0003e0 c5 b1 d5 39 53 8a d0 bb 89 68 21 3b 1e 69 08 3b
       0.00040758975 -0.006364146 0.0024628958 0.0020814608
0003f0 8a fa e2 38 51 28 6c 3a 80 f0 e1 b7 6b f3 96 3a
       0.00010823186 0.0009008693 -2.6934082e-05 0.0011516636

exp_avg_sq f4 [32, 8]
000000 be 35 53 3a 48 8f d3 3b e5 d3 45 3a b7 53 dd 3a
       0.00080570194 0.0064562894 0.00075465284 0.0016885911
000010 c7 bc d1 39 5b 1c e1 39 30 73 20 38 06 2e a7 3a
       0.00040004237 0.0004293647 3.825425e-05 0.0012754805
000020 02 bd 7f 3a a4 1d 36 3c c6 87 8b 3a 61 30 36 3b
       0.00097556424 0.011115465 0.0010645322 0.0027799832
000030 2c e5 f4 39 69 53 e5 39 8f 5e 06 3b 42 e8 05 3b
       0.00046710053 0.0004374043 0.0020503139 0.0020432626
000040 05 99 fb 39 68 13 0e 3c eb 56 7c 3a 4f 67 21 3b
       0.0004798846 0.008671619 0.0009625989 0.0024628227
000050 98 12 8c 39 02 4f 8d 39 1b 2e ee 37 f0 86 82 38
       0.00026716734 0.0002695248 2.839328e-05 6.224017e-05
000060 68 3c 35 3a 43 ca 46 3b 76 7b 8e 39 a4 ea 4e 3a
       0.0006913603 0.003033296 0.00027176336 0.00078932405
000070 5a 44 8a 39 80 47 6e 39 f6 36 f8 3a 6f b2 cc 3a
       0.00026372337 0.00022724085 0.0018937278 0.0015617142
000080 e1 06 90 3a f7 2b 84 3b 2c d6 25 3a 10 1c a6 3a
       0.0010988378 0.0040335613 0.00063261646 0.0012673158
000090 d8 53 05 3a f1 f8 64 3a cd 38 ab 3b 58 88 b0 3b
       0.0005086041 0.0008734605 0.005225277 0.005387347
0000a0 63 87 83 3a bb e1 06 3c 36 56 54 3a 3c d0 f6 3a
       0.0010034855 0.008232529 0.00081000046 0.0018830369
0000b0 a4 ae c3 39 34 0e b8 39 bf d1 b7 3b 78 0c ac 3b
       0.00037323416 0.00035105797 0.0056097205 0.00525051
0000c0 86 05 3b 39 db ed 2f 3b 7c c8 9b 39 a3 5a 49 3a
       0.00017835767 0.0026844654 0.00029713276 0.00076810474
0000d0 78 19 01 39 d7 38 de 38 1b 76 e6 3a 05 74 d3 3a
       0.00012311887 0.00010596372 0.0017582806 0.0016132599
0000e0 1e 80 1e 3a 2b 25 2c 3b 8e 06 99 39 e6 e2 48 3a
       0.00060463126 0.002626727 0.00029187318 0.0007663205
0000f0 2e 80 15 39 5a 2a 68 39 2a 5c 75 3a d5 f8 ef 36
       0.00014257498 0.00022141021 0.0009359742 7.151723e-06
000100 42 59 f9 3a 60 f0 d7 3b d3 2d 7a 3a 30 50 f4 3a
       0.0019023793 0.006589934 0.00095435715 0.001863962
000110 31 0b 65 3a ea 6d bc 3a a1 23 33 3c 67 d7 23 3c
       0.00087373244 0.0014376019 0.010933788 0.010000086
000120 c6 5d 24 3a 07 c0 21 3c b3 79 92 3a ea 98 21 3b
       0.0006270077 0.009872443 0.0011175185 0.0024657794
000130 c6 53 03 3a 13 0b 08 3a 2d 9f 15 3a 32 75 0c 3a
       0.00050097366 0.00051896385 0.0005707618 0.00053580396
000140 3a 9e 52 3a f8 b2 82 3c 11 ec ce 3a e1 be 83 3b
       0.0008034442 0.01595448 0.0015786906 0.0040205573
000150 59 91 32 3a de 32 0d 3a be 8b 10 33 f4 01 00 00
       0.00068118196 0.0005386303 3.3654707e-08 7e-43
000160 6f 64 11 39 5c 43 d1 3a 67 b8 e9 39 4c f1 02 3a
       0.00013865692 0.0015965509 0.00044578614 0.00049950625
000170 70 19 8e 39 3b c4 c5 39 b8 d0 28 3a ab 63 01 3a
       0.00027103303 0.0003772097 0.0006439793 0.0004935811
000180 2a 0d ff 3a 11 ee 42 3c 0d 2a e8 3a 6b 0a 5e 3b
       0.0019458879 0.01189758 0.0017712727 0.0033880721
000190 f8 c1 56 3a 79 b6 8e 3a e7 a7 bb 3b 55 b6 26 3b
       0.0008192356 0.0010888121 0.0057268026 0.0025438268
0001a0 9c 94 8a 38 9a c1 40 3a b7 48 0d 39 29 80 18 39
       6.6080334e-05 0.00073530676 0.00013473896 0.00014543593
0001b0 bc 36 d2 38 0a da 1f 39 06 75 b8 35 ec 64 91 37
       0.000100237754 0.00015244648 1.3743127e-06 1.7332342e-05
0001c0 30 07 1e 3a da 62 2d 3b 07 fb bf 39 d6 e3 80 3a
       0.00060282927 0.0026456625 0.0003661739 0.0009833525
0001d0 94 5d ec 39 46 c9 04 3a fa 52 0d 3b fa 83 c5 3a
       0.0004508315 0.00050653925 0.002156435 0.0015069239
0001e0 c9 3d a5 39 34 2c 98 3b 5b 92 1a 3a 82 91 c9 3a
       0.00031517286 0.0046439413 0.00058964425 0.0015378448
0001f0 96 93 9e 39 aa 70 ca 39 3a 43 7e 2a f4 01 00 00
       0.00030246068 0.00038612384 2.2583056e-13 7e-43
000200 70 9c ac 39 07 b2 35 3a 61 c0 de 38 dc b0 09 39
       0.00032922952 0.000693113 0.00010621618 0.00013131223
000210 70 23 f4 38 04 a1 89 39 c1 7c 11 32 e6 82 3a 37
       0.000116414274 0.00026250642 8.468477e-09 1.1116941e-05
000220 c7 6e 16 39 52 70 24 3b 72 e0 6d 39 00 cf 1d 3a
       0.00014346383 0.0025091362 0.00022685694 0.000601992
000230 32 cc e5 38 cf 45 1b 39 d8 cc 5f 33 ce 64 bc 39
       0.00010957605 0.00014807958 5.2107538e-08 0.0003593326
000240 15 25 65 3a b6 50 de 3b b0 56 5c 3a 51 7e eb 3a
       0.00087411824 0.006784524 0.00084052514 0.0017966722
000250 e8 7b d7 39 a4 c7 dd 39 04 74 d3 2c b5 07 8e 21
       0.00041100313 0.0004230115 6.009861e-12 9.624334e-19
000260 03 61 cc 39 3c d3 23 3a c4 9d e3 38 4e 4a 15 39
       0.00038982191 0.0006249433 0.000108535896 0.00014237428
000270 97 71 c7 38 5e 10 44 39 8b fb e1 31 db 9b 15 37
       9.510217e-05 0.00018698114 6.576959e-09 8.91738e-06
000280 78 4e 33 39 0a 96 10 39 7e 37 dd 37 e8 0b 3d 38
       0.00017100002 0.00013788804 2.6371094e-05 4.50722e-05
000290 b8 bd c7 37 f7 e5 7d 38 0f 75 0f 28 0e 7c 0e 32
       2.3810993e-05 6.0534072e-05 7.963478e-15 8.293695e-09
0002a0 b2 f8 82 3a 64 26 2a 3c 89 ba 9f 3a 47 21 2c 3b
       0.000999233 0.01038513 0.0012186329 0.0026264952
0002b0 5e ca 10 3a b6 7b 16 3a 65 52 05 3b 34 3c 0e 3b
       0.0005523319 0.000574048 0.00203433 0.0021703364
0002c0 f7 68 6b 39 1f 9b 2e 38 d4 0d a2 38 7c 42 41 38
       0.00022450449 4.16293e-05 7.727338e-05 4.6076704e-05
0002d0 ff c6 41 39 9f 55 48 3a 28 a8 5a 3a e6 06 a7 2a
       0.00018480046 0.0007642153 0.0008341097 2.9669946e-13
0002e0 32 c4 77 38 48 07 c0 3a 58 d5 98 38 83 b7 37 38
       5.907211e-05 0.0014650607 7.287663e-05 4.380151e-05
0002f0 89 0d 40 39 ac a2 c1 39 f4 01 00 00 05 3d 71 2c
       0.00018315589 0.0003693303 7e-43 3.4282033e-12
000300 3c 02 65 39 b7 a0 20 38 13 fc 00 38 26 05 aa 37
       0.00021839974 3.829665e-05 3.075234e-05 2.0267977e-05
000310 d2 b6 40 38 a4 1d 27 39 c2 8a 77 3a 29 0c 43 37
       4.5946632e-05 0.00015937403 0.0009442979 1.1625737e-05
000320 9c 7e 52 38 ea 90 e5 39 b2 b2 8a 38 19 f8 76 39
       5.0185816e-05 0.00043786253 6.6136374e-05 0.00023552812
000330 93 53 5a 38 9c 03 40 38 89 29 3f 31 9f 62 66 39
       5.2053085e-05 4.577973e-05 2.7817768e-09 0.00021971248
000340 cc 19 8e 3a f3 e6 f9 3b aa 16 31 3a 28 6d e2 3a
       0.0010841428 0.0076264082 0.00067553914 0.0017274963
000350 fc 43 d1 39 02 0d f2 39 8d e9 d7 3b f7 4d cc 3b
       0.0003991424 0.00046167528 0.0065891207 0.00623488
000360 63 03 7a 39 b2 05 9e 38 70 df 45 38 0a ba ce 38
       0.0002384312 7.535088e-05 4.7176552e-05 9.857498e-05
000370 ed f0 15 39 9f 2e d1 39 26 d4 b4 3a 1a 69 44 38
       0.00014299499 0.00039898322 0.0013796135 4.6827925e-05
000380 03 ef ca 38 b9 36 b5 3a 20 d8 3e 39 22 de 02 3a
       9.67663e-05 0.0013825513 0.00018200325 0.0004992207
000390 f6 d8 dd 38 af cb ab 38 97 39 dc 2f ca e2 ed 37
       0.00010578513 8.1918544e-05 4.0058687e-10 2.8358209e-05
0003a0 62 5b 3b 3a d7 14 71 3b 66 26 05 3a 1c 6f ac 3a
       0.0007147101 0.0036786103 0.0005079269 0.0013155672
0003b0 19 db d5 39 b8 8f 26 3a 35 7f 30 3b 1b 04 06 3b
       0.00040789766 0.0006353813 0.002693129 0.0020449224
0003c0 48 fe e6 39 f6 e3 d4 3b 79 d9 4e 3a 65 c8 20 3b
       0.00044058473 0.0064969016 0.00078906823 0.0024533507
0003d0 e0 86 f5 39 a8 db 29 3a 84 d5 49 3a 2a d4 20 3a
       0.0004683053 0.000647957 0.0007699358 0.00061351305
0003e0 84 21 36 38 3a 80 77 3a bf 05 20 39 a2 a0 61 39
       4.3423395e-05 0.00094414095 0.0001526093 0.00021517513
0003f0 13 6a 68 38 38 b0 55 38 5e 9f 32 39 c6 9c 90 39
       5.54119e-05 5.0947274e-05 0.00017034772 0.00027582626

exp_avg f4 [32]
000000 79 ef 58 3c b2 5b df bb a1 34 99 bb e4 e3 8f 3c
       0.0132406885 -0.006816351 -0.0046754633 0.017564721
000010 f8 b7 77 bb e8 4e 38 bb 30 94 98 3a fc 36 5f 3b
       -0.0037798863 -0.0028123204 0.0011640843 0.0034059873
000020 e0 c5 aa ba 88 28 b6 bb 0c 39 04 bb fc f6 50 bb
       -0.0013028942 -0.005559031 -0.0020175604 -0.0031885495
000030 5b 2c 28 3d 7d c3 40 3b 20 69 f2 3a 0e 21 3e 3b
       0.041057926 0.0029413395 0.0018494464 0.0029011401
000040 66 79 24 bc 81 9b 38 bb 39 f3 87 3c f5 1a 5c bc
       -0.010038709 -0.002816886 0.01659547 -0.013434161
000050 af 20 05 bc cc 54 fd bb c3 b2 d9 3b 15 13 d4 bb
       -0.008125468 -0.007731056 0.0066436245 -0.0064720013
000060 74 af 0d bc e7 f7 db ba bd ed 65 3c ea e7 b8 3b
       -0.008647788 -0.0016782255 0.014033732 0.0056428807
000070 be db 40 3b 00 48 58 b8 09 1e 27 3c dd bd 82 bb
       0.0029427852 -5.156547e-05 0.010200032 -0.0039899186

exp_avg_sq f4 [32]
000000 ba fc 89 3c 5b 80 b5 3c 1e 34 53 3c f0 74 5a 3c
       0.016844142 0.022155931 0.012890844 0.013333544
000010 f8 ab a0 3c 99 21 c3 3c 10 73 9f 3b 60 65 63 3c
       0.019613251 0.023819732 0.0048660114 0.01387915
000020 01 7c 03 3d be 91 68 3c 69 0c 9c 3c 32 bc 50 3b
       0.03210068 0.014194904 0.019048886 0.0031850454
000030 bb 35 2a 3d 71 31 8e 3a a9 c0 18 3c 19 30 ec 3b
       0.041555148 0.0010848475 0.0093232775 0.007207882
000040 67 c1 b6 3b 53 78 89 3b d6 3f 92 3c 37 9e de 3b
       0.0055772546 0.004195252 0.017852705 0.006793763
000050 2f 52 4e 3b b4 a3 ab 3c 5c c3 04 3b 93 33 bd 3a
       0.003148209 0.020952083 0.0020258045 0.0014434926
000060 db 8e 6c 3b 62 39 92 3a aa 7a d8 3c c7 4d 33 3b
       0.003609589 0.0011156017 0.026425678 0.0027359591
000070 8f a1 16 3b e1 ff 5d 3c 94 9a 45 3c 03 47 92 3a
       0.002298448 0.013549776 0.01206078 0.0011160079

exp_avg f4 [32, 32]
000000 50 8b 0a b9 4e e8 13 3a 22 c1 b3 b9 42 82 e7 38
       -0.00013212604 0.0005642221 -0.00034285436 0.00011039201
000010 19 eb a7 ba b6 f3 6e 3a a4 e5 e6 39 6e 15 b7 39
       -0.0012811153 0.0009115295 0.00044040114 0.00034920446
000020 80 35 d1 39 b4 b4 0b 3a 96 29 50 ba 60 3b ac 3a
       0.00039903447 0.0005329356 -0.0007940767 0.0013140254
000030 5e 5e 2f ba 8f ba 1a 3a 17 dd ba ba 60 96 a2 ba
       -0.0006689782 0.0005902433 -0.0014256564 -0.0012404434
000040 8d 4f 79 ba ef ed d3 b9 ea f9 1f ba bc f1 98 ba
       -0.000951045 -0.0004042233 -0.0006102609 -0.0011668722
000050 4d ce 1e ba 40 c6 99 38 53 fe 37 39 3b b8 3f 39
       -0.0006057963 7.3325355e-05 0.00017546983 0.0001828381
000060 3a e0 b4 ba f8 f5 ff ba 80 0d 70 39 e8 98 49 ba
       -0.0013799735 -0.001952826 0.00022893213 -0.00076903263
000070 12 a2 b1 ba 0a 3e 8a 3a 9e 29 22 39 02 b5 a9 b9
       -0.0013552329 0.0010547054 0.00015465028 -0.00032369053
000080 47 81 b5 b8 28 84 a9 b9 ad de 58 39 68 8c 32 b9
       -8.654832e-05 -0.00032332656 0.00020682318 -0.00017027708
000090 bd 86 91 3a 28 01 56 3a 8f 02 72 38 0e 94 e5 b9
       0.0011102777 0.00081636244 5.769968e-05 -0.00043788593
0000a0 77 c2 2f ba 70 b9 65 b8 fd 6b 90 3a df a7 ea 38
       -0.0006704698 -5.4770557e-05 0.0011018511 0.00011189258
0000b0 a8 6a 8e 3a aa 12 60 39 2c 1f 2c 39 fe d9 82 3a
       0.0010865526 0.00021369258 0.0001641481 0.000998318
0000c0 35 80 6f 3a 50 7c f7 39 e7 a0 b6 39 08 a0 96 3a
       0.0009136231 0.0004720413 0.00034833627 0.0011491785
0000d0 3b fd fe 39 76 c8 af 39 5d 94 ac 2f c8 9b ca b4
       0.00048635327 0.00033527956 3.1392036e-10 -3.7738778e-07
0000e0 33 25 16 3b de 49 d2 3a 56 7e 44 39 fa 95 3e 3a
       0.0022910356 0.0016043743 0.0001873908 0.0007270273
0000f0 33 3f cf 3a eb f6 71 38 89 3c 38 3a 4a 91 7f 38
       0.0015811682 5.7688838e-05 0.00070280634 6.093205e-05
000100 38 1a 22 b8 9e 5b 48 b9 6b b5 48 3a 4c 87 6c b9
       -3.8648228e-05 -0.00019107616 0.0007656428 -0.00022557116
000110 f4 06 19 3b 40 d6 85 3a e6 b4 92 3a 43 61 8b b9
       0.0023350092 0.0010210946 0.0011192828 -0.00026584612
000120 54 84 47 39 53 a5 7b 3a ac 88 a8 3a a4 02 bb b8
       0.00019027415 0.00095995254 0.0012858114 -8.917347e-05
000130 0d 84 ec 3a f9 84 ce b9 04 a7 57 3a de e6 f0 3a
       0.0018044725 -0.00039390454 0.00082264864 0.0018379351
000140 df 40 b5 3a 7a 1d 3c 3a 91 11 7d 3a 69 4e e3 3a
       0.0013828537 0.0007176023 0.00096538017 0.0017342094
000150 34 6a 3f 3a 7b 1d 25 3a a9 4d 0f b9 e5 9a 15 b9
       0.0007301897 0.00062986434 -0.00013666473 -0.0001426745
000160 31 b4 20 3b f1 83 2a 3b 04 8c 66 3a bb b9 93 3a
       0.0024521465 0.0026018585 0.00087946677 0.0011270562
000170 e1 92 0c 3b 03 96 8a 3a 1f 81 bb 39 54 ff 72 38
       0.0021449851 0.0010573271 0.00035763622 5.793509e-05
000180 88 a0 bc b6 ec 1f 97 32 6d 36 d7 b3 15 85 0b 3a
       -5.621525e-06 1.759323e-08 -1.0021618e-07 0.000532226
000190 7a f5 6f 3a 0a a8 22 3a f2 c1 66 3a aa 5c b6 3a
       0.00091537053 0.00062048493 0.0008802704 0.0013913114
0001a0 b8 62 eb 39 f9 d2 ad b6 f4 05 3c b6 a0 2f c8 39
       0.00044896244 -5.180362e-06 -2.8017648e-06 0.00038182456
0001b0 e1 d6 1d b5 4d f9 b0 3a 9c 1e 11 3a 0d c2 df b6
       -5.879975e-07 0.0013502032 0.0005535872 -6.6685084e-06
0001c0 c7 53 d0 39 e7 5a 60 b4 28 31 ae b6 c0 65 a7 38
       0.0003973527 -2.0894696e-07 -5.1913266e-06 7.982133e-05
0001d0 95 f0 cd 39 71 b8 47 b6 3f e6 99 39 92 d0 a0 39
       0.00039279895 -2.976067e-06 0.0002935398 0.00030672975
0001e0 57 eb 60 3a 23 ce 03 b7 a7 7f 65 3a a5 8e c1 3a
       0.000857999 -7.856203e-06 0.00087546784 0.0014767243
0001f0 05 a5 c5 b6 4a cd 94 39 93 5c 02 3a 32 94 17 25
       -5.8902683e-06 0.00028381712 0.0004972901 1.3147373e-16
000200 3f 5c 95 b8 01 46 2a 3a 04 3d 27 ba 69 af 5e 3a
       -7.122056e-05 0.0006495417 -0.00063796365 0.0008494766
000210 19 d4 89 ba 68 fe 04 ba c8 bb 11 3a 7e 65 08 3b
       -0.001051548 -0.000507331 0.00055592926 0.0020812447
000220 e5 2a c9 3a 32 93 96 b9 31 cd f8 ba 23 21 85 39
       0.0015347867 -0.000287199 -0.001898205 0.00025392426
000230 06 21 0a bb d3 eb 8a 3a 70 0f 88 39 cc 66 ef ba
       -0.0021076812 0.0010598846 0.00025951443 -0.0018264889
000240 a7 91 be ba 59 14 89 ba 6d 57 87 ba 63 2d 14 bb
       -0.0014539257 -0.0010458335 -0.0010325738 -0.002261006
000250 cd 10 e0 b9 8e db 82 ba 0f 45 91 39 a4 ff 96 39
       -0.00042737127 -0.0009983645 0.00027708008 0.00028800697
000260 24 78 45 bb aa 7a 4e bb 0e 06 41 3a e5 4b c8 39
       -0.0030131424 -0.003150622 0.0007363268 0.00038203518
000270 2a 23 45 bb ba 51 d3 b9 f3 78 43 ba 68 e6 73 b8
       -0.0030080774 -0.00040305947 -0.00074566825 -5.8150297e-05
000280 8e 50 46 b9 f4 fe 2f ba c4 39 27 b9 75 43 ff b9
       -0.0001891276 -0.0006713711 -0.0001594788 -0.0004868765
000290 45 ab 66 ba 67 58 21 ba 5c 67 8e ba 12 70 e0 ba
       -0.0008799325 -0.00061548356 -0.0010864544 -0.0017123243
0002a0 c3 3a b8 ba 6e 0a 0f ba 55 b2 d0 38 df 1e de b9
       -0.0014055598 -0.0005456571 9.95143e-05 -0.0004236614
0002b0 93 3b 3c 3a c0 ce ad ba 4c e9 e5 ba df 73 84 b9
       0.0007180508 -0.0013260469 -0.0017540841 -0.00025263333
0002c0 fe b8 2b ba e0 a6 b0 39 06 37 e8 b8 2b a4 6e b9
       -0.00065506983 0.00033693668 -0.00011072871 -0.00022758606
0002d0 56 76 3e ba fa 1b d5 36 b4 f9 97 b9 69 52 9e b9
       -0.0007265558 6.3511516e-06 -0.00028987008 -0.0003019751
0002e0 b0 23 0b ba 4c 0b 5e b9 51 f9 9f ba 04 90 01 bb
       -0.0005307747 -0.00021175778 -0.0012205039 -0.0019769678
0002f0 38 81 8e 38 50 f9 c0 b9 42 a8 83 39 43 9d ff 38
       6.7951565e-05 -0.00036806846 0.0002511163 0.0001218864
000300 88 94 2f b7 62 37 d8 3a 4f 23 25 ba 08 86 a5 39
       -1.04653955e-05 0.0016495998 -0.0006299512 0.00031571114
000310 18 17 eb ba 10 d3 8d 3a 84 e1 4d 3a 7c 7c f2 39
       -0.001793596 0.0010820348 0.0007853734 0.00046250585
000320 4a 6f 10 3b 24 b9 ff 3a 19 88 a5 ba 1a 75 bb 3a
       0.002203899 0.0019510132 -0.0012629061 0.0014301867
000330 fe 50 ab ba 01 e0 f6 39 a1 42 67 ba cf 3d e4 ba
       -0.0013070402 0.00047087672 -0.0008821879 -0.001741344
000340 68 75 b7 ba c1 4e 2b ba a8 ce 67 ba f0 f9 e4 ba
       -0.0013996782 -0.00065348676 -0.0008842745 -0.0017469507
000350 b5 80 42 ba f4 e0 10 3a 0c cc 18 39 56 2c 1f 39
       -0.00074196915 0.00055266847 0.00014571863 0.00015179938
000360 cb f9 1b bb 55 04 23 bb 68 58 47 3a 3c af 88 ba
       -0.0023800011 -0.0024874408 0.0007604421 -0.00104282
000370 72 4f 0b bb 8e db 0a 3b b1 3d 8c b9 d0 78 ca b8
       -0.002125707 0.0021187994 -0.00026748845 -9.654614e-05
000380 00 00 00 00 00 00 00 00 00 00 00 00 00 00 00 00
       0.0 0.0 0.0 0.0
000390 00 00 00 00 00 00 00 00 00 00 00 00 00 00 00 00
       0.0 0.0 0.0 0.0
0003a0 00 00 00 00 00 00 00 00 00 00 00 00 00 00 00 00
       0.0 0.0 0.0 0.0
0003b0 00 00 00 00 00 00 00 00 00 00 00 00 00 00 00 00
       0.0 0.0 0.0 0.0
0003c0 00 00 00 00 00 00 00 00 00 00 00 00 00 00 00 00
       0.0 0.0 0.0 0.0
0003d0 00 00 00 00 00 00 00 00 00 00 00 00 00 00 00 00
       0.0 0.0 0.0 0.0
0003e0 00 00 00 00 00 00 00 00 00 00 00 00 00 00 00 00
       0.0 0.0 0.0 0.0
0003f0 00 00 00 00 00 00 00 00 00 00 00 00 00 00 00 00
       0.0 0.0 0.0 0.0

exp_avg_sq f4 [32, 32]
000000 11 69 62 38 e1 6f 23 38 84 91 51 37 d1 dc 26 38
       5.398045e-05 3.8966424e-05 1.2491251e-05 3.9783135e-05
000010 41 49 16 39 8d d9 18 39 00 4f 2a 39 2d 39 ab 38
       0.00014332404 0.00014576894 0.00016241893 8.164565e-05
000020 92 f1 86 39 fd 1b 84 39 81 6c 30 38 b3 67 6e 38
       0.00025738456 0.00025197855 4.2062722e-05 5.68402e-05
000030 3f 52 52 37 f9 51 0b 37 d4 0c 50 39 7c af d5 38
       1.2536125e-05 8.304131e-06 0.00019841205 0.00010189318
000040 61 a7 6b 39 7c 10 f6 36 24 38 73 38 95 ae 66 39
       0.000224737 7.3332903e-06 5.7988e-05 0.00021999546
000050 d8 a9 c4 38 a3 33 88 38 a2 1a c4 35 98 00 13 35
       9.377644e-05 6.4946034e-05 1.4610889e-06 5.476263e-07
000060 2d 65 6f 39 75 5a 4e 39 65 17 02 39 af 06 af 39
       0.00022830507 0.00019679389 0.00012406481 0.0003338358
000070 bb 76 e6 38 c0 c8 9d 39 0e 42 d0 37 79 c0 3e 37
       0.0001098937 0.00030094944 2.4826291e-05 1.1369696e-05
000080 ea b7 be 38 f3 f4 90 36 b7 f5 59 37 46 e7 3e 38
       9.094163e-05 4.3200503e-06 1.2991418e-05 4.551492e-05
000090 30 c6 30 39 74 69 70 37 f9 ca 86 38 e2 02 c7 38
       0.00016858499 1.43296675e-05 6.4274245e-05 9.4895964e-05
0000a0 f3 db de 37 f0 f0 e8 38 86 1e 8d 38 61 2f 20 35
       2.6566884e-05 0.000111075 6.7290894e-05 5.967359e-07
0000b0 77 96 f7 37 2a 98 9e 36 2f 72 37 39 13 cc 21 39
       2.951476e-05 4.726481e-06 0.00017494777 0.0001543018
0000c0 2d 92 c9 39 b7 76 21 37 ac 7e c6 38 47 7e c5 39
       0.00038446617 9.623988e-06 9.46497e-05 0.00037668852
0000d0 6e d9 1b 39 c4 4b 5e 38 f3 13 8a 32 c0 58 37 34
       0.00014862951 5.2999487e-05 1.6074386e-08 1.707549e-07
0000e0 60 3f b8 39 c6 53 94 39 7a 71 20 37 59 c1 02 3a
       0.00035142433 0.00028291176 9.563164e-06 0.00049879175
0000f0 e4 9d 2c 39 96 e2 cf 38 17 ca 69 37 da 3f 92 33
       0.00016462017 9.912734e-05 1.3934935e-05 6.810269e-08
000100 09 8f b0 38 39 68 1b 38 b4 ea e1 37 ae 34 44 38
       8.418976e-05 3.7051945e-05 2.6931382e-05 4.6779103e-05
000110 e4 0e 7e 39 4a 63 61 38 cd ec 2d 39 4e ef d9 38
       0.00024228875 5.373665e-05 0.00016586781 0.0001039194
000120 53 72 5c 39 1a 67 73 39 10 ec 8d 38 6a 74 4e 37
       0.00021023424 0.00023212694 6.767374e-05 1.2305662e-05
000130 56 93 10 38 3b 6d 26 37 a4 c7 9b 39 2d 2e 30 39
       3.4469493e-05 9.919803e-06 0.00029712648 0.0001680187
000140 78 95 bc 39 56 86 58 37 81 ea ce 38 06 61 bb 39
       0.00035969517 1.2905881e-05 9.866525e-05 0.00035739708
000150 06 4d 15 39 9a 20 b0 38 f4 06 71 35 d0 91 31 35
       0.00014238441 8.3984065e-05 8.9789614e-07 6.6149823e-07
000160 c9 74 ba 39 bc 0d b1 39 51 76 c1 38 11 22 00 3a
       0.00035563696 0.00033770304 9.224995e-05 0.0004887889
000170 92 c2 43 39 e0 78 7e 39 01 2c ce 37 6a 0f 61 37
       0.00018669132 0.00024268357 2.4577605e-05 1.3414634e-05
000180 6d df 8f 37 d2 2d 28 35 5c cd 8a 32 db c3 a0 37
       1.715097e-05 6.2651554e-07 1.6158701e-08 1.9164689e-05
000190 5b 9b 7e 38 6e 8f 2a 38 7a 4b 85 38 34 a0 62 38
       6.0703005e-05 4.0664738e-05 6.355993e-05 5.40318e-05
0001a0 7a d6 9c 37 5d 6a d1 37 94 76 bc 35 49 6b 25 38
       1.8696523e-05 2.496427e-05 1.4041602e-06 3.9438983e-05
0001b0 37 4b c8 35 d7 55 88 37 b4 b9 35 37 c0 dd 3a 37
       1.4923052e-06 1.6252436e-05 1.0831678e-05 1.1138094e-05
0001c0 8d b0 81 38 51 ed a9 33 28 47 37 37 63 19 51 38
       6.1840845e-05 7.9128434e-08 1.0924217e-05 4.9853126e-05
0001d0 45 6e ac 37 7e d3 85 36 87 94 7b 36 4b 64 8d 35
       2.0555346e-05 3.98833e-06 3.748837e-06 1.0534508e-06
0001e0 a2 ca 3f 38 23 0f 69 37 96 c4 27 38 2e 75 fa 38
       4.5726665e-05 1.38914065e-05 3.9998988e-05 0.000119427554
0001f0 b6 84 ed 36 78 f6 35 38 a2 62 56 37 98 c4 01 33
       7.0786e-06 4.3383305e-05 1.2778359e-05 3.0213954e-08
000200 9b f3 19 39 a1 12 a9 37 ea e9 09 38 cd 07 c5 38
       0.00014681967 2.0155045e-05 3.2881195e-05 9.395145e-05
000210 fd a5 ae 39 9d 39 72 38 17 13 41 39 fd d5 39 39
       0.00033311537 5.7750953e-05 0.00018413026 0.00017722692
000220 03 ad ee 38 a7 40 7a 39 a2 0a 02 39 75 4d e3 37
       0.0001138095 0.00023865943 0.00012401727 2.7096577e-05
000230 10 53 66 38 47 64 b3 37 c1 08 c9 39 e0 56 95 39
       5.491363e-05 2.1385158e-05 0.0003834423 0.00028484222
000240 80 1b 29 3a d2 ad a8 37 c5 ab 2a 39 46 45 28 3a
       0.0006450936 2.0108102e-05 0.00016276453 0.0006419014
000250 99 98 88 39 5e 03 da 38 cc 84 5d 36 88 d1 94 35
       0.00026053636 0.00010395677 3.3008864e-06 1.1087841e-06
000260 e1 e1 2d 3a 19 49 0d 3a 2e 32 8d 38 e5 da 6a 3a
       0.0006633085 0.00053896155 6.7327506e-05 0.00089590094
000270 22 54 a5 39 5f b9 6d 39 52 eb 1d 38 56 8d 89 36
       0.00031533936 0.00022671137 3.7650876e-05 4.099372e-06
000280 17 8f 82 36 6b 71 fd 37 6f f9 98 37 41 5b 85 37
       3.8909598e-06 3.0212765e-05 1.8235964e-05 1.5897329e-05
000290 2a 47 98 38 75 59 f8 38 0d ff b6 38 42 21 04 38
       7.26118e-05 0.00011842224 8.725943e-05 3.1502226e-05
0002a0 86 63 83 39 e6 88 15 39 36 47 28 38 44 f0 22 38
       0.00025060418 0.00014260746 4.012064e-05 3.8847575e-05
0002b0 9a 8d 9e 36 79 9b 9d 37 3d a9 8a 39 cc 0b 8a 38
       4.7252515e-06 1.8788256e-05 0.00026447503 6.58255e-05
0002c0 9a a6 04 38 a1 ea 59 37 52 d5 5f 37 90 f6 44 38
       3.1626412e-05 1.2988837e-05 1.3341503e-05 4.695967e-05
0002d0 f6 91 e1 37 9a 56 1d 38 0f 2c 14 36 2a ff 0e 36
       2.6890059e-05 3.751237e-05 2.2079364e-06 2.1308174e-06
0002e0 32 7b 35 39 fb 73 31 39 f9 a4 ed 38 35 84 c9 38
       0.00017307399 0.00016923241 0.00011331769 9.609052e-05
0002f0 1a 44 ec 38 38 51 26 39 c4 5b a2 37 67 24 d5 37
       0.00011266042 0.0001586125 1.9354637e-05 2.540853e-05
000300 3b 6d 84 38 d1 b1 ad 38 a1 d4 ab 37 fb e2 29 38
       6.314596e-05 8.282404e-05 2.0483802e-05 4.0504132e-05
000310 34 c7 4c 39 5a 49 85 39 85 2c 67 39 15 57 b1 38
       0.00019529165 0.00025422388 0.00022046462 8.456238e-05
000320 b7 86 e7 39 89 8d ec 39 e3 f8 71 38 29 2c ab 38
       0.00044160124 0.0004511888 5.769067e-05 8.162141e-05
000330 1d ae bd 37 79 5e 06 37 11 26 87 39 8b 68 10 39
       2.2611634e-05 8.0090185e-06 0.00025777568 0.00013771855
000340 a0 1c 94 39 e4 1a 1e 37 8f 36 9e 38 19 9e 94 39
       0.00028250087 9.423795e-06 7.5441894e-05 0.00028346552
000350 9c 79 ee 38 cb 94 eb 38 cf 13 ad 35 7d 53 1d 35
       0.00011371376 0.00011233388 1.289527e-06 5.860855e-07
000360 85 51 9e 39 3d 76 92 39 68 8a 42 39 ca 99 cf 39
       0.00030196845 0.00027935384 0.00018552842 0.00039596698
000370 38 1e 26 39 a7 c0 0a 3a c2 b1 cf 37 33 e0 92 37
       0.00015842251 0.00052929897 2.4759098e-05 1.7508957e-05
000380 00 00 00 00 00 00 00 00 00 00 00 00 00 00 00 00
       0.0 0.0 0.0 0.0
000390 00 00 00 00 00 00 00 00 00 00 00 00 00 00 00 00
       0.0 0.0 0.0 0.0
0003a0 00 00 00 00 00 00 00 00 00 00 00 00 00 00 00 00
       0.0 0.0 0.0 0.0
0003b0 00 00 00 00 00 00 00 00 00 00 00 00 00 00 00 00
       0.0 0.0 0.0 0.0
0003c0 00 00 00 00 00 00 00 00 00 00 00 00 00 00 00 00
       0.0 0.0 0.0 0.0
0003d0 00 00 00 00 00 00 00 00 00 00 00 00 00 00 00 00
       0.0 0.0 0.0 0.0
0003e0 00 00 00 00 00 00 00 00 00 00 00 00 00 00 00 00
       0.0 0.0 0.0 0.0
0003f0 00 00 00 00 00 00 00 00 00 00 00 00 00 00 00 00
       0.0 0.0 0.0 0.0
