lab2/problem1/neural-network-1.pth (torch, 68743 bytes, 18 tensors)

weight f4 [64, 8]
000000 ea 0d ac 3d b2 7c e5 3d 6a e6 0b be d4 a6 14 bf
       0.084010914 0.11205424 -0.13662115 -0.5806706
000010 e7 b7 9a 3f a8 a9 37 bf f2 df 0e c0 da 91 08 3f
       1.2087373 -0.7174325 -2.2324185 0.5334755
000020 96 41 32 be ee 9c 98 3e 35 eb 00 3e 25 ac f6 bf
       -0.17407832 0.29807228 0.12589724 -1.9271284
000030 4f 27 5a 3f 26 7b 6d 3d fe af ba be d2 a1 c0 be
       0.8521623 0.05797877 -0.36462396 -0.3762346
000040 27 c3 10 3d a6 0f 14 be 54 20 99 bd 5b 31 ec bf
       0.03534236 -0.14459094 -0.07476869 -1.8452562
000050 24 22 14 be a0 12 8f 3f 72 de dc 3e d2 58 19 bf
       -0.14466149 1.1177559 0.43138462 -0.59901154
000060 8a 8d 0f 3f 64 25 22 3f 04 57 08 3f 89 09 ff bf
       0.56075346 0.63338304 0.53257775 -1.9924785
000070 bd b5 00 3f df 76 ff 3e 83 1d 33 be 8a db 7d 3a
       0.5027731 0.4989538 -0.17491727 0.0009683898
000080 4a 8c 82 be 98 5d eb 3e 39 ac f4 3f 3b 07 d1 3e
       -0.25497657 0.45969844 1.9115058 0.4082583
000090 a0 80 83 3f 0f 05 94 3f 33 93 12 c0 5c 92 0e bf
       1.0273628 1.1564044 -2.2902343 -0.55692077
0000a0 f5 f1 19 3f 16 54 3d 3e a3 af e8 bd 47 74 2f bf
       0.6013482 0.18489107 -0.11361625 -0.685368
0000b0 83 80 35 bf f0 72 8a bf b2 79 48 3f 99 68 88 3f
       -0.7089922 -1.0816326 0.7831069 1.0656921
0000c0 6f 81 0a 3d 5e 7d 06 3f 08 25 02 3f 13 1d 3e 3f
       0.033814844 0.52535045 0.50837755 0.74263114
0000d0 68 68 ac bf b0 97 9a bf 6a 42 03 c0 b2 8c 32 bf
       -1.3469362 -1.2077541 -2.0509286 -0.69745934
0000e0 aa 87 01 bf cc 66 fc 3d 63 70 c2 bf 55 a2 a2 3e
       -0.5059763 0.123242944 -1.5190548 0.31764475
0000f0 ec dd 9d bf aa 76 c0 bf df 3c 45 bf 3c b8 2a bf
       -1.233335 -1.5036213 -0.77046007 -0.6668737
000100 74 83 41 3f 2f ac ab 3d 28 55 ac 3d e6 c2 9b bf
       0.75591207 0.08382451 0.0841468 -1.2168853
000110 6f dc 9c 3f b4 6b 41 bf 25 5a e7 bf cc 87 87 3e
       1.2254771 -0.75554967 -1.8074385 0.26470792
000120 e0 9b 7a 3e 6a be 15 3f a9 de 30 3f 5a 75 50 bf
       0.24473524 0.58493674 0.6908975 -0.81429064
000130 d7 90 d1 3f 27 09 f7 3e 85 ca a6 bf 02 fa 5e 3e
       1.6372327 0.4824917 -1.3030554 0.21775058
000140 7f 81 90 bf 82 05 55 3e e3 b9 16 c0 e7 44 77 bf
       -1.1289519 0.20802882 -2.3550956 -0.9658951
000150 0b 62 8c 3c e7 fc ec 3e f2 91 ac 3e 0f 5c a4 be
       0.017136594 0.462867 0.33705097 -0.32101485
000160 38 a6 47 bf 51 83 fb bd f2 df 9d bd f3 c5 ed be
       -0.77988005 -0.12280906 -0.0770873 -0.46440086
000170 21 44 be bf b5 42 76 3e 9f d5 3c 3e 24 52 51 bf
       -1.4864541 0.24048884 0.18440865 -0.8176596
000180 0d 23 42 bf ce 10 3c bf 55 7a 06 bf 78 a5 0c be
       -0.75834733 -0.7346314 -0.52530414 -0.13734996
000190 88 70 ac 3f 41 32 0f 3f e1 7a 79 3f a3 0b 48 bf
       1.3471842 0.55936056 0.97453123 -0.78142756
0001a0 f7 0f c6 3e 8d 22 b3 3f 08 6b de be c0 85 79 bf
       0.38684055 1.3994919 -0.43441033 -0.9746971
0001b0 b4 bd 2a 3e 19 e6 22 3f 2b 2e 22 bd 2f 71 fe be
       0.16673928 0.6363235 -0.03959481 -0.49695727
0001c0 b7 60 4b 3f 0a 93 3e 3e f0 c9 06 3f 6c 39 13 be
       0.7944445 0.18610778 0.5265188 -0.14377373
0001d0 98 b1 ea bc 56 b1 af 3f 4e a1 77 3f 77 45 14 bf
       -0.028649136 1.3725994 0.96730506 -0.57918495
0001e0 95 a3 5a 3e 6f d1 96 be 12 8b ba be 4e 71 78 3f
       0.21351464 -0.2945666 -0.36434227 0.9704789
0001f0 2d fc ae bd 99 5b ca bf 44 68 15 3e a5 ad 3c 3f
       -0.085441925 -1.5809203 0.14590555 0.7370246
000200 d2 2f 05 3f 4f 76 aa be ab 0c b4 bf a2 90 34 bf
       0.52026093 -0.33293387 -1.4066366 -0.7053319
000210 e7 ce 06 3f 7c ff f4 3e 35 27 06 3e 09 9d 98 3f
       0.5265946 0.4785117 0.13100894 1.1922923
000220 82 40 20 3f 5c 28 69 3f ab 3d 0a be 47 99 88 3f
       0.6259843 0.9107721 -0.13500087 1.0671777
000230 f7 4c 8a 3e 62 f4 ed 3e cc b1 fe be 81 2f 93 3c
       0.27011845 0.46475512 -0.49745023 0.017966988
000240 6e cd 1a 40 b9 d9 1a be c4 c5 e1 3e ad 48 fe bd
       2.4187884 -0.15122117 0.44096196 -0.124162056
000250 ea 5f 3a bf 39 5d a6 be 40 2e 03 3c 3c b4 0b bd
       -0.72802603 -0.32492998 0.008006632 -0.03410743
000260 10 69 2b bf 71 88 94 3f a3 8c dc be 61 1d 4c be
       -0.6695719 1.1604139 -0.43076047 -0.19933082
000270 8a a6 d3 3e be a7 9c be 8e 27 1e bf a4 fe 95 bf
       0.41337997 -0.30596727 -0.61779106 -1.1718335
000280 ee c1 90 3f 87 aa ce 3e e2 e0 56 bf 8d 2e 1e bf
       1.1309183 0.40364477 -0.83936894 -0.6178978
000290 ae a8 e1 3f 2b 9a 85 3e 96 2e 06 c0 31 76 5d bd
       1.7629602 0.26094183 -2.0965934 -0.054067794
0002a0 e1 3f 55 be ca c7 02 3e 6a 10 a1 be 72 b2 6f bf
       -0.20825149 0.12771526 -0.31457835 -0.9363166
0002b0 69 75 76 40 80 60 4c bf 0c 6d 89 bf f0 77 f8 3e
       3.8509161 -0.7983475 -1.0736403 0.48529005
0002c0 0e 63 ef be 53 67 9f be ee 24 e6 bd e8 88 99 be
       -0.4675526 -0.31133518 -0.112375125 -0.29987264
0002d0 14 c5 dd be b0 c8 90 3f 93 d3 49 3f 75 89 c5 be
       -0.4331442 1.1311245 0.7883846 -0.38581434
0002e0 08 42 f2 bd 97 b9 50 3f b8 75 bd 3f b7 4f 1a be
       -0.11829001 0.8153319 1.480155 -0.15069471
0002f0 67 cb d7 be 02 e7 15 be 15 53 89 be 4d 5b 5b 3f
       -0.4214737 -0.14638904 -0.268212 0.8568619
000300 71 cb a1 bd 43 61 3a 3e 75 4f cc 3f 03 41 c8 3f
       -0.079001315 0.18201165 1.5961748 1.564484
000310 dc 14 05 c0 e1 09 42 be c0 c7 e3 be 67 e2 ff bd
       -2.0793982 -0.18949081 -0.44488335 -0.12494355
000320 a0 f2 59 3c 88 58 23 bd da f0 6f 3e 4e 5a 23 3e
       0.013302475 -0.03987935 0.23431721 0.15952417
000330 a0 50 a0 3d 50 05 a1 3d 80 3d 83 3c 17 bc 70 be
       0.07827878 0.078623414 0.016020536 -0.2350925
000340 7b 91 b4 3d fb 3e f9 3e f8 44 01 3f 16 ae 20 bf
       0.08816811 0.48680863 0.5049586 -0.62765634
000350 4c 7d c8 bf b2 02 7f bd 4b d7 32 3f ed 5d 0d bf
       -1.5663238 -0.06225843 0.6985976 -0.55221444
000360 d3 c4 17 bf 6d 60 18 3f d8 9a 88 bf bc d2 c5 bd
       -0.59284705 0.59522134 -1.0672255 -0.09659335
000370 83 0d 6e 3f 5f a6 8b 3f ac b3 91 bd 5b a8 0e 3f
       0.9298937 1.0910147 -0.07114348 0.5572564
000380 62 46 d9 bd 52 3c 7b bf 7a bc 3e bf 5d 7a cf 3e
       -0.106091276 -0.98138916 -0.7450634 0.40523043
000390 09 b1 91 3f 18 52 b2 3d 75 86 dc 3e dd 91 bc 3f
       1.1382152 0.087070644 0.43071333 1.4732014
0003a0 ac bd 26 bf d9 06 b7 bd 5e 3a 1e 3f 9a af d5 bf
       -0.65133166 -0.08936853 0.6180781 -1.6694214
0003b0 59 1f 47 3e 85 4d 2f bf 04 da 90 bf ef e7 6f bf
       0.19445552 -0.6847766 -1.1316533 -0.9371328
0003c0 72 30 6c bf 5c c2 97 3e fd bf 3d bf 9a e0 09 3f
       -0.9226142 0.29640472 -0.74121076 0.5385834
0003d0 df d5 5a bf 5d 23 e8 3e f2 5f 30 be 2e 62 e3 bf
       -0.8548259 0.4533948 -0.172241 -1.7764337
0003e0 99 fb 3b bf f2 eb 94 bf fe 05 66 3f 39 06 fb 3e
       -0.7343078 -1.1634505 0.89852893 0.49028185
0003f0 c2 6a eb bf 9e 5a 41 3e 79 c4 d0 3e b7 ca 80 3f
       -1.8391955 0.18882224 0.40774897 1.0061864

bias f4 [64]
000000 3a e1 2e bf 36 ef 11 3f 5f d9 7f 3e 57 f0 9c 3e
       -0.6831242 0.5700563 0.24985264 0.30652115
000010 89 f4 4e be 13 3f 76 3d 38 ec bd 3e 67 2e f1 bd
       -0.2021047 0.060118746 0.37094283 -0.11776429
000020 46 e9 a7 bd 7b fa 8b be 42 ea f4 be 65 9c 78 3f
       -0.0819879 -0.2733954 -0.47834975 0.9711364
000030 3b a2 d8 be 86 e5 b5 be cc 99 a9 bd 11 51 b7 be
       -0.42311272 -0.35526675 -0.082812876 -0.35804036
000040 70 fe db be 07 e6 ca 3e bd e7 96 3d eb a5 a0 bd
       -0.42967558 0.39628622 0.07368419 -0.07844146
000050 35 38 1c bf c8 f5 cc 3e 68 34 18 3f b7 a4 1b bf
       -0.61023265 0.40031266 0.59454966 -0.6079821
000060 7d 6f 5c 3e 36 68 a9 be ba ca 02 bf 42 9b fd 3d
       0.21526904 -0.3308732 -0.51090586 0.12383129
000070 ac f1 9b 3f 90 c3 ed 3c 14 92 27 bf 27 35 a1 3f
       1.2183127 0.029023916 -0.6545727 1.2594346
000080 ce 3c f4 be ed 11 bc be 50 9b 53 3e c8 8d 36 3f
       -0.4770264 -0.36732426 0.20664716 0.7131009
000090 f3 2d 1b 3e 96 ab 8e 3e 00 6b 79 3f 15 f8 2c 3e
       0.15154247 0.27865285 0.97428894 0.16891511
0000a0 ec 53 e5 3d 13 45 a1 3d dd 24 5e 3d 87 71 9e 3f
       0.111976475 0.07874503 0.054234374 1.2378396
0000b0 9a a8 1d 3f 21 8d 4b 3f 96 f8 91 be 88 8b 49 3f
       0.6158539 0.7951222 -0.2850997 0.7872853
0000c0 71 ef ac 3b e6 f6 2d 3e 7b eb 84 3f 32 5a 98 3e
       0.005277567 0.16988716 1.0384363 0.29756314
0000d0 fb fe 94 3d d9 cb ae be e2 4f 76 3f d7 45 64 3e
       0.07275196 -0.34139898 0.9621564 0.22292267
0000e0 72 62 4f be c3 11 b2 3f ee 0e ee 3b 23 a6 e1 3e
       -0.20252398 1.391167 0.0072649634 0.44072065
0000f0 77 87 dd 3d 61 6c 32 3e 83 d1 74 bf 5e ab 68 3f
       0.108168535 0.17424156 -0.9563219 0.90886486

weight f4 [64, 64]
000000 71 20 29 c0 b9 98 4e c0 52 a0 86 bf 0b 20 7e bf
       -2.642605 -3.2280715 -1.0517676 -0.99267644
000010 0f b7 95 3e 3b 8c da bf be f2 47 3e 40 a1 a8 3d
       0.29241225 -1.7074045 0.19526193 0.08233881
000020 84 5c df bf 2e 30 f5 bd dd cf 70 bf ef e7 da be
       -1.7450109 -0.1197208 -0.94067174 -0.42755076
000030 44 90 09 bf 07 78 f5 bd 78 b8 1b c0 e2 75 80 3e
       -0.53735757 -0.11985784 -2.433134 0.25089937
000040 68 11 8a bf 08 8e 99 3e 0d 16 d2 bf 48 b8 d4 3d
       -1.0786562 0.29991174 -1.6412979 0.10386711
000050 24 fe d9 bf ad 23 e7 bf 60 3b cb bf 96 cd 36 bf
       -1.7030683 -1.8057762 -1.5877495 -0.7140745
000060 eb 0d a1 3e a0 ab 2f bc 4f 7e 5c bf 37 1e 2f c0
       0.3145593 -0.010722071 -0.8613023 -2.7362192
000070 d1 0c 95 be 84 ff 34 bf dc b4 ef be c1 b3 22 3f
       -0.2911134 -0.70702386 -0.46817672 0.6355553
000080 c9 2f c6 bf cf cc a5 bc 19 89 d3 bf e0 dc 81 3e
       -1.5483333 -0.020239262 -1.6526214 0.25363827
000090 3c 7e 0c bf bd 96 4b bf c6 b3 da 3d b0 ed e0 3f
       -0.5488012 -0.79526883 0.1067882 1.7572536
0000a0 c3 7c ac 3f 24 11 95 bf a2 0c 42 3e 97 62 86 bf
       1.3475574 -1.1645856 0.18950132 -1.0498837
0000b0 7d 3d ba be bb 38 59 c0 0b 4d e7 bf 70 51 ca 3e
       -0.36375037 -3.3940876 -1.8070387 0.39515257
0000c0 a9 35 2b 3e 14 18 31 bf 6c a4 ca 3e 5f 66 ab bf
       0.16719688 -0.69177365 0.3957857 -1.3390616
0000d0 30 e5 da 3e 97 07 ac bf 4e 7e 0e c0 e5 91 ac bf
       0.4275298 -1.3439816 -2.226459 -1.3482023
0000e0 7b c6 00 bf 9a 25 64 3f 35 99 47 bf 73 d6 81 bf
       -0.5030286 0.89119875 -0.7796815 -1.014357
0000f0 3c 84 fe be 5c 40 cd bf fa 3c 58 bf 55 39 ab 3e
       -0.49710262 -1.6035266 -0.8446804 0.33442178
000100 25 d3 8f 3b 6b f4 61 bd a4 72 92 ba dd d0 80 3d
       0.004389184 -0.055164736 -0.0011173082 0.062898375
000110 12 28 66 bd 1a b3 97 bd bc 03 ad 3d 32 f9 57 3d
       -0.056190558 -0.07407208 0.08447978 0.052727886
000120 20 bc cc bb cd 57 a8 bd ef f4 e6 bd 52 e2 32 3d
       -0.006248012 -0.08219872 -0.11277186 0.043672867
000130 b4 99 fb bd 34 65 6c 3d 73 aa 15 bd 44 96 d1 3d
       -0.12285176 0.057713702 -0.036539506 0.10233739
000140 1a bc 8a bd ed 5c ed bc 68 f4 9c bd 39 1e bd 3c
       -0.06774159 -0.028974975 -0.07663804 0.0230857
000150 68 bd e8 bd 00 e5 06 3a 30 19 f7 bc 04 67 7b bd
       -0.113642514 0.0005145818 -0.030163378 -0.06137754
000160 f4 0b 93 bd 78 8a 52 bd 68 5b d6 bb f8 32 6e bd
       -0.07180014 -0.051401585 -0.006541658 -0.058154076
000170 e3 01 bf 3c 8f a2 b6 bc 02 09 a9 3c 00 63 96 bd
       0.02331633 -0.02229431 0.020634178 -0.073431015
000180 65 29 d0 bd a0 2d 34 bd c9 0e cf bc 2b 47 18 b9
       -0.101641454 -0.043988824 -0.025275605 -0.00014522362
000190 24 95 aa bd b1 6d 14 bd 6c 47 a7 bd 00 66 15 ba
       -0.083292276 -0.036237422 -0.081679195 -0.0005699098
0001a0 87 53 b0 3d f4 ce 4f bd 98 24 37 bd 60 6d 08 3d
       0.086096816 -0.050734475 -0.044712633 0.033307433
0001b0 48 c6 e6 bc 62 ad 09 3d 92 45 93 3d 74 f7 e3 bd
       -0.02817072 0.033612616 0.07191004 -0.11131182
0001c0 e8 73 b3 bd b5 07 f8 3c 4b 14 ba bc db 10 ec bb
       -0.08762342 0.030277112 -0.022714755 -0.0072041578
0001d0 c0 99 7b 3d e8 db 6d bd 97 b8 00 bd 71 32 a5 bd
       0.061425924 -0.058071047 -0.03142604 -0.080662616
0001e0 4e b6 83 bd 6d ee db bd 1c 1c b4 3c 90 aa ec ba
       -0.06431256 -0.107388355 0.02198606 -0.0018056203
0001f0 52 0b e5 3d 39 95 d2 bd a8 c9 5e bd 2b 12 d7 bd
       0.111838 -0.10282368 -0.054391533 -0.10501512
000200 36 0b 84 3f 77 be 20 3f 0c 2c 9b be 0a 0f f8 3e
       1.0315921 0.62790626 -0.30307043 0.48448974
000210 d9 9e cb bd 16 fe 0b bf 52 13 1d 3f d3 1b a9 be
       -0.09942407 -0.5468458 0.61357605 -0.3302904
000220 e5 44 47 3e d0 02 2e be 46 6e 16 3f 7d 58 12 bf
       0.19459875 -0.1699326 0.58762014 -0.5716627
000230 0d 15 52 3f 54 cf b6 bf a6 14 0b 3f 4e f8 d5 be
       0.8206337 -1.4282022 0.5432838 -0.41791004
000240 3c 5f d2 3e ed 7f cc 3c fa 87 43 3f 41 e8 67 bf
       0.41088283 0.024963344 0.7637936 -0.90588766
000250 ea 46 9e 3f 57 17 1b 3e 8e 87 8e 3e 79 d9 4f 3f
       1.2365391 0.15145622 0.27837795 0.8119121
000260 f4 81 57 be ae 1d c2 bd df 22 41 bd 5a 66 c1 3e
       -0.21045667 -0.09478317 -0.047152396 0.377734
000270 94 35 87 bf d8 f4 54 bf 21 e3 85 3f 0c 37 74 bf
       -1.0563226 -0.831861 1.0459939 -0.95396495
000280 39 df 2a 3f 99 91 43 bf 65 f8 84 3f e5 37 8b bf
       0.6674686 -0.7639404 1.0388304 -1.0876433
000290 86 bf 2c 3e 88 34 4b 3f e5 21 92 bf 26 35 49 bf
       0.16869935 0.7937703 -1.1416594 -0.78596723
0002a0 18 0e 36 3e c1 d7 db 3f 6c d2 8c 3e e5 75 02 bf
       0.17778814 1.7175218 0.2750429 -0.5096114
0002b0 93 e1 c2 bc 1f 1c 1c 3f c8 81 0c 40 40 8c dc bf
       -0.023789203 0.6098041 2.1954212 -1.7230301
0002c0 46 71 a4 3e a2 63 40 3f 3e 3a 63 bf b4 92 be 3d
       0.3211767 0.7515203 -0.88760746 0.09305325
0002d0 b5 77 00 3f ce fd c3 3f bb 07 70 3e a0 e3 f7 3c
       0.5018266 1.531183 0.23440449 0.030259907
0002e0 aa d2 d0 be 01 ac b7 bf a5 00 1d c0 fd 97 86 bf
       -0.40785724 -1.4349366 -2.4531643 -1.0515133
0002f0 43 df 15 40 8f cb 17 3f a6 f5 89 3f 04 84 8b bf
       2.3417518 0.5929498 1.0778091 -1.0899663
000300 26 ec 7e 3e 2d e4 69 bf df 68 88 3e a8 3c 9a 3e
       0.24894771 -0.91363794 0.2664251 0.30124402
000310 b0 57 9b 3f 82 f7 17 c0 3a 10 c2 bf 31 7a 81 3f
       1.2136135 -2.3744817 -1.5161202 1.0115415
000320 63 16 8f 3e 96 96 53 3f 7f bf dd 3e eb 06 02 bf
       0.27946767 0.8265165 0.43310162 -0.50791806
000330 1a 33 de bf 9a 8c 4c 3f 66 15 0f bf 1b 39 5f 3e
       -1.7359345 0.7990204 -0.55892026 0.21799128
000340 55 a3 28 be b0 6f f2 bf b6 98 13 bf 47 95 30 3f
       -0.16468556 -1.8940334 -0.57654893 0.6897778
000350 9d be a7 3f e4 8e 58 bf 18 26 07 c0 15 45 08 3f
       1.3105046 -0.84593034 -2.1117 0.5323041
000360 68 cb 7d 3f fa e4 c5 3d 81 6d 20 bf e0 ef 26 be
       0.991385 0.096628144 -0.6266709 -0.16302443
000370 b5 af 2b c0 ee 5e 5f 3f d5 9e 9c bf 38 e2 06 c0
       -2.6825993 0.87254226 -1.2235972 -2.1075573
000380 7d f0 df bf aa d6 36 3f 22 07 57 bf 48 56 f7 3e
       -1.7495266 0.714213 -0.8399526 0.48308015
000390 ad 49 1f c0 de 44 7b 3e dd 2d b7 3e 8c de 98 3f
       -2.4888718 0.2453799 0.35777178 1.1942916
0003a0 0f db d4 3e 36 7c 12 c0 1a 46 0c bd 64 a1 8d bf
       0.41573378 -2.2888312 -0.03424654 -1.1064878
0003b0 65 9f dd bf 9f a5 96 bf 0a 01 86 bf fc 69 0e 3f
       -1.7314268 -1.1769294 -1.0469067 0.5563047
0003c0 4a 6d 88 3e 64 aa 56 3f 48 bb 04 3f e8 02 19 3f
       0.2664588 0.83853745 0.5184827 0.5977006
0003d0 35 98 82 bf 17 e6 e8 bf 4f 79 9d bf 39 6c 55 be
       -1.02027 -1.8195218 -1.2302645 -0.20842065
0003e0 ce c7 11 c0 cc d0 d2 bf 63 f9 48 3f 15 d4 0e 3d
       -2.27782 -1.646997 0.78505534 0.034870226
0003f0 9c 90 3f c0 da 77 49 3f c8 fa 61 bf 15 e1 e2 3e
       -2.9932013 0.78698504 -0.88273287 0.4431235

bias f4 [64]
000000 b5 85 1f 3e 17 6f 74 3d 17 65 82 bf 5c e9 37 bd
       0.15578349 0.059676256 -1.01871 -0.044900283
000010 e1 4e cf be 1f 01 95 bf fa ac 94 bf 59 b7 77 3f
       -0.40489867 -1.1640967 -1.1615288 0.9676414
000020 5d 9d b8 3e 04 6a 85 bc 34 25 4e bf 31 fe 51 be
       0.3605756 -0.016285904 -0.8052552 -0.20507123
000030 73 b2 1a bd 1f 13 a6 bf a0 53 dd 3e dd e6 3c be
       -0.03776784 -1.2974585 0.43227863 -0.18447442
000040 72 e5 75 bd 98 03 b5 bf 49 20 c6 3e 19 20 85 bf
       -0.06003327 -1.4141722 0.38696507 -1.040042
000050 72 f4 90 bf 59 6c 08 3f bc 26 00 3f 0f 8e 86 bf
       -1.1324599 0.53290325 0.50059104 -1.0512103
000060 c2 08 14 bf 58 5e 0a be 0c 5e 9e bf 14 84 7f bc
       -0.57825863 -0.13512552 -1.2372451 -0.015595455
000070 be a8 50 bd a1 dd 6e bf 8e 3a a6 be 68 bc f8 3e
       -0.050942175 -0.9330693 -0.3246655 0.48581243
000080 43 0f fe 3e 29 96 a8 bf e4 6f de be 3a 7b 03 3f
       0.4962102 -1.3170825 -0.4344474 0.51359904
000090 44 95 98 bf a4 16 2c bd 99 13 a0 bf 96 61 ac bf
       -1.1920552 -0.04201378 -1.2505981 -1.3467281
0000a0 be ad 52 3e dd 19 b5 bf 78 41 f9 bd 80 dd 98 be
       0.2057409 -1.4148518 -0.1217069 -0.2985649
0000b0 f5 ad 3c 3e 9b 0d a8 3e 58 4f 8d bf 24 b0 b4 bf
       0.18425734 0.3282288 -1.1039839 -1.4116254
0000c0 f3 bc 9c be 4c 4f fd bd d3 ac 23 bf cb b1 33 bf
       -0.30612907 -0.1236864 -0.63935584 -0.70193166
0000d0 74 d5 da 3c eb fa fd 3d b3 68 ac 3f 91 77 f2 3e
       0.02671311 0.124013744 1.3469452 0.47356847
0000e0 3a 76 50 bf 91 d1 16 bf 2f 48 87 3c 28 5e 4c 3f
       -0.814304 -0.5891352 0.016513912 0.7983117
0000f0 37 2a 68 3f b2 7b 94 3c 07 09 6c bf 98 b9 b2 bf
       0.90689415 0.018125389 -0.92201275 -1.3962889

weight f4 [4, 64]
000000 e8 a5 ce 3f cf c1 1c bc e8 2d cd bf 64 a7 02 40
       1.614438 -0.009567692 -1.6029634 2.0414667
000010 59 95 2a bf f8 42 db bf fa 4f 10 c0 da 58 97 3f
       -0.66634136 -1.7129812 -2.2548814 1.182399
000020 9b 5e 10 40 f2 2f cb 3d 0b bf e7 bf 81 e8 9d 3f
       2.2557743 0.09921254 -1.8105177 1.233658
000030 50 45 81 bd c8 b4 e9 bf e6 4c 02 40 d2 23 a5 3f
       -0.063120484 -1.8258295 2.0359435 1.2901556
000040 3d 85 74 bc 09 2f 1d c0 1a ba bb 3f e4 4c f5 bf
       -0.014924345 -2.4559958 1.4666169 -1.916409
000050 c8 49 ea bf cc e1 56 3f 18 eb 09 40 3a f0 ee bf
       -1.8303766 0.8393829 2.154974 -1.8667061
000060 b8 69 e2 bf 21 f0 aa 3f 59 da e3 bf 01 bf 9c 3f
       -1.7688513 1.3354532 -1.780101 1.224579
000070 30 c5 28 3c 3d 7d d0 bf eb 14 2a bf fb 61 8f 3f
       0.010300919 -1.628822 -0.6643817 1.1201776
000080 26 08 b4 3f 5d 23 0c c0 4d cf 27 bf a6 ce 0e 3e
       1.4064987 -2.1896584 -0.6555069 0.13946018
000090 30 b1 e9 bf 62 13 b2 3d 5c 58 05 c0 8f 11 be bf
       -1.8257198 0.08695103 -2.083518 -1.4849108
0000a0 18 3b db 3f 14 9a 18 c0 0a c4 ea bd 0c e8 88 bf
       1.7127409 -2.3844042 -0.11463173 -1.0695815
0000b0 cc 4b d3 be d6 e5 54 3f af 4b 01 c0 73 6a f9 bf
       -0.41268766 0.831632 -2.0202444 -1.9485611
0000c0 d3 c2 53 bf 4b b8 8f bc 31 05 ca bf 79 81 2c bf
       -0.82719153 -0.017543932 -1.5782834 -0.6738506
0000d0 52 3a 1d bd c5 dd c0 3f 08 32 99 3f e2 23 88 3f
       -0.038385697 1.5067679 1.1968393 1.063595
0000e0 8b 94 8a bf fa 57 58 bf 57 46 bb bd 53 3c 7c 3f
       -1.0826582 -0.8450924 -0.09144276 0.9852955
0000f0 a1 bb 7e 3f 1b 54 88 bf ed 68 05 c0 8f 5e e4 bf
       0.9950505 -1.0650667 -2.0845292 -1.7841357
000100 54 c9 d8 3f 7a ef b7 3c d0 3a 18 c0 91 2b d7 3f
       1.693644 0.022453059 -2.3785896 1.681017
000110 cb 51 4b bf 3b 74 b6 bf db 5d fc bf 64 b7 a8 3f
       -0.7942168 -1.4254221 -1.9716142 1.3180966
000120 c7 92 f9 3f 14 c7 88 3d c8 3a fb bf 8e f7 a1 3f
       1.9497918 0.06678596 -1.9627314 1.2653673
000130 f0 20 bb 3d a7 e3 c6 bf 48 1a f0 3f ac 6e 45 3f
       0.09137142 -1.5538224 1.875802 0.77121997
000140 1f a2 8a 3d 91 b1 06 c0 20 b2 b3 3f 32 c1 27 bf
       0.067692034 -2.1045878 1.4038734 -0.6552917
000150 19 f0 a0 bf 1b e6 10 3f 99 b9 15 40 86 65 d6 bf
       -1.2573272 0.56601113 2.339453 -1.6749732
000160 cf 58 e5 bf ab 91 b2 3f 5c b1 b3 bf 5f a5 a8 3f
       -1.7917727 1.3950704 -1.4038501 1.3175467
000170 20 7e de bd 35 30 f1 bf c5 ac 3b bf 83 76 92 3f
       -0.108639 -1.8842837 -0.733105 1.1442417
000180 33 ec bb 3f 03 2a 0e c0 14 80 6e bf 26 e0 a0 3e
       1.4681457 -2.2213142 -0.9316418 0.31421012
000190 da 49 22 c0 2e c7 86 3d f3 b9 f0 bf 07 6b a2 bf
       -2.5357575 0.06580959 -1.8806747 -1.2688912
0001a0 5d 31 12 40 fd dc e5 bf 5e af c7 bc fd 8b 56 bf
       2.284263 -1.7958065 -0.024375614 -0.83807355
0001b0 cd a8 38 3f f0 95 5a 3f c6 e4 38 c0 41 06 0f c0
       0.7213257 0.85385036 -2.8889632 -2.2347567
0001c0 a6 00 9a bf f2 1c dc bd 25 63 94 bf 78 a4 66 bf
       -1.2031448 -0.107477084 -1.1592757 -0.9009471
0001d0 af b8 e1 3c fe a2 df 3f 99 d3 93 3f 97 d9 95 3f
       0.027553884 1.7471616 1.154895 1.1707028
0001e0 3f 2b 99 bf 45 f1 4d bf f6 cd 81 3d e8 43 6c 3f
       -1.1966323 -0.80446273 0.06338112 0.92291117
0001f0 57 59 70 3f 4e c6 a0 bf 60 a1 29 c0 4c c3 dd bf
       0.9388632 -1.2560518 -2.6504745 -1.7325225
000200 1b d1 ec 3f c3 79 bd bd 98 e0 1c c0 6d c3 09 40
       1.8501314 -0.0925174 -2.451208 2.1525528
000210 fa ad 3d bf 3d 1a c3 bf d7 d7 27 c0 88 aa 29 3f
       -0.7409359 -1.5242382 -2.6225488 0.66275835
000220 4e 8d 1a 40 72 c6 db bc 24 41 13 bf ac 00 a6 3f
       2.4148746 -0.026828025 -0.5752127 1.2968955
000230 bd fd 92 3d c1 97 9b be eb d7 1c 40 5e 57 f9 3f
       0.07177303 -0.30389217 2.4506786 1.9479787
000240 8a b2 2a 3c 14 50 d7 bf c6 4e bf 3f 78 44 03 c0
       0.010418544 -1.6821313 1.4945915 -2.051054
000250 0f 05 07 c0 e8 09 a8 3f b5 e5 b5 3f 83 ad e0 bf
       -2.1096838 1.3128023 1.4210726 -1.7552952
000260 94 62 c4 bf 5b cd b8 3f 91 af 2a c0 c8 08 b7 3f
       -1.5342584 1.443767 -2.6669657 1.4299555
000270 c0 ea 82 3d 9b fc c7 bf ec 70 d5 bf 74 dd 3e 3f
       0.06392431 -1.5623964 -1.6675086 0.7455666
000280 af 3a a8 3f b0 6d 09 c0 0f 73 87 bf b5 96 a8 3f
       1.3142909 -2.1473198 -1.0581988 1.3170992
000290 da db 87 bf 67 77 fc 3c ba ca 42 c0 5d 0d c3 bf
       -1.0613968 0.030818654 -3.0436234 -1.5238453
0002a0 1a aa ad 3f c3 05 dd bf fe 52 da 3d 07 77 a3 bf
       1.3567536 -1.7267383 0.10660361 -1.2770699
0002b0 c9 9b 9e bf 49 f4 71 3f d6 24 63 bf 69 8c 6b bf
       -1.2391292 0.94513375 -0.8872808 -0.92011124
0002c0 5b 4b 04 bf df 22 74 bd 9a fa 4d bf 63 e5 6b bf
       -0.51677483 -0.05960357 -0.8046051 -0.9214689
0002d0 10 57 61 bb 68 f7 a5 3f dd 09 91 3f f3 dc af 3f
       -0.0034384169 1.2966127 1.1331135 1.3739303
0002e0 e5 c4 ab bf 43 8c 6f bf 9b 28 9e bd 5c d5 a7 3f
       -1.3419462 -0.935734 -0.07722589 1.3111987
0002f0 7b 5d 9c 3f 4a d7 7b be a0 2a dc bf c1 f9 87 bf
       1.2216028 -0.24593845 -1.7200508 -1.0623094
000300 a6 2a c2 3f c6 a7 2d bd 12 3c 07 c0 4c 70 0e 40
       1.5169265 -0.04239633 -2.1130414 2.225604
000310 82 62 83 bf 66 f2 0a c0 5b eb d5 bf d3 72 92 3f
       -1.0264437 -2.1710448 -1.671245 1.1441292
000320 14 a9 0b 40 35 2f f5 bb 23 d4 a0 bf b0 0c 96 3f
       2.1821947 -0.007482434 -1.2564739 1.1722622
000330 5d ee 18 3c 24 07 d1 bf 87 21 01 40 a6 58 e4 3f
       0.009334174 -1.6330304 2.0176713 1.7839553
000340 5c 60 ce 3d d9 ad 30 c0 f4 f8 a9 3f 96 1c f2 bf
       0.10076973 -2.7606108 1.32791 -1.8914974
000350 43 a6 23 c0 fb ec 96 3f 89 58 e6 3f 8a f7 e7 bf
       -2.5570228 1.1791071 1.7995769 -1.8122418
000360 bb 2b e8 bf c9 eb 97 3f c2 3b 03 c0 c6 d0 a1 3f
       -1.8138345 1.1868831 -2.0505223 1.2641838
000370 3d ad 3f 3d df 2f b6 bf f4 41 db be b7 46 85 3f
       0.046796072 -1.4233359 -0.42823756 1.0412205
000380 02 e2 b9 3f 61 bf ee bf 8c 44 0c bf 5e 3a df be
       1.4522097 -1.8652154 -0.54792094 -0.43599218
000390 85 55 e5 bf d0 7b a4 bd 1b 76 1c c0 80 d2 d8 bf
       -1.7916723 -0.08031428 -2.4447086 -1.693924
0003a0 93 3b cf 3f 80 fe 37 c0 ef 7f f2 3c a1 68 99 bf
       1.6190056 -2.8749084 0.02960202 -1.1985055
0003b0 18 1a 9e bf db be 83 3f aa bf 3b bf 52 24 a9 bf
       -1.2351713 1.029262 -0.7333933 -1.3214209
0003c0 32 d2 8f be 0e d4 37 3d 1a 56 e9 bf 83 6f 02 bf
       -0.28090054 0.044879965 -1.8229401 -0.50951403
0003d0 55 f9 89 ba 86 41 c8 3f 35 89 ad 3f 74 6a 6e 3f
       -0.0010526577 1.5644996 1.3557497 0.93131185
0003e0 7b 1d 7c bf ee 8b 90 bf e0 87 30 bc ec 18 40 3f
       -0.98482484 -1.1292703 -0.010774583 0.7503803
0003f0 41 ec af 3f 92 77 9b bf 34 06 fe bf e2 ff 11 c0
       1.3743974 -1.2145865 -1.9845643 -2.2812428

bias f4 [4]
000000 2f 25 71 3f 6b b4 80 3f c2 17 a6 3e 6b c5 fc 3e
       0.9419736 1.0055059 0.3244 0.49369368

exp_avg f4 [64, 8]
000000 01 02 a6 39 d2 58 96 3a d7 3d 87 37 4c 8d b2 ba
       0.0003166348 0.0011470562 1.612205e-05 -0.0013622432
000010 a3 8d 3a b8 db 1b 82 39 04 00 00 00 07 d2 26 39
       -4.4477765e-05 0.00024816286 6e-45 0.00015909235
000020 d0 74 c2 39 b5 5a 5f 3b e8 4e 2c 3b f8 f2 ad 3a
       0.00037089596 0.0034081165 0.002629215 0.0013271263
000030 3f 3f 80 39 c2 08 0c 3a bc 22 ca 39 74 6e be b9
       0.00024461185 0.0005341881 0.00038554322 -0.00036321918
000040 90 8b d0 bb 2c 49 0b 3b ca fa f1 bb c7 05 ca bb
       -0.0063642934 0.002125333 -0.0073846327 -0.0061652395
000050 80 3b 3b bb d3 ac a6 b9 40 d6 dd 3a 9c ba 39 bb
       -0.00285694 -0.0003179075 0.0016924813 -0.0028339988
000060 31 d6 0d bb 21 c6 b5 ba 79 db 30 bb f7 8b 04 bb
       -0.002164256 -0.0013868251 -0.0026986285 -0.0020225027
000070 bf df 66 b9 99 a8 0d 3a 00 b8 2a b9 20 6c fc 39
       -0.00022017861 0.0005403846 -0.00016281009 0.00048145745
000080 a2 f1 6d 39 fe 4a 22 bb 33 6f 03 bb 47 f0 02 3a
       0.00022692097 -0.0024763937 -0.0020055294 0.00049949106
000090 66 e9 80 b9 ad 8e 93 ba 04 00 00 00 07 56 dc 2b
       -0.00024587958 -0.0011257731 6e-45 1.5655818e-12
0000a0 a6 50 e9 38 9c 5b b6 ba 46 51 1c 3c d8 27 62 3b
       0.00011125328 -0.00139128 0.0095408615 0.0034508612
0000b0 e8 2a 81 39 ae 58 a5 3a 36 dd 48 bb 41 cc 73 ba
       0.00024636765 0.001261493 -0.003064943 -0.00093001506
0000c0 88 61 86 b7 64 27 a4 bb 0e aa 43 3c 70 39 ea 3b
       -1.6019461e-05 -0.0050095785 0.0119424 0.0071479604
0000d0 1a 6e d4 b9 c5 85 29 3b 04 00 00 00 02 76 b5 38
       -0.00040517823 0.0025867086 6e-45 8.652733e-05
0000e0 3c 8d c0 3a a6 9f 91 3a 32 7a 98 3a 02 c3 73 3b
       0.0014690529 0.0011110201 0.0011633097 0.003719509
0000f0 8b 87 6f 3a e0 73 e1 39 fa a6 0b 38 24 b2 0b 38
       0.0009137324 0.00043001678 3.329569e-05 3.330609e-05
000100 41 34 53 bb 4c f5 6f 3b 79 e2 03 bb 7e f5 6a bb
       -0.003222719 0.0036614714 -0.0020124002 -0.003585189
000110 e6 2a bf ba f9 6f 70 3a 04 00 00 00 35 6a a1 3b
       -0.0014584928 0.00091719587 6e-45 0.004925991
000120 15 41 e9 bb dc 51 a1 bb b8 9d 42 bc db 99 f3 39
       -0.007118354 -0.0049230885 -0.011878423 0.00046463203
000130 66 1f a4 bb 33 39 95 b9 3a 8e fa 9e b6 13 bb 39
       -0.005008626 -0.0002846211 -2.6528603e-20 0.00035682105
000140 87 ac a3 39 e2 d1 1f ba 40 9f 86 39 c2 43 77 3a
       0.00031218326 -0.00060966436 0.00025677122 0.0009432399
000150 3e 9e 45 38 f8 6b 18 ba ce 3b 7e bb f2 3d 84 ba
       4.7115835e-05 -0.00058144284 -0.003879297 -0.0010089262
000160 01 9f ca 3a fb f4 22 3c 27 ec 2d 3b 4d 42 99 39
       0.0015458764 0.009946103 0.0026538463 0.00029231832
000170 97 c5 c1 39 97 c0 35 3a 60 2f 10 3b ea 74 de ba
       0.00036959045 0.00069333 0.0022000894 -0.0016972099
000180 49 e1 71 ba 69 62 64 ba e1 47 d1 3a 21 ac 0b 3a
       -0.00092269905 -0.0008712174 0.0015966856 0.00053280784
000190 96 03 cd ba 11 c8 67 ba 64 d0 2e bc 05 ec 92 bb
       -0.0015641327 -0.0008841763 -0.010669801 -0.004483702
0001a0 82 50 9c bb 60 7c c7 3a 03 e1 54 bc b3 88 9b bb
       -0.0047703395 0.0015219562 -0.0129931 -0.0047465204
0001b0 f6 db 60 bb 7e f0 ca ba 74 5e a8 3b 9b ae 42 b6
       -0.0034310794 -0.0015483049 0.005138213 -2.9009886e-06
0001c0 6e 1c bc 39 ea 7e 96 3b 4e 1f 9d 3b 81 4d ba ba
       0.00035879336 0.004592766 0.0047949916 -0.0014213772
0001d0 ab df e5 3a b8 3c c8 3a b0 4d 8c b9 fa 22 9f 3a
       0.0017537972 0.0015276885 -0.00026760763 0.0012141161
0001e0 30 5f 3e b8 38 b3 59 39 e2 26 86 39 bc 60 5e ba
       -4.538818e-05 0.00020761497 0.00025587442 -0.00084830425
0001f0 7e c4 6b ba c9 7f 0d bb a0 3b c5 3a 10 f9 01 bb
       -0.0008993818 -0.0021591058 0.0015047677 -0.001983229
000200 c0 21 81 ba 46 6d 5e bb 12 c7 48 3b d4 bb 36 3b
       -0.0009851977 -0.0033939644 0.0030636233 0.002788295
000210 38 d3 7f 3a b8 73 b7 ba 81 98 0c bc 34 6f 0b bb
       0.0009758952 -0.0013996279 -0.008581282 -0.0021276
000220 a6 25 c9 ba 76 89 40 3b f0 a2 11 3c ad 04 67 ba
       -0.0015346303 0.0029378808 0.008888945 -0.00088126474
000230 49 66 19 3b d8 b1 13 bb 55 8d 40 bc 65 1b 84 bb
       0.0023406914 -0.0022536423 -0.011752446 -0.004031586
000240 d5 f2 8f 3a 2a a7 5b 3c 18 52 46 3c 60 c1 cf bb
       0.0010982404 0.013406554 0.012104534 -0.006340191
000250 de 24 c8 3b 07 a6 93 bb 62 be 1b bc 1c 3a 95 3b
       0.0061079105 -0.004505876 -0.00950584 0.0045540463
000260 2a b7 8b ba 36 2d a3 ba 9f 22 bb bb 42 6f 07 ba
       -0.0010659446 -0.0012449387 -0.0057109143 -0.000516642
000270 fc 81 2a b9 14 58 7d ba 04 00 00 80 04 00 00 00
       -0.00016260886 -0.0009664309 -6e-45 6e-45
000280 48 06 ef ba 07 c8 21 bb fb e5 5c bb 0a 39 e4 b9
       -0.0018236125 -0.0024685876 -0.0033706415 -0.00043530046
000290 89 8c 04 bb 1c 6c 9f ba 04 00 00 80 e9 f6 06 36
       -0.0020225367 -0.0012162956 -6e-45 2.0111277e-06
0002a0 f6 75 57 bb 4f 2e 53 bb e8 e4 af 3a 23 3a a2 3a
       -0.0032876707 -0.0032223647 0.001341966 0.0012376945
0002b0 1b 25 f2 39 8d 87 cc 3a 89 fc e1 3b fd 23 e9 3b
       0.00046185483 0.0015604362 0.0068965596 0.007114886
0002c0 45 a5 97 3b 86 79 4c 3c f7 16 28 3c 34 5a cd 3b
       0.004627856 0.012480145 0.0102593815 0.0062668566
0002d0 c2 7c 41 3b 52 cb 6f 3b f0 5b f4 ba 6a cd 5f bb
       0.0029523824 0.0036589694 -0.0018643122 -0.0034149536
0002e0 88 f8 b7 38 22 5b 2c 3b 22 11 d3 3a 59 d7 1a bb
       8.7724125e-05 0.0026299437 0.0016103128 -0.0023626892
0002f0 58 31 f9 38 bf e8 62 3a be 32 88 37 ed 96 10 3b
       0.00011882436 0.00086558977 1.6236092e-05 0.0022062615
000300 6e b3 a8 b9 10 69 b4 3b 6e 12 cd b9 e3 50 22 ba
       -0.00032177143 0.0055056885 -0.00039114378 -0.00061918626
000310 55 4d eb b9 d8 49 b8 39 4f 4a 17 38 7d 25 54 39
       -0.0004488031 0.00035150233 3.607041e-05 0.00020231861
000320 00 00 00 00 00 00 00 00 00 00 00 00 00 00 00 00
       0.0 0.0 0.0 0.0
000330 00 00 00 00 00 00 00 00 00 00 00 00 00 00 00 00
       0.0 0.0 0.0 0.0
000340 d0 1f fa 38 a4 23 5b 3c 4b 5b 57 3b 16 43 5a bb
       0.000119268545 0.013375197 0.0032860811 -0.0033304146
000350 47 f3 dd b9 99 3d 87 3a f0 ff 16 39 38 73 0f 38
       -0.0004233366 0.001031804 0.00014400459 3.4201163e-05
000360 e2 86 b2 b9 65 7c 2f bb bf d7 b0 3b a9 21 6c 3b
       -0.000340513 -0.0026777026 0.0053968127 0.0036030805
000370 29 e5 01 3a 8a c2 e6 b9 a4 00 b2 bb 50 2a c9 b9
       0.0004955107 -0.0004401396 -0.0054322053 -0.00038369233
000380 3e 9c 37 bb bc 6f ea 3a 0d 79 83 bb d0 f7 90 ba
       -0.0028016712 0.0017886083 -0.004012233 -0.0011060182
000390 3a b2 f1 b9 dd c2 25 3b c0 75 23 3b 40 85 45 3a
       -0.0004609989 0.002529315 0.002494201 0.00075348094
0003a0 eb d1 f8 bb 45 b7 4a bb 0a 6d 7d bb ff 0a ca bb
       -0.0075933835 -0.003093199 -0.0038669729 -0.0061658616
0003b0 95 70 92 bb ea 38 11 ba 5d a9 c5 97 e1 f0 df b5
       -0.004468987 -0.0005539792 -1.277358e-24 -1.66849e-06
0003c0 45 4e 85 bb 5a 96 77 bc 35 a9 37 3b 4b b8 dc bb
       -0.0040681683 -0.01511153 0.002802444 -0.0067358366
0003d0 cd 5d 5c bb 71 d3 0d 3a 2b 04 00 00 04 00 00 00
       -0.0033625246 0.00054102304 1.495e-42 6e-45
0003e0 2d 08 d7 3a f8 08 15 3b 6e 7d ca 39 16 d0 28 3b
       0.0016405635 0.0022740941 0.00038621895 0.0025758795
0003f0 1a a7 e9 39 e9 08 7b 3a cc f9 87 3b b4 02 4b 3b
       0.00044565724 0.0009576218 0.004149651 0.0030976953

exp_avg_sq f4 [64, 8]
000000 95 ea 26 39 d6 00 97 39 a4 d6 a4 38 bd a7 5b 3a
       0.00015918382 0.00028801587 7.860109e-05 0.0008379182
000010 6c dc 82 39 e8 af 8e 37 e6 2a eb 16 0a bb 3a 38
       0.0002495976 1.7009632e-05 3.799337e-25 4.452005e-05
000020 37 4a 8b 38 25 ab 09 3b 98 65 95 38 03 ec 8c 39
       6.64186e-05 0.002100655 7.123797e-05 0.00026878723
000030 ff 76 ac 38 bf 9c 1d 38 e3 88 e1 38 44 a5 4b 38
       8.223764e-05 3.7577698e-05 0.00010754333 4.8552887e-05
000040 e5 a0 ea 39 a4 ab 85 3b 6e 4f c7 39 94 9b a9 3a
       0.00044751834 0.004079299 0.00038015418 0.0012940043
000050 49 36 af 39 61 78 bb 39 31 e4 b8 3b 2b 10 94 3b
       0.00033419047 0.0003575711 0.005642437 0.004518529
000060 de d9 62 38 05 f6 d0 39 43 df 2b 38 06 29 22 39
       5.4085504e-05 0.0003985615 4.0977506e-05 0.00015464806
000070 d9 f7 13 38 7e 42 72 38 ba 10 91 3a aa 6d 7c 3a
       3.5278357e-05 5.775922e-05 0.0011067607 0.00096293783
000080 d6 00 57 37 6c 71 42 3a 4f b7 84 37 ba 3f 10 38
       1.2815193e-05 0.0007417414 1.5820986e-05 3.4391625e-05
000090 1d 45 10 37 de 95 25 37 f4 01 00 00 39 fa dd 34
       8.5991605e-06 9.86966e-06 7e-43 4.134652e-07
0000a0 25 e2 3c 39 18 d4 3e 3c 02 06 b5 39 2f e9 1e 3a
       0.00018013323 0.011647247 0.00034527486 0.0006061969
0000b0 0b 06 f4 38 0f 7a cc 38 42 a0 a8 39 25 79 65 38
       0.00011635952 9.750213e-05 0.00032162858 5.471068e-05
0000c0 84 94 cf 39 da ae d3 3c 62 c2 78 3a a8 7c ee 3a
       0.0003959277 0.025840212 0.00094894145 0.001819511
0000d0 6e ae 80 39 3e 76 76 39 ab 01 f0 15 fa 1f 8e 38
       0.00024544023 0.00023504437 9.693786e-26 6.777044e-05
0000e0 ac 07 05 38 d9 6e 17 3a f4 a1 1a 38 b0 23 b5 38
       3.1716816e-05 0.00057767105 3.686729e-05 8.6374e-05
0000f0 ce 0a 90 37 bf ea 1e 38 54 2a 82 37 57 3e cb 36
       1.7171169e-05 3.788876e-05 1.5516918e-05 6.0571288e-06
000100 80 ff 93 38 47 ef 58 3a 3b 2d f5 38 36 00 d3 39
       7.057097e-05 0.0008275401 0.00011690935 0.00040245213
000110 3e 85 73 38 3b 3e af 38 16 c0 16 22 64 40 82 39
       5.8059806e-05 8.3562416e-05 2.043048e-18 0.00024843507
000120 63 05 12 3a 61 9f b3 3c dc 51 81 3a 86 40 6c 3b
       0.00055702607 0.021926584 0.0009866315 0.00360492
000130 22 72 02 3a 59 b8 b2 39 ec 60 1d 35 52 68 43 39
       0.00049761136 0.00034088155 5.86281e-07 0.00018635512
000140 03 1a 26 38 6a 71 18 3a 32 4c 10 38 50 41 1a 39
       3.960171e-05 0.000581524 3.4403238e-05 0.00014710915
000150 e9 78 54 38 3d 7d ad 38 85 25 07 39 a3 59 f3 37
       5.0657345e-05 8.27261e-05 0.0001288858 2.9009598e-05
000160 d9 46 15 38 fe da a4 3a 3b 45 80 38 fe 7c 10 39
       3.559035e-05 0.0012577472 6.116411e-05 0.00013779473
000170 57 ed 19 38 92 5a d1 37 38 52 77 39 1e a9 5f 39
       3.6699083e-05 2.4956917e-05 0.00023586384 0.00021329938
000180 70 61 54 39 bf 35 58 38 6b 65 ee 38 16 ce 29 3a
       0.00020254194 5.1548468e-05 0.00011367615 0.00064775476
000190 02 cf 80 39 5e 89 bc 39 b1 e9 92 3a 7d 29 30 39
       0.00024568295 0.000359605 0.0011208561 0.00016800124
0001a0 21 2c 4c 3a 52 82 95 3c ff d0 80 3a dc 2a 86 3b
       0.0007788558 0.018250618 0.0009827911 0.0040944647
0001b0 08 69 63 3a 7d d7 30 3a d2 b1 48 3a af 16 81 38
       0.00086750137 0.00067459774 0.0007655892 6.1554245e-05
0001c0 21 16 03 39 c1 61 cb 3b 5d f0 29 39 98 94 14 3a
       0.00012501377 0.0062067215 0.00016206638 0.0005667894
0001d0 cf b4 fd 38 3e 71 43 38 5d 4c 83 39 9a ea 4f 39
       0.00012097658 4.6597088e-05 0.00025043162 0.00019828454
0001e0 57 b0 83 38 17 a7 eb 36 d3 82 d4 37 bc aa 40 37
       6.2794126e-05 7.0229976e-06 2.533329e-05 1.1483844e-05
0001f0 8c 04 14 38 46 ae b0 38 e9 f0 02 3a d3 aa 24 3a
       3.5290184e-05 8.424795e-05 0.0004995005 0.00062815583
000200 ef 55 dd 38 6d c9 a6 39 d3 d0 f5 38 d7 78 f3 39
       0.000105541076 0.0003181206 0.00011721407 0.00046438604
000210 32 ca d2 38 ea ca de 38 6c 87 d2 39 82 81 8c 39
       0.00010051242 0.000106235806 0.00040155218 0.00026799372
000220 cf 5c a4 39 08 af 25 3c 43 90 0e 3a 40 f3 c7 3a
       0.00031349665 0.0101125315 0.0005438367 0.0015254989
000230 eb f5 79 39 b6 32 a7 39 44 19 cb 39 c5 e4 64 39
       0.00023838102 0.00031890505 0.00038738002 0.00021828998
000240 f5 20 f0 39 ba 07 1d 3c b4 a7 4a 3a bd b3 29 3b
       0.00045800922 0.009584362 0.0007730678 0.0025894486
000250 2b b4 d6 39 b4 1a f4 39 99 8a b1 3b c4 0d 93 3b
       0.00040951496 0.00046559202 0.0054181335 0.004487725
000260 01 ee 15 39 05 2e 62 3b 08 f6 16 39 ad 17 2a 3a
       0.0001429841 0.0034512293 0.00014396769 0.00064885133
000270 42 ca 35 39 db 2e 10 38 a4 d7 b1 32 61 b6 6e 2d
       0.00017336852 3.4375913e-05 2.0703574e-08 1.356923e-11
000280 52 99 12 39 1c 32 d1 3a 1e ae 1a 39 f0 04 8b 3a
       0.00013980761 0.0015960368 0.00014751448 0.001060633
000290 45 59 5f 39 5e c4 87 38 f4 01 00 00 51 20 fa 37
       0.00021300193 6.473878e-05 7e-43 2.981737e-05
0002a0 67 dc ca 38 e4 70 cd 3a 12 f7 8a 38 78 eb 22 39
       9.673164e-05 0.0015673903 6.626373e-05 0.00015537243
0002b0 d1 ab 76 38 bc b8 d6 38 26 03 f8 39 3d c5 d2 39
       5.8810987e-05 0.00010238725 0.00047304592 0.00040201275
0002c0 eb 33 76 39 36 01 83 3b f9 38 be 39 49 63 76 3a
       0.00023479729 0.003997947 0.00036282072 0.000939895
0002d0 d0 60 50 39 e5 07 23 39 78 f9 30 3a 80 32 11 3a
       0.00019872491 0.00015547832 0.0006751041 0.0005538836
0002e0 ee 58 44 38 ff cc 99 3a 00 55 0c 38 2f 7a 53 39
       4.6812864e-05 0.0011734067 3.3457763e-05 0.00020168045
0002f0 52 b6 4e 38 bb 95 4e 37 23 6b 12 38 2a fc 96 38
       4.9284026e-05 1.2313419e-05 3.490889e-05 7.1995266e-05
000300 77 e6 48 38 9e 06 c2 39 84 40 b6 37 dc 8d 16 38
       4.7898353e-05 0.00037007494 2.1726133e-05 3.5894904e-05
000310 6d 43 a8 37 45 6f 0d 38 ec 05 cd 37 27 5e f1 37
       2.0058558e-05 3.3720647e-05 2.4440662e-05 2.8773282e-05
000320 00 00 00 00 00 00 00 00 00 00 00 00 00 00 00 00
       0.0 0.0 0.0 0.0
000330 00 00 00 00 00 00 00 00 00 00 00 00 00 00 00 00
       0.0 0.0 0.0 0.0
000340 21 98 00 38 d6 7e c0 3a 81 a0 07 38 03 0e 89 38
       3.065926e-05 0.0014686238 3.233599e-05 6.535279e-05
000350 03 be bd 37 d6 ee b9 37 94 b8 01 39 66 15 53 37
       2.2619037e-05 2.2164935e-05 0.0001237116 1.2581562e-05
000360 17 af 1d 39 ab 3e d7 3a 6c 75 f5 38 31 c9 b1 39
       0.00015037913 0.0016421875 0.00011704382 0.0003390997
000370 89 9d bc 38 ca 3f 4f 39 8b 58 28 3a 28 44 0a 39
       8.993882e-05 0.00019764822 0.00064218853 0.00013186096
000380 b0 1b bc 39 51 e6 0d 3a e5 32 53 39 e5 5a c4 3a
       0.00035878783 0.0005413043 0.00020141488 0.0014980702
000390 5d f5 f1 39 43 f8 c2 39 28 13 ef 3a 83 94 cb 3a
       0.00046149912 0.00037187533 0.0018239962 0.0015531931
0003a0 bc bd 20 3a 1f 73 12 3c 46 39 4d 3a 6e 89 43 3b
       0.0006131788 0.00893858 0.0007828664 0.0029836553
0003b0 82 c4 24 3a 31 c6 d5 39 f5 8a ea 37 8d 93 d6 38
       0.00062853855 0.0004077419 2.795968e-05 0.00010231799
0003c0 db 80 f1 38 25 f3 42 3c 2c 55 96 39 92 f0 94 39
       0.00011515777 0.0118987905 0.00028673687 0.00028408
0003d0 99 4c cd 38 e2 af fb 37 12 a9 e2 37 f4 01 00 00
       9.789429e-05 3.0003433e-05 2.7020029e-05 7e-43
0003e0 0d 30 d7 37 e6 dc 49 38 ce 24 37 37 79 40 d4 37
       2.5652373e-05 4.8127862e-05 1.0916219e-05 2.5302392e-05
0003f0 8e fb 54 37 7a 8f 19 38 6d fb 5c 39 6d b7 35 39
       1.2694754e-05 3.6611666e-05 0.00021074498 0.00017329837

exp_avg f4 [64]
000000 6d 30 72 3a b3 ec 76 3b a4 61 be 3c 1a 3c cf 3b
       0.00092387834 0.0037677705 0.023239918 0.0063243033
000010 8c ac 83 bb 85 25 13 bc 68 c5 38 bc 64 91 95 bb
       -0.004018372 -0.008981113 -0.011277534 -0.004564451
000020 56 34 db 3b 27 97 06 bc 22 c6 90 bb c0 67 df 3b
       0.0066895885 -0.008214748 -0.0044181505 0.006817788
000030 9b 8e 40 bc 49 5a 6d 3c 3d d8 0a 3c e0 ab 74 b9
       -0.01175275 0.014486858 0.008474407 -0.00023333682
000040 ed de 5d bc be ca a5 bc 0b d4 80 bc ba d9 4e 3a
       -0.013541919 -0.020238277 -0.01572611 0.000789072
000050 ae 03 64 bb e4 9a 66 3c c7 f1 0b bc fd 91 b9 3b
       -0.0034792232 0.014075015 -0.008541531 0.005663155
000060 cd 2e e6 3b 00 00 00 00 58 46 2e 3c 43 b9 ab bc
       0.007024622 0.0 0.010636888 -0.020962363
000070 72 ea 64 3c 68 09 fc 3b fe a4 ab bb d0 b6 e6 3b
       0.013971912 0.007691551 -0.0052381745 0.007040836
000080 28 08 ed bb 7e 24 8d 3b 98 da 41 bc 4e ad 59 3b
       -0.0072336383 0.0043073287 -0.011831902 0.003321487
000090 b9 5b eb bc c3 c7 fd 3b e2 a1 a3 bb 16 25 9b 3d
       -0.02873026 0.0077447607 -0.004993663 0.07575433
0000a0 3c 9d d4 3b f8 26 8b bb a0 e5 40 3a 84 2b 87 3b
       0.0064884704 -0.004246589 0.00073584355 0.0041250605
0000b0 c2 c1 80 3c ff 41 e6 3b 74 69 16 3a 02 00 a8 3c
       0.01571739 0.0070269103 0.00057377596 0.020507816
0000c0 b9 d6 c0 bc 8c 9f 5c bc bb 0b 63 3b 59 64 a2 3c
       -0.023539888 -0.013465773 0.0034644443 0.01982324
0000d0 3c 75 50 bc 11 2b 49 bc 98 39 18 3c 64 05 1b bc
       -0.012723263 -0.012278334 0.009291075 -0.009461734
0000e0 ca 14 8d bc 64 f2 80 3b 0f 2f 8f 3c 7a e4 10 3c
       -0.017221827 0.003935145 0.017478494 0.008843536
0000f0 eb e1 90 3a f6 32 7f bc 04 00 00 00 d7 f9 1c 3c
       0.0011053657 -0.015576115 6e-45 0.009581051

exp_avg_sq f4 [64]
000000 a4 40 10 3a a8 90 36 3a 9c de 36 3c 99 90 ff 3a
       0.0005502796 0.00069643045 0.011161473 0.001949805
000010 ea 82 38 39 d3 a6 61 3b 51 0d 19 3c 42 f9 57 3a
       0.00017596377 0.003443171 0.009341554 0.00082387414
000020 ee 71 05 3b 61 79 30 3c 05 95 b2 39 40 06 41 3a
       0.0020362097 0.0107711265 0.00034061834 0.0007363297
000030 3f 94 d2 3a b7 c8 1a 3c ec 55 cd 3a 9e ee 61 3a
       0.0016065909 0.009447268 0.0015665866 0.00086186256
000040 02 d6 ac 3a bf 94 10 3c 05 46 8c 3c 7b 05 94 3a
       0.0013186338 0.008824526 0.017123232 0.0011293137
000050 03 2d d2 3a b8 6e 0b 3b fd 19 93 3b 78 df c0 39
       0.0016035143 0.002127571 0.004489182 0.0003678759
000060 0c 3f c0 3a 00 00 00 00 d8 33 d5 39 7f ca 3f 3b
       0.0014667227 0.0 0.00040665152 0.0029264984
000070 91 32 85 3b 54 15 21 3c 06 d0 d2 3a 0e df 25 3a
       0.004064866 0.009831745 0.0016083724 0.0006327488
000080 e3 93 d9 3a 1f 15 15 3b a4 71 a4 3b 61 d3 82 3a
       0.001659986 0.0022748185 0.00501843 0.0009981209
000090 c8 3b 26 3c 75 27 5c 3a 46 b4 7c 3a 95 63 07 3d
       0.010146089 0.00083982135 0.00096399 0.033053953
0000a0 11 45 81 3a ce 0a 82 3b 11 18 a7 3a bb ed a7 3a
       0.0009862502 0.003968573 0.0012748261 0.0012811938
0000b0 0d fa 2b 3b bc 0b a6 3a 0c 4b 05 3c 62 25 f6 3b
       0.0026241571 0.0012668292 0.008135568 0.0075117806
0000c0 5e 21 b5 3b a9 50 21 3b 50 e7 cf 3a b9 e8 18 3c
       0.0055276593 0.0024614728 0.0015861783 0.009332829
0000d0 5c 8e 29 3b 55 5d 8b 3a da 08 cc 3a 5d c3 1b 3a
       0.0025872206 0.0010632674 0.0015566603 0.0005941892
0000e0 e4 bd f3 3a 39 ff 2e 3a 0b 0c 39 3c 1e 71 6c 3a
       0.001859602 0.00066756044 0.011294375 0.00090195413
0000f0 a2 8a e7 3a f3 d0 50 3b ec 9c 05 34 b3 dd 26 3b
       0.0017665217 0.0031862825 1.2443678e-07 0.0025461733

exp_avg f4 [64, 64]
000000 04 00 00 00 04 00 00 00 04 00 00 00 04 00 00 00
       6e-45 6e-45 6e-45 6e-45
000010 04 00 00 00 04 00 00 00 04 00 00 00 04 00 00 00
       6e-45 6e-45 6e-45 6e-45
000020 04 00 00 00 04 00 00 00 04 00 00 00 04 00 00 00
       6e-45 6e-45 6e-45 6e-45
000030 04 00 00 80 04 00 00 00 04 00 00 00 04 00 00 00
       -6e-45 6e-45 6e-45 6e-45
000040 04 00 00 00 04 00 00 00 04 00 00 00 04 00 00 00
       6e-45 6e-45 6e-45 6e-45
000050 04 00 00 00 04 00 00 00 04 00 00 00 04 00 00 00
       6e-45 6e-45 6e-45 6e-45
000060 04 00 00 00 00 00 00 00 04 00 00 80 04 00 00 00
       6e-45 0.0 -6e-45 6e-45
000070 04 00 00 00 04 00 00 80 04 00 00 80 04 00 00 00
       6e-45 -6e-45 -6e-45 6e-45
000080 04 00 00 80 04 00 00 00 04 00 00 00 04 00 00 00
       -6e-45 6e-45 6e-45 6e-45
000090 04 00 00 80 04 00 00 00 04 00 00 00 04 00 00 00
       -6e-45 6e-45 6e-45 6e-45
0000a0 04 00 00 00 04 00 00 00 04 00 00 00 04 00 00 00
       6e-45 6e-45 6e-45 6e-45
0000b0 04 00 00 00 04 00 00 00 04 00 00 00 04 00 00 00
       6e-45 6e-45 6e-45 6e-45
0000c0 04 00 00 00 04 00 00 00 04 00 00 00 04 00 00 00
       6e-45 6e-45 6e-45 6e-45
0000d0 04 00 00 00 04 00 00 80 04 00 00 00 04 00 00 00
       6e-45 -6e-45 6e-45 6e-45
0000e0 04 00 00 00 04 00 00 00 04 00 00 00 04 00 00 00
       6e-45 6e-45 6e-45 6e-45
0000f0 04 00 00 80 04 00 00 00 04 00 00 80 04 00 00 00
       -6e-45 6e-45 -6e-45 6e-45
000100 04 00 00 00 04 00 00 00 04 00 00 00 04 00 00 00
       6e-45 6e-45 6e-45 6e-45
000110 04 00 00 00 00 00 00 00 00 00 00 00 04 00 00 00
       6e-45 0.0 0.0 6e-45
000120 00 00 00 00 04 00 00 00 04 00 00 00 04 00 00 00
       0.0 6e-45 6e-45 6e-45
000130 04 00 00 00 04 00 00 00 04 00 00 00 00 00 00 00
       6e-45 6e-45 6e-45 0.0
000140 00 00 00 00 04 00 00 00 04 00 00 00 04 00 00 00
       0.0 6e-45 6e-45 6e-45
000150 00 00 00 00 00 00 00 00 00 00 00 00 00 00 00 00
       0.0 0.0 0.0 0.0
000160 00 00 00 00 00 00 00 00 04 00 00 00 00 00 00 00
       0.0 0.0 6e-45 0.0
000170 04 00 00 00 04 00 00 00 04 00 00 00 00 00 00 00
       6e-45 6e-45 6e-45 0.0
000180 04 00 00 80 04 00 00 00 04 00 00 00 04 00 00 00
       -6e-45 6e-45 6e-45 6e-45
000190 00 00 00 00 04 00 00 00 04 00 00 00 00 00 00 00
       0.0 6e-45 6e-45 0.0
0001a0 04 00 00 00 00 00 00 00 00 00 00 00 04 00 00 00
       6e-45 0.0 0.0 6e-45
0001b0 00 00 00 00 04 00 00 00 00 00 00 00 04 00 00 00
       0.0 6e-45 0.0 6e-45
0001c0 00 00 00 00 04 00 00 00 04 00 00 00 04 00 00 00
       0.0 6e-45 6e-45 6e-45
0001d0 00 00 00 00 00 00 00 00 04 00 00 00 04 00 00 00
       0.0 0.0 6e-45 6e-45
0001e0 00 00 00 00 04 00 00 00 04 00 00 00 04 00 00 00
       0.0 6e-45 6e-45 6e-45
0001f0 00 00 00 00 04 00 00 00 00 00 00 00 04 00 00 00
       0.0 6e-45 0.0 6e-45
000200 43 b3 19 39 33 21 70 39 1f 0b 15 39 35 9c 23 3a
       0.00014657997 0.00022900551 0.0001421389 0.0006241233
000210 7c e4 10 3a 85 af 63 b8 04 00 00 80 ae 09 99 b8
       0.0005527211 -5.4284483e-05 -6e-45 -7.2974115e-05
000220 87 44 b8 39 21 1e 3d 3a 95 89 13 ba cf 32 ed b9
       0.00035146272 0.00072142674 -0.00056281063 -0.00045242018
000230 1f 98 98 37 8c 19 ef 39 3f 8f 09 3a 04 00 00 00
       1.8190649e-05 0.00045604666 0.00052474806 6e-45
000240 11 23 03 b9 59 7d b5 39 01 7e bd 39 50 3d 1e 37
       -0.00012506197 0.00034616402 0.0003614277 9.431809e-06
000250 b3 6f f4 39 db d8 a7 39 e5 12 22 b9 44 c0 e8 39
       0.0004662253 0.00032014292 -0.00015456563 0.00044393737
000260 04 00 00 00 00 00 00 00 56 0c f7 38 48 48 45 b8
       6e-45 0.0 0.000117801756 -4.7035777e-05
000270 5b f6 02 b9 6f d9 0f 37 04 00 00 00 1f 8e 17 2d
       -0.0001248954 8.574089e-06 6e-45 8.6149135e-12
000280 1f 95 87 b6 9c 4a 4b 39 fa 91 28 b9 3a 9f 5f 38
       -4.0406735e-06 0.00019387383 -0.00016076109 5.3315634e-05
000290 95 c6 9e b8 af 7d 46 ba 47 03 c7 38 04 a8 0e b9
       -7.571016e-05 -0.0007571829 9.48967e-05 -0.00013604766
0002a0 04 00 00 80 ab 4b 9a 38 04 00 00 00 d6 51 46 38
       -6e-45 7.3573865e-05 6e-45 4.7283094e-05
0002b0 d9 2b 5c b8 c4 82 14 b8 db ad 75 39 4d b5 8f 39
       -5.2492924e-05 -3.5407735e-05 0.00023429787 0.00027410165
0002c0 53 0b b9 b5 88 03 24 3a fc 51 fe 39 76 f0 40 ba
       -1.378687e-06 0.000625663 0.00048507738 -0.000736005
0002d0 de 30 98 b9 72 b6 7c b9 b8 00 11 3a 16 17 f8 b8
       -0.00029028108 -0.00024100559 0.0005531418 -0.000118298616
0002e0 4b 53 42 b9 da ae 00 b8 8f d6 2f b9 77 88 44 2d
       -0.00018532311 -3.068042e-05 -0.0001676923 1.1171611e-11
0002f0 cc bb e3 b7 af d4 76 39 04 00 00 00 1f 54 96 39
       -2.7147958e-05 0.00023539619 6e-45 0.00028672905
000300 7d 40 1e b7 f2 e1 16 3a 4f ce 16 3a 72 3c 02 3a
       -9.432549e-06 0.00057557144 0.0005752788 0.00049681135
000310 4b f4 15 ba 72 e8 e7 39 0f 1c c3 38 3f a7 1b 3a
       -0.00057203014 0.0004423294 9.303551e-05 0.00059377024
000320 62 78 4f 39 37 8b 07 39 fe 21 ca 39 f0 4c d9 39
       0.00019785904 0.00012926465 0.00038553769 0.00041446788
000330 04 00 00 80 5d 6c 7e 3a 90 c6 6f b8 04 00 00 80
       -6e-45 0.00097054784 -5.7166966e-05 -6e-45
000340 04 00 00 80 56 25 80 39 78 a2 45 38 b2 e4 4d 3a
       -6e-45 0.0002444188 4.711977e-05 0.00078542077
000350 e5 13 81 39 a7 b3 95 39 32 d5 96 39 bc b7 6b b9
       0.0002461962 0.00028553346 0.00028769072 -0.00022479793
000360 a6 90 5b ba 00 00 00 00 9e 99 41 39 6a e0 27 3a
       -0.00083757413 0.0 0.00018463141 0.0006403985
000370 12 9b d0 37 55 ad 0f 3a 6b 40 4c 39 d3 4a 21 b8
       2.4867742e-05 0.00054808456 0.00019478954 -3.8455077e-05
000380 04 00 00 00 de ef 8c 3a c2 c4 38 3a 56 6b 68 39
       6e-45 0.0010752638 0.0007048362 0.0002216523
000390 f5 d2 9c 39 ef 19 a5 3a 3e 77 46 3a 4b e8 9b 39
       0.00029911814 0.001259623 0.0007570869 0.00029736976
0003a0 76 75 0f 3a 13 1f 95 37 a3 67 67 b5 00 98 da 39
       0.000547252 1.7776654e-05 -8.620502e-07 0.0004169345
0003b0 ad 59 42 3a 3a 32 43 3a 25 84 0d 3a 7c b0 a8 39
       0.00074138754 0.0007446144 0.0005398414 0.00032174948
0003c0 ea df 93 39 a5 06 b7 3a 49 31 16 b9 b1 84 c8 39
       0.00028204854 0.0013963772 -0.00014323475 0.00038245835
0003d0 f4 4f 9b 39 1b 64 f0 b6 ac 2a 64 39 9f 11 85 3a
       0.00029623474 -7.164211e-06 0.00021759671 0.0010152346
0003e0 15 c1 62 39 86 7b b1 38 d6 e0 3e 3a 04 00 00 80
       0.00021624968 8.463026e-05 0.0007281428 -6e-45
0003f0 41 ea 6e 31 ee 7a b7 3a 04 00 00 80 da 9d 2d 39
       3.4766716e-09 0.0013998428 -6e-45 0.0001655737
